embeddings/actor12/angry_i01_s02_r01_layer5.npy (npy, 3200 bytes, 1 tensors)

array f4 [768]
0	0x3d245f24	0.040129796
1	0x3d3f9266	0.046770476
2	0xbca010ab	-0.019539198
3	0x3ccbe022	0.024887148
4	0xbde5fe79	-0.112301774
5	0x3de32fac	0.11093077
6	0x3db69d71	0.08916748
7	0xbce5abe5	-0.028036067
8	0x3ca318c2	0.019909266
9	0x3d8d1529	0.068888016
10	0xbd98df8a	-0.07464512
11	0x3cb81a70	0.022473544
12	0x3d7c4fd6	0.061599575
13	0xbd8f7d90	-0.07006371
14	0xbe111805	-0.14169319
15	0x3c8fa2fb	0.01753377
16	0xbe124c4f	-0.14286922
17	0x3cf762d2	0.030198488
18	0xbbafd92c	-0.005366465
19	0xbd2c976d	-0.0421366
20	0xbcf835e2	-0.03029913
21	0xbd865d8d	-0.06560812
22	0x3d3a825d	0.04553448
23	0xbb7cc60f	-0.00385702
24	0xbd8d851d	-0.06910155
25	0x3d80e2e3	0.06293275
26	0xbd5faffe	-0.0546112
27	0x3cec4eb6	0.028846126
28	0xbdade5c6	-0.084910914
29	0xbe0f9995	-0.1402343
30	0x3d9ff24b	0.078098856
31	0xbd6b1030	-0.057388484
32	0xbbb36fe8	-0.0054759867
33	0x3b98dacd	0.004664755
34	0xbc754d2e	-0.014972014
35	0x3ddb9d3d	0.1072335
36	0xbcbbc71f	-0.022922097
37	0x3d399fef	0.04531854
38	0xbcba5f01	-0.02275038
39	0x3ddfb2db	0.10922786
40	0xbd1b6625	-0.03793921
41	0xbce42527	-0.027849747
42	0x3e080d9a	0.13286439
43	0xbd115f36	-0.03549119
44	0x3c825774	0.015910842
45	0x3c653fbb	0.013992245
46	0xbd4eeb32	-0.05051727
47	0xbd508d02	-0.050915726
48	0xbc80d434	-0.015726186
49	0x3d501a15	0.050806124
50	0xbd504b64	-0.050853148
51	0xbd39f020	-0.045395017
52	0xbcfc2ceb	-0.030783137
53	0xbcf1c8c4	-0.029514678
54	0xbc5ce703	-0.013482812
55	0xbe1abded	-0.15111513
56	0xbb97660e	-0.00462032
57	0x3d3f4928	0.046700627
58	0x3c54ed49	0.012996026
59	0x3d9ea46e	0.07746206
60	0x3d5de48d	0.05417304
61	0xbcded626	-0.027201723
62	0x3c9a7eb3	0.018859243
63	0xbc684553	-0.014176684
64	0x3dd43cb0	0.10363138
65	0x3c98c27e	0.018647429
66	0x3c5889d9	0.013216459
67	0xbdb5ba64	-0.08873442
68	0x3d79d222	0.060991414
69	0xbc008bab	-0.007845799
70	0xbcbec1d8	-0.023285791
71	0x3cdcb67d	0.026942486
72	0x3d598ae0	0.053110957
73	0x39e8bad6	0.00044389692
74	0xbb8cac54	-0.004293004
75	0x3b939ce2	0.004504786
76	0xbc4cdc40	-0.012503684
77	0x3cddcb6a	0.027074534
78	0x3ba1f84e	0.0049429303
79	0xbc472523	-0.01215485
80	0xbd8aea0e	-0.06782924
81	0xbd25b607	-0.040456798
82	0xbded1c8b	-0.1157771
83	0xbca98874	-0.020694949
84	0xbc67f051	-0.014156417
85	0xbd450bb7	-0.048106875
86	0x3c881fcf	0.01661673
87	0x3cebf6c3	0.028804189
88	0x3c1fe6ab	0.009759585
89	0x3d24bc69	0.040218744
90	0xbd7fa978	-0.062417477
91	0x3c090ff5	0.008365621
92	0x3c116d1c	0.008876111
93	0x3cc9f970	0.024655074
94	0x3d26413c	0.040589556
95	0xbd95dd98	-0.07317656
96	0xbe2b49ca	-0.16727367
97	0x3d843427	0.0645526
98	0x3c8be54e	0.017077114
99	0xbd0e2855	-0.034706432
100	0xbd1152a7	-0.035479214
101	0xbde4273c	-0.11140296
102	0x3d01a545	0.031651754
103	0x3ca77a29	0.020443993
104	0x3d16af24	0.03678812
105	0xbe4359af	-0.1907718
106	0xbd805d77	-0.06267827
107	0xbb820295	-0.003967593
108	0x3d8937d3	0.06700101
109	0xbd62e480	-0.055393696
110	0x3d254f34	0.040358737
111	0x3cf3c479	0.029756771
112	0x3d074c78	0.03303191
113	0x3d195f9e	0.037444703
114	0xbe45bda8	-0.1931063
115	0xbd36aee2	-0.044600375
116	0xbd739e5b	-0.05947719
117	0x3d5a711d	0.05333053
118	0x3cca6674	0.024707057
119	0x3d8cdef5	0.06878463
120	0x3d0fbf13	0.035094332
121	0xbd1efda4	-0.03881611
122	0xbd1f6559	-0.038915012
123	0xbdd5272c	-0.10407862
124	0x3d850600	0.06495285
125	0x3ddeb6fd	0.10874746
126	0xbc4a04ee	-0.012330277
127	0xbc96f835	-0.018428901
128	0x39e3c044	0.00043440063
129	0x3e14bc7e	0.14525029
130	0x38afd729	8.384727e-05
131	0xbd989e5e	-0.07452081
132	0xbe00b228	-0.12567961
133	0x3be714fe	0.007052063
134	0xbc5713e0	-0.013127297
135	0x3d3545a5	0.04425587
136	0xbc580766	-0.013185358
137	0xbdbd5a11	-0.092456944
138	0xbcfc3953	-0.030789053
139	0x3c04723d	0.008083877
140	0x3c8acd58	0.016943619
141	0xbd2bd565	-0.041951556
142	0xbe1ce686	-0.15322313
143	0x3d66e3b4	0.0563695
144	0xbd9c23f2	-0.076240435
145	0x3c583820	0.013196975
146	0xbdc904c6	-0.098153636
147	0xbc45f8fc	-0.012083288
148	0x3cfce727	0.03087194
149	0xbc944073	-0.018097138
150	0xbb2ce8e2	-0.0026383926
151	0xbd364db5	-0.0445077
152	0x3d726d89	0.059186492
153	0x3f120b01	0.5704804
154	0x3cbfc008	0.023406997
155	0xbd3c1e23	-0.045927178
156	0xbd0b22ed	-0.033968855
157	0xbc974813	-0.018466985
158	0xbc893d5f	-0.016752897
159	0xbd1b25c5	-0.037877817
160	0x3dcbf210	0.09958279
161	0xbe3a60d6	-0.18201002
162	0x3d9d0e71	0.0766877
163	0xbc47e1be	-0.012199817
164	0xbd8a53c3	-0.067542575
165	0xbe426ae0	-0.18986082
166	0xbd7e7541	-0.06212354
167	0xbb8aee35	-0.0042398223
168	0x3e3f4b72	0.18681124
169	0xbc6f92b0	-0.014622375
170	0xbd660bd8	-0.05616364
171	0x3d923f91	0.071410306
172	0xbceb93a9	-0.028756933
173	0xbd54682d	-0.051857162
174	0x3ba89ea5	0.005145865
175	0xbdf6f73c	-0.12058875
176	0x3d88dc52	0.06682648
177	0xbcd520a3	-0.026016539
178	0x3d4ba3b2	0.04971666
179	0x398d36df	0.00026934498
180	0xbd24a0ae	-0.0401923
181	0xbb19fbcf	-0.0023496037
182	0xbc236076	-0.009971729
183	0xbdda398a	-0.10655506
184	0xbdc12a22	-0.09431864
185	0xbd395dc9	-0.045255456
186	0x3ba3717d	0.004987894
187	0x3d937efc	0.07201955
188	0xbb7ae792	-0.0038285
189	0x3d7ed451	0.0622142
190	0xbdbe9dc4	-0.09307435
191	0xbdd3b5e9	-0.10337431
192	0x3c26aadc	0.010172572
193	0xbe00c647	-0.12575637
194	0xbd68622b	-0.056734245
195	0xbd39ca17	-0.045358744
196	0x3cef30cb	0.029198071
197	0x3d202c77	0.039104905
198	0x3d8b2b97	0.067954235
199	0x3d3f372b	0.04668347
200	0xbd045a5c	-0.032312736
201	0x3d416953	0.047219586
202	0x3d9c4bee	0.0763167
203	0xbd3afb00	-0.04564953
204	0x3ddc0f98	0.10745162
205	0x3ddfe6d6	0.109327
206	0xba8fff6f	-0.0010986159
207	0xbc3b39ab	-0.011427323
208	0x3d40ef08	0.047102958
209	0xbd04c11e	-0.032410733
210	0x3da7f7d3	0.082015656
211	0xbce8f04f	-0.0284349
212	0x3c91f679	0.017817723
213	0x3b2b63b2	0.0026151952
214	0xbb5bd345	-0.0033542675
215	0xbc0e3dbd	-0.008681712
216	0x3de4adad	0.111659385
217	0x3cc20311	0.023683103
218	0xbbe26b04	-0.00690973
219	0x3d8046a1	0.062634714
220	0xbdb8c501	-0.090219505
221	0x3de80492	0.11328997
222	0x3d84d1dd	0.06485341
223	0xbd305f90	-0.043059886
224	0x3d064ed3	0.032790016
225	0xbcf89f8b	-0.030349514
226	0xbb0ec3fa	-0.0021784292
227	0x3bebffc2	0.0072021196
228	0xbb914293	-0.004432985
229	0xbd8bb681	-0.06821919
230	0x3de9fc51	0.11425079
231	0x3d69f580	0.057118893
232	0xbd9cade2	-0.07650353
233	0x3d353c5a	0.04424701
234	0xbd0cdaf6	-0.034388505
235	0xbda560b7	-0.080750875
236	0x3c0f61c4	0.0087513365
237	0x3d07ee90	0.033186495
238	0xbcc128fe	-0.023579117
239	0x3da816c0	0.08207464
240	0x3e593513	0.21211652
241	0xbe4e3c81	-0.20140268
242	0x3d278378	0.040896863
243	0xbd2f6638	-0.042822093
244	0x3ddd0e6b	0.10793766
245	0xbd5758ec	-0.052575037
246	0x3d85c132	0.0653099
247	0xbe1ceba7	-0.15324269
248	0xbd0bbb6d	-0.03411429
249	0xbdf8e9ba	-0.12153955
250	0xbd1d0d9e	-0.038343064
251	0xbdaccf61	-0.08437992
252	0xbd9a6d47	-0.07540374
253	0x3d5f10d1	0.054459397
254	0xbc94c366	-0.01815958
255	0xbc59c577	-0.013291708
