embeddings/angry/angry_actor01_layer4_energy_trim.npy (npy, 3200 bytes, 1 tensors)

array f4 [768]
00000000: 8ccf b63d a57d 743c 4f15 013d 7cec 32bc
00000010: ae38 1abd ac31 6b3d a656 af3d 7e54 94bd
00000020: b152 443d 0f9e 39bd f104 263d 4c36 25bd
00000030: c8c0 d63d 7e16 303d b92a dbbc ee0e 923d
00000040: a445 b73d dc2a 343d 1ee7 21be c3aa 233c
00000050: 6710 49bd 0e70 463d bb75 9e3d c4ba 193c
00000060: a1c7 e73d 9197 5d3d cb99 e0bc 202c 883d
00000070: 89a6 a4bd 0144 96bd 5d5d 673d 0aca cdbd
00000080: 9348 acbc 9dc8 a33c 09b8 003e 4843 9a3d
00000090: 7482 153d a0cb 48bd 28b7 a4bd 1fc8 113c
000000a0: 0e17 243c 1802 8dba 415e 243d 249d 71bc
000000b0: a05d 39bb e65a af3d 93de 07bd d016 e2bb
000000c0: a20d 103e b028 233e 4d84 8b3d b0e2 b3ba
000000d0: 1067 5c3d e671 933d 3e4e bc3c a10a a2bd
000000e0: 266c 9bbd dbc5 0abc fc65 30bd 64cb 663b
000000f0: 5153 a9ba 1f2c 353d 4093 72bb 985b 253d
00000100: cc78 663e 819b 973c 5474 633d 1885 f9bd
00000110: 0fd7 7bbc 8001 9a3d c64d b5bd 6dd1 e33c
00000120: 0310 5b3d 2621 44bd 8fc5 953d c0b5 2bbd
00000130: 8a85 293d 51e9 04be 5f97 afbd f034 2fbd
00000140: 0c2a 6cbd 0b5b 4abc e18c 2dbd e540 243d
00000150: 3bab 21be 47cb c03c 083a b8bb 82bf 03bd
00000160: 27ff f2bc 6d11 f5bc e47e 14be 4d95 0ebc
00000170: 6729 6cbd 9345 f0bc 9bb4 b43c c0c5 953c
00000180: 7e97 b5bb af7d 523d 3cfa 1ebb 4f4d 913d
00000190: 4bee 51ba 90f7 08bd e857 db3b d00f be3d
000001a0: 3785 bdbc 2fc5 8cbe d57e 80bd 7c1a 2b3c
000001b0: c3e2 ba3a bf82 c03b 4d31 803d 7fb6 f5bc
000001c0: 1783 a13d 4d9a beba b33f 603c ece0 553c
000001d0: 199a 8abd eb78 debc 512c 93bd 1f7b 88bc
000001e0: 4bc1 2abd f017 87bc 4865 b03d a2d7 79bd
000001f0: 00a8 3d3e 25ad 203e bba3 50bd 48ac d33c
00000200: 620c 0b3d ed69 833d e29d 83bd 01be 75bd
00000210: 00d7 093e 3b74 9cbc 57b0 4abd 179c 083e
00000220: d948 df3d 465b cc3c 3be5 0ebd 8854 753c
00000230: 90bd 81bc 055d 023d 6eeb c7bd e6fc 80bd
00000240: 0abe 15bd d7cf 41bd 3b63 e9bc acec d3bc
00000250: 5f71 393b abc8 1bbe 2c3c 6fbd 76e7 333d
00000260: 5264 543d 8ac8 b53e 06a9 32bd a91d 643b
00000270: fd8f 5c3c f1d2 babd 947a 19bc 3773 6abb
00000280: ed69 d13b 1c79 14bd 2387 343d 0686 803b
00000290: 1c15 66bd a5d8 96bd 8f5a 2ebd 2f28 21be
000002a0: aed4 9f3d 64d3 3bbd 43ce 033c 46b8 623d
000002b0: 9d97 03bc d1fa e5bc 90c0 71bb 96a8 fc3b
000002c0: d3b8 353e 63bf 0c3d cb88 b33d 5d65 a23c
000002d0: d6aa c3bc 4003 63bd b97d bcbb be62 3abe
000002e0: 12ef c5bd dde2 03bd a2f3 6bbd abd3 ebbb
000002f0: 78e2 9cbd da31 963c 2a7d ed3b a238 52bd
00000300: 40de 5e3c 9e01 0abd 3581 5abd 06a0 c83c
00000310: 82fe 823b 8218 1b3d 7ead 863d 0bf8 b93d
00000320: 0c87 d73c 352f ffbc 63ea f43b b06b 2f3e
00000330: 9736 633e 6f8c d53d 454b 923c a01f 4a3d
00000340: 0b9a d9bd 484a db3d b726 dd3b 8c91 44bd
00000350: 45e4 c63c 7dad da3c 351b 48bd d69b f23d
00000360: e443 c43d a84d b3bd a880 47bd e2cd 18bc
00000370: 3a23 06bd 9402 973d 16d1 16b7 8d5f 3a3d
00000380: 8b31 06be 351f 90bb 98c2 c8bc fab5 a13c
00000390: 46f6 393d b0a9 4abd 82e8 933d c20c c33d
000003a0: fec9 54bd e04d 4a3d 2419 a5bd 2fe7 b0bd
000003b0: 4130 003d 65dc 083c 6d4b 623d e3c6 9dbc
000003c0: 2e57 fdbc 28cf 8d3e 2349 20bd 1572 f2bc
000003d0: 8a96 14bd 14d1 f0bc d1ff 453c d003 5cbd
000003e0: 4e12 8cbd b6cc 02be 73f9 723d 2a96 03bd
000003f0: 80cd 13bd 31d6 babd e98c 5b3b 86dd 2f3d
0.08926305 0.014922534 0.031514462 -0.01092064 -0.03765171 0.057420418 0.08561449 -0.07242678
0.047930423 -0.045316752 0.040532056 -0.040334985 0.10485989 0.0429902 -0.02675377 0.07131754
0.0894883 0.043986186 -0.1581082 0.009989443 -0.049087908 0.048446707 0.07737299 0.009382907
0.11317373 0.054099623 -0.027417084 0.06649041 -0.080395766 -0.073371895 0.056485523 -0.100483015
-0.0210307 0.01999312 0.12570204 0.07532364 0.036501363 -0.049022317 -0.08042747 0.00889781
0.010015262 -0.001075807 0.04012895 -0.014746938 -0.0028284565 0.085622594 -0.033171248 -0.006899692
0.140677 0.1593349 0.06812344 -0.0013724174 0.053809226 0.07199459 0.022986528 -0.079121836
-0.07588987 -0.008470024 -0.04306601 0.0035216445 -0.0012918507 0.04423153 -0.0037014037 0.040370554
0.22507018 0.018506767 0.05553086 -0.12183589 -0.015371098 0.07519817 -0.08852725 0.027809823
0.053482067 -0.047883175 0.07313072 -0.041921377 0.04138712 -0.12979628 -0.085737936 -0.042775095
-0.057657287 -0.012350808 -0.04237068 0.04010095 -0.15787975 0.02353443 -0.0056221522 -0.032165058
-0.029662682 -0.029915536 -0.1450153 -0.008702588 -0.05765667 -0.02933005 0.022058776 0.018282771
-0.005541741 0.051389392 -0.0024258038 0.070948236 -0.00080082257 -0.03343922 0.006693829 0.0928036
-0.02313481 -0.2749419 -0.06274191 0.010443326 0.0014258254 0.005874961 0.062594034 -0.029994247
0.078863315 -0.0014541835 0.013687062 0.013054114 -0.06767673 -0.027157268 -0.07186187 -0.016660271
-0.041688245 -0.016490906 0.08613068 -0.06099666 0.18521118 0.1569105 -0.050937396 0.025838986
0.033947356 0.06416688 -0.06426598 -0.059995655 0.13460922 -0.019098392 -0.049484577 0.13340794
0.109025665 0.024945866 -0.03488658 0.014973767 -0.01583746 0.03182699 -0.097617015 -0.062982365
-0.03655819 -0.047317352 -0.0284897 -0.02586969 0.0028296334 -0.15213268 -0.058406994 0.04392191
0.051853485 0.35504562 -0.043618225 0.0034807718 0.013462064 -0.09122265 -0.009367604 -0.003577424
0.006390801 -0.03624831 0.04407419 0.003922227 -0.056172475 -0.073655404 -0.042566832 -0.15737985
0.07804237 -0.045855895 0.008044782 0.055351518 -0.008031753 -0.0280737 -0.0036888458 0.0077105267
0.17746286 0.034362208 0.087663256 0.019823724 -0.023885172 -0.05542302 -0.005752292 -0.1820173
-0.0966474 -0.032198776 -0.057605393 -0.0071968636 -0.07660383 0.018334318 0.0072475867 -0.05132354
0.013602793 -0.03369295 -0.053345878 0.024490368 0.003997625 0.03786517 0.0657606 0.090805136
0.026309513 -0.03115044 0.00747423 0.17130923 0.22188793 0.10427176 0.017858157 0.049346566
-0.106250845 0.107075274 0.006749 -0.047990367 0.02427877 0.026694054 -0.04885407 0.118461296
0.095832616 -0.08755046 -0.04870668 -0.00932643 -0.03274844 0.073735386 -8.989378e-06 0.04550128
-0.13104837 -0.0043982514 -0.024506852 0.019740093 0.04540088 -0.049478233 0.07222082 0.09523918
-0.051950447 0.049390674 -0.08061436 -0.08637845 0.03129602 0.008353327 0.055247713 -0.019259876
-0.03092536 0.2769711 -0.03913225 -0.029595414 -0.036276378 -0.029396571 0.012084917 -0.053714573
-0.06839429 -0.12773404 0.059319925 -0.03212563 -0.036084652 -0.09122885 0.0033500737 0.04293587
