embeddings/actor14/angry_i01_s02_r02_layer5.npy (npy, 3200 bytes, 1 tensors)

array f4 [768]
0.043869182 0.04798464 0.12577315 -0.012609194 -0.034844585 0.055684283 0.06649579 -0.10428524
0.06769091 0.04292661 -0.010512342 0.054827817 0.086390145 -0.048314013 -0.16693193 -0.005164139
0.005412364 -0.00014320649 -0.056749515 0.011189418 -0.0674663 0.05113172 0.17841409 0.010345569
0.054174382 0.047752347 -0.009092653 0.038588222 -0.034355868 -0.0913465 0.049817163 -0.0699625
0.008404493 0.042685833 -0.05449206 0.11065519 -0.0013332579 -0.0049203164 -0.09993295 0.071256354
0.007829382 -0.0022706352 0.047451306 -0.04165616 0.08168652 0.07673092 -0.016900362 -0.016073057
0.0116569325 0.11312207 -0.057208054 -0.06841676 0.011783734 -0.052243687 -0.040238477 -0.14146647
0.029427871 -0.037904218 0.08242422 0.022422455 0.0054481267 0.06454602 0.004395551 0.034481592
0.10772953 0.019996202 -0.029408664 -0.13398845 0.078775 -0.011202913 0.07047581 0.07532644
-0.022151781 -0.025387086 0.09777944 0.03167459 0.0079241935 -0.029224813 0.028008102 -0.069019265
-0.066389486 -0.020495843 -0.14858402 0.07081832 -0.016130986 -0.01233012 0.05139944 -0.020865578
-0.0068777655 -0.047283888 -0.089851946 -0.0017468111 0.011800046 0.058570277 -0.00938321 -0.04355214
0.03161304 -0.0430378 0.021625007 -0.027093314 0.0064295162 -0.117136344 -0.06133034 0.05881902
0.055714436 -0.28854486 -0.11119251 0.0021903936 -0.011660632 -0.15367958 -0.025506131 -0.03975759
0.053856242 -0.0050231614 -0.050246913 0.017220452 -0.04660732 -0.028334621 -0.032469373 0.048803918
0.08652298 -0.085317515 -0.051447976 -0.0983237 0.013671714 0.16931254 0.0053860783 -0.09227945
0.05172668 0.01596605 0.006794657 -0.011865851 -0.021682475 -0.033613306 -0.0716018 0.06862153
0.016309068 -0.0030793229 -0.0996692 0.09095806 0.035659675 0.0051607997 -0.115427785 -0.0068807667
-0.10864543 0.04342407 -0.19539689 0.030512558 0.050108556 -0.104759425 -0.12827758 0.070826404
0.16594534 -0.11527215 0.006528142 -0.023645174 0.07462875 -0.023451088 -0.023246123 -0.018321503
-0.00127195 -0.07474391 0.004676945 -0.04871439 -0.100968786 -0.13529678 -0.0028230227 -0.18041961
0.24341276 -0.042854566 -0.057432506 0.096951455 -0.06498415 0.044489674 -0.0061422954 0.027979076
0.005590373 0.05611103 0.10028919 -0.072597176 -0.035637334 -0.063416846 -0.16864419 -0.076030254
0.0024412828 0.0012696834 -0.05324638 -0.12276404 0.013083604 -0.066984735 -0.017008433 -0.06696606
0.022582632 -0.13081618 -0.03549962 -0.0010804505 0.051244717 0.03461359 0.08338229 -0.05187545
-0.042043917 0.018686995 0.05887784 0.36428252 0.072265886 0.08124491 -0.077393256 -0.07924657
0.11050588 0.022533882 -0.0046182815 -0.0032681467 0.01324503 0.053842366 -0.014374322 0.004977718
0.02671379 -0.014756729 0.04924684 0.058236033 -0.059225902 0.06942017 -0.06545456 0.069791995
0.001278134 -0.048253182 -0.03701467 -0.050152797 0.102410525 -0.032842375 0.085589685 0.008145702
-0.10368789 -0.008107464 -0.097015455 -0.02146678 0.021396652 -0.06434865 -0.028074086 0.0343479
0.2529217 0.8783538 0.014788675 -0.03617736 0.025807813 -0.020361057 0.053568657 -0.12123652
-0.086997315 0.1628368 -0.021340216 -0.061242066 0.00023623923 -0.022933828 -0.06352209 0.008752132
00000000: 2cb0 333d 8b8b 443d adca 003e cb96 4ebc
00000010: 32b9 0ebd 3415 643d f22e 883d 8093 d5bd
00000020: 88a1 8a3d d0d3 2f3d f53b 2cbc 2293 603d
00000030: 51ed b03d eae4 45bd 34f0 2abe f037 a9bb
00000040: 335a b13b b329 16b9 2e72 68bd d253 373c
00000050: c62b 8abd 7f6f 513d 2fb2 363e 7680 293c
00000060: f5e5 5d3d f797 433d 5af9 14bc af0e 1e3d
00000070: bdb8 0cbd e013 bbbd 150d 4c3d 8048 8fbd
00000080: 00b3 093c 57d7 2e3d 1133 5fbd 309f e23d
00000090: b6c0 aeba 9b3a a1bb a6a9 ccbd daee 913d
000000a0: cf46 003c f0ce 14bb 4d5c 423d a69f 2abd
000000b0: 434b a73d 1a25 9d3d a172 8abc a5ab 83bc
000000c0: b8fc 3e3c 8bac e73d fe52 6abd 161e 8cbd
000000d0: 9010 413c 7afd 55bd 1ad1 24bd 96dc 10be
000000e0: b812 f13c 7441 1bbd 08ce a83d 4caf b73c
000000f0: 3386 b23b b430 843d 8e08 903b 923c 0d3d
00000100: 4da1 dc3d 13cf a33c 70ea f0bc 4534 09be
00000110: ca54 a13d 6c8c 37bc 9f55 903d c044 9a3d
00000120: a777 b5bc 94f8 cfbc 9640 c83d 37bd 013d
00000130: 7ad4 013c e068 efbc 3f71 e53c f959 8dbd
00000140: 36f7 87bd e6e6 a7bc 6926 18be 3209 913d
00000150: 2125 84bc 4604 4abc 3888 523d 4aee aabc
00000160: e15e e1bb c0ac 41bd 4c04 b8bd 41f5 e4ba
00000170: fb54 413c 63e7 6f3d 09bc 19bc bb63 32bd
00000180: ad7c 013d 6748 30bd ed26 b13c ccf2 ddbc
00000190: b1ae d23b 2ee5 efbd 8635 7bbd 36ec 703d
000001a0: d234 643d 27bc 93be e6b8 e3bd b58c 0f3b
000001b0: 3c0c 3fbc 2e5e 1dbe 3cf2 d0bc dbd8 22bd
000001c0: 5d98 5c3d 5599 a4bb b5cf 4dbd e811 8d3c
000001d0: 51e7 3ebd 021e e8bc 9bfe 04bd 9ee6 473d
000001e0: f632 b13d f3ba aebd 1dbb 52bd f05d c9bd
000001f0: 53ff 5f3c 4460 2d3e b37d b03b 02fd bcbd
00000200: 5bdf 533d 3ccb 823c b7a5 de3b fc68 42bc
00000210: 729f b1bc 1bae 09bd f7a3 92bd 7289 8c3d
00000220: 989a 853c 77ce 49bb 5e1f ccbd 3848 ba3d
00000230: e10f 123d ed1b a93b 6765 ecbd 0e78 e1bb
00000240: 7f81 debd 70dd 313d 1f16 48be 79f5 f93c
00000250: a13e 4d3d 1c8c d6bd 335b 03be 6f0d 913d
00000260: 93ed 293e ce13 ecbd 06ea d53b 86b3 c1bc
00000270: f5d6 983d 7f1c c0bc a76e bebc fa16 96bc
00000280: 8fb7 a6ba 5613 99bd 0f41 993b bd88 47bd
00000290: b9c8 cebd 3d8b 0abe 7602 39bb ebbf 38be
000002a0: 3241 793e 4588 2fbd 593e 6bbd 7c8e c63d
000002b0: 6916 85bd ce3a 363d 4f45 c9bb 6034 e53c
000002c0: 732f b73b aed4 653d 6b64 cd3d d4ad 94bd
000002d0: 74f8 11bd b1e0 81bd 10b1 2cbe c0b5 9bbd
000002e0: eefd 1f3b 816b a63a e018 5abd b76b fbbd
000002f0: 9d5c 563c 4b2f 89bd 4555 8bbc 8025 89bd
00000300: 36ff b83c adf4 05be 0d68 11bd e79d 8dba
00000310: fbe5 513d fbc6 0d3d 56c4 aa3d 5a7b 54bd
00000320: 3e36 2cbd 7815 993c e429 713d 3d83 ba3e
00000330: 2300 943d bb63 a63d 5b80 9ebd 074c a2bd
00000340: e850 e23d fa98 b83c f454 97bb 672e 56bb
00000350: af01 593c d089 5c3d 4782 6bbc 201c a33b
00000360: e1d6 da3c 35c6 71bc 0eb7 493d e888 6e3d
00000370: dc96 72bd 292c 8e3d 0a0d 86bd 1bef 8e3d
00000380: 0f87 a73a 21a5 45bd b29c 17bd 056d 4dbd
00000390: 9cbc d13d ba85 06bd a549 af3d 8d75 053c
000003a0: 515a d4bd 2bd5 04bc 0ab0 c6bd 1adb afbc
000003b0: 0848 af3c 3ac9 83bd a0fb e5bc 62b0 0c3d
000003c0: f47e 813e cbdb 603f 334c 723c b62e 14bd
000003d0: e86a d33c 3bcc a6bc cf6a 5b3d da4a f8bd
000003e0: a62b b2bd b1be 263e add1 aebc f6d8 7abd
000003f0: fcb6 7739 b9df bbbc df17 82bd 1a65 0f3c
