embeddings/actor08/happy_i02_s01_r02_layer5.npy (npy, 3200 bytes, 1 tensors)

array f4 [768]
00000000: c9c1 5d3d 669c d73c 74ea db3a e0ca a73c
00000010: 65e7 5ebd 34cf 9e3d 71aa 983d d6a7 2bbd
00000020: b8db ad3c 625f 013d 9d5b 29bd 3faf da3b
00000030: 7498 4c3d f469 8dbd 1173 cbbd 6141 453d
00000040: 3979 273d 89b3 2f3b 2c4c 683c fb9b 14bd
00000050: 206f f5bc d9a8 773d 3dfe 7fbc 4957 8cbc
00000060: fe72 d33c b42d f03c a716 05bd 0673 1a3d
00000070: fb1a 7bbd 1e21 123d c75a 29b9 09e8 103a
00000080: abc0 b13d a87a 133d dc15 c4bc 18ee f03d
00000090: 8147 a63c 3734 633d 691a 243d de54 9f3c
000000a0: 97e6 4abd 724b 8dbd 0232 893d c092 513c
000000b0: d78b 9d3d 0469 163d 7617 d73c 6054 ccbc
000000c0: 8b25 a6bc 12c9 863d a744 f2bc fe6b fbbc
000000d0: 6d8c 123d edb3 67bd c110 983d f4d2 08be
000000e0: 36f3 933d 18c5 8a3c f531 d8bb 7230 efbb
000000f0: e5ca 33bd d35e 153d 0cb8 733c 3be0 1dbb
00000100: 2a34 efbb 73bd abbd 4e0a ddbb bb3e e03b
00000110: 3dd6 ad3d 6638 363c 5f19 1c3d 2f9f 84bb
00000120: 9381 363c 21e9 653d 0549 8d3c 0d1b 78bd
00000130: 6f35 24bd c0dc 02bc f2ec 05bd 4da0 e43c
00000140: 62f9 003c 05b3 b4bc 53bb 11be 12c6 963c
00000150: ad57 f3bb 9665 12bd 0de0 a8bd 3d55 ccbc
00000160: 7d12 5abc 8d83 963c b668 4fbc 0c1e 18bd
00000170: 404a 62bd 98cf 333b 88ee b33c 8b6e 64bd
00000180: f7b8 183e 25d1 eb3c 7dcc 533c c0ff 03bd
00000190: b602 96bd 3561 88bb 2966 a83d 5bbb bb3c
000001a0: 9438 333c 9d26 b5be a88e dcbd 7edd a9bd
000001b0: 722d c23c 9f07 e4bc 72e0 0cba 2df8 4ebc
000001c0: 6d90 283d d8a5 643d f150 bfbc aa51 84bb
000001d0: 5ca6 ddbd e262 6e3d 3585 d73d dc10 ed3c
000001e0: 2d77 fe3c 1985 fabd 8729 de3d e4be a3bd
000001f0: b274 a83d 2661 d23d c101 d53c 1700 a2bc
00000200: 5fd9 523d 9a04 8b3c 4b67 6dbc 8640 3b3c
00000210: 1f96 84bd 5095 7dbc 389c 0e3c 7cb8 be3d
00000220: 787a 9fbc 5165 10bd ec18 31bd 93a6 9c3d
00000230: 8563 843c 6a06 8cbb 77f9 fcbd fbf9 85bc
00000240: 1c64 15bd 3d48 623c 16d3 d43b 4f63 c53c
00000250: cadb 473c a847 8dbc b5e2 d4bd ca46 843d
00000260: d714 533d 0352 6d3e 4db2 053d ec07 01bd
00000270: 9637 6ebd a05e 1bbd 342e 9fb9 8c1d c1bc
00000280: a979 453d ee65 14be fb31 223e 028f 7abb
00000290: d4cd 9fbc 51a0 3ebe 138b 423c 9ec1 cfbd
000002a0: 0ccc 0d3e ffac 903d f0a8 94bd 6176 1f3d
000002b0: 5563 1dbd e4a1 eabc 2a72 103d dd3f 1abe
000002c0: 8735 803d 1dd6 df39 49cf dd3c cc89 01bd
000002d0: 41d0 97bb 51ce 8d3c 3916 1abe ceb2 0bbe
000002e0: 538b 81bd 52ae 9ebc a588 d3bc 8c5f 04bd
000002f0: 9f09 783d e910 06be 04bd e3bc d71c 37bd
00000300: a1cd 1e3c 3a11 9fbd ea67 00be cd6e e13b
00000310: 69cd bfbc d852 023e bd09 acba 6472 3f3d
00000320: 87ad 00bd a255 fe3c 2556 553d d104 893e
00000330: f9cf 223d a901 373d cd76 a8bd 74be 5abd
00000340: ca30 b33d fdf7 123c 816a 333d 50f2 e83c
00000350: a011 97bc b363 9d3d 57f2 b839 0681 963d
00000360: a52f 903d ee58 b33c 26db f53c 3b1c f83c
00000370: b747 f7bc 0c84 6a3d 2110 4c3d 8034 4fbc
00000380: e752 5abc b0d4 bdbc b2a6 c4bd b17c 833c
00000390: 2468 98bc 8bf6 89bd 8294 ad3d cad5 cebc
000003a0: 0678 dbbc 0fd6 ea3b db6a bfbd e8c8 a8bd
000003b0: c442 a6b9 147c 33bc ac67 333c ba0f 933d
000003c0: a553 813e 76e3 3c3e c3bc 463d 1077 88bd
000003d0: 0f03 69bc 2a03 07bd ee55 053d 3a06 8fbc
000003e0: 8c29 64bd 08d4 143e b296 7c3c 058f 9fbd
000003f0: 804f b0bd f845 f3bc 2c2d 393d 142f 3dbd
0.054139886 0.026319694 0.0016778246 0.02048248 -0.054419894 0.077543646 0.07454384 -0.041908108
0.021222934 0.031585105 -0.041347135 0.006673723 0.049950078 -0.069049746 -0.099340566 0.048158053
0.04088709 0.0026809892 0.014178317 -0.036281567 -0.029960215 0.06046376 -0.01562458 -0.017131465
0.025811668 0.029318668 -0.032492306 0.03770735 -0.061305027 0.035676114 -0.00016150913 0.000552774
0.086793266 0.036005646 -0.023936205 0.11764163 0.020297768 0.055469718 0.04006425 0.019449648
-0.049536314 -0.06899156 0.06698991 0.012791336 0.07692688 0.036721244 0.026256304 -0.024942577
-0.020281574 0.0658132 -0.029573752 -0.030691143 0.03577845 -0.056568075 0.074250706 -0.13361722
0.07224123 0.016939685 -0.006597752 -0.0072994763 -0.043894667 0.036467385 0.014875423 -0.002408995
-0.0072999196 -0.08385744 -0.006745613 0.0068434156 0.08488128 0.011121845 0.038110133 -0.0040472965
0.011139291 0.056130532 0.017246732 -0.060572673 -0.04009002 -0.007987201 -0.03269667 0.027908469
0.0078719575 -0.02205802 -0.14231615 0.018404994 -0.0074262233 -0.03574141 -0.08245859 -0.024942989
-0.013310072 0.018373275 -0.012659242 -0.03713803 -0.05524659 0.0027436968 0.021964327 -0.055769484
0.14914308 0.028786251 0.012927172 -0.032226324 -0.07324736 -0.0041619786 0.082226105 0.022916486
0.010938782 -0.35381022 -0.10769397 -0.082941994 0.02370331 -0.027835665 -0.0005374021 -0.012632412
0.04115336 0.055822223 -0.023354026 -0.0040380554 -0.10822746 0.05819977 0.10523454 0.028938703
0.031062687 -0.122324176 0.108477645 -0.07995394 0.08225383 0.10272436 0.026001813 -0.019775433
0.051476832 0.016969968 -0.014489959 0.011428958 -0.06473946 -0.015477493 0.008704238 0.09312531
-0.019467577 -0.035252873 -0.043236658 0.07648959 0.016160736 -0.0042732256 -0.12352269 -0.016354552
-0.036472425 0.013811168 0.00649489 0.024095206 0.012198398 -0.017246082 -0.103948034 0.064588144
0.051533546 0.23175816 0.032640744 -0.031501696 -0.05815848 -0.03793204 -0.00030361267 -0.02357366
0.048211727 -0.14492008 0.15839379 -0.0038232212 -0.019507326 -0.18615843 0.011873978 -0.101443514
0.13847369 0.070642464 -0.07258785 0.038931254 -0.03842481 -0.028641649 0.035265125 -0.15063424
0.062602095 0.000426934 0.02707638 -0.031625554 -0.00463298 0.017310293 -0.1504754 -0.13642427
-0.06325402 -0.019370232 -0.025821993 -0.032317683 0.06055605 -0.13092388 -0.02780009 -0.04470524
0.00969258 -0.077669576 -0.1253964 0.0068796636 -0.023413377 0.12726915 -0.0013125461 0.04673995
-0.03141549 0.031046692 0.052084107 0.26761487 0.03974912 0.044679318 -0.082257845 -0.053404287
0.0874954 0.008970258 0.043802742 0.028435856 -0.018441021 0.07685032 0.00035275772 0.07348828
0.070403375 0.02189299 0.030011725 0.030286899 -0.030185563 0.057254836 0.04982007 -0.012646794
-0.0133254295 -0.023172706 -0.09602107 0.016050668 -0.018604346 -0.067364775 0.08475591 -0.025248427
-0.02679063 0.007166631 -0.09346553 -0.08241445 -0.00031711732 -0.0109548755 0.01095001 0.07180734
0.25259128 0.18446144 0.04851986 -0.06663334 -0.014221921 -0.032962 0.032552652 -0.017459024
-0.055703685 0.14534009 0.015416788 -0.07790951 -0.086089134 -0.02969645 0.045209095 -0.046187475
