embeddings/actor06/angry_i01_s01_r02_layer5.npy (npy, 3200 bytes, 1 tensors)

array f4 [768]
0	0x3d986ea2	0.074429765
1	0x3cd408a1	0.02588302
2	0x3c4d56a6	0.012532866
3	0x3d9254ee	0.07145105
4	0xbcbbe130	-0.022934526
5	0x3dc5e65b	0.096630774
6	0x3c758654	0.01498564
7	0xbdd619d9	-0.10454149
8	0x3b8471be	0.0040418794
9	0x3c472f2f	0.012157246
10	0xbc8b05d3	-0.01697055
11	0x3d524822	0.051338322
12	0x3d681ea4	0.056669846
13	0xbd32a069	-0.04361001
14	0xbddd5c8c	-0.108086675
15	0x3d23b6f3	0.039969396
16	0x3cb866c0	0.022509933
17	0xbbd371b3	-0.006452763
18	0x3c99f01e	0.018791255
19	0xbcec4ed7	-0.028846188
20	0xbc1e7c93	-0.0096732555
21	0xbcfc9d63	-0.030836767
22	0xbe32808d	-0.1743185
23	0xbc5d9186	-0.013523465
24	0x3ca33e2d	0.019927109
25	0x3d671589	0.056417022
26	0xbcf22ac1	-0.029561402
27	0x3d44b584	0.04802467
28	0xbd2f79d7	-0.042840805
29	0xbd716a2d	-0.058939148
30	0x3d32aeb9	0.04362366
31	0xbd4d5761	-0.05013216
32	0xbc229531	-0.009923265
33	0x3d167d0a	0.03674034
34	0xbdc75183	-0.09732344
35	0x3d618528	0.05505863
36	0x3b2fbf2b	0.0026816826
37	0xbcace9ca	-0.021107573
38	0x3d1dc37a	0.0385165
39	0x3db818db	0.08989116
40	0xbc295a29	-0.010336437
41	0xbd38341d	-0.044971574
42	0x3df13114	0.11776939
43	0x3dbf829e	0.09351085
44	0x3e459a99	0.19297256
45	0x3cc853d8	0.024454042
46	0x3cbd358b	0.02309682
47	0xbd1e7c7c	-0.038692936
48	0xbd1d79c8	-0.038446218
49	0x3c84cc51	0.016210707
50	0xbcd0e796	-0.025501054
51	0xbd2a546d	-0.04158442
52	0x3d42a74e	0.047522835
53	0xbd952b88	-0.072836936
54	0x3d8b729d	0.0680897
55	0xbd98cc52	-0.07460846
56	0xbd74d684	-0.05977489
57	0xbc718be6	-0.014742827
58	0x3d6a6893	0.057228636
59	0xbd490c8a	-0.049084224
60	0xbdb87bb6	-0.09007971
61	0x3dd02a45	0.10164312
62	0x3d4cfe5f	0.050047275
63	0xbd2e44e2	-0.04254616
64	0xbc023d8f	-0.007949247
65	0x3ce34f46	0.027747761
66	0xbd9f258f	-0.077708356
67	0xbe07003f	-0.13183688
68	0x3d8ecd65	0.0697277
69	0xbd340e82	-0.04395915
70	0x3be64861	0.007027671
71	0x3d8caed3	0.068692826
72	0xbcbf04c7	-0.023317708
73	0x3d1b34a8	0.037892014
74	0x3d7b223d	0.06131195
75	0x3d664ede	0.056227557
76	0x3c25af02	0.010112526
77	0xbd5173fa	-0.051135994
78	0xbda3e804	-0.08003238
79	0x3b873406	0.0041260747
80	0x3d071f36	0.03298875
81	0xbd2e270a	-0.0425177
82	0xbe2f4335	-0.17115481
83	0xbd6ff7c4	-0.058585897
84	0xbce6a18b	-0.028153202
85	0xbcac25c5	-0.021014104
86	0xbd46cc2d	-0.04853456
87	0x3d63b0ee	0.055588655
88	0xb9c9f82c	-0.0003852261
89	0x3d833d93	0.06408229
90	0xbd4b9dba	-0.049710967
91	0x3d1a2f24	0.037642613
92	0xbd699f53	-0.05703671
93	0xbd2b73a4	-0.04185833
94	0x3d086be1	0.033306006
95	0xbc8c44de	-0.017122682
96	0xbe1dff27	-0.15429364
97	0xbcf44878	-0.029819712
98	0x3c62c5ae	0.013841076
99	0xbc9befda	-0.019035269
100	0xbcf19e47	-0.029494418
101	0xbde645be	-0.11243771
102	0x3db8743f	0.09006547
103	0xbbd8ae79	-0.0066125956
104	0x3c9db299	0.019250201
105	0xbea912dd	-0.33022204
106	0xba693b70	-0.00088971015
107	0xbc3d5f8f	-0.0115584275
108	0x3c89eb9b	0.016835978
109	0xbd5386b9	-0.051642153
110	0xbc926762	-0.017871562
111	0xbc97cc94	-0.018530168
112	0xbc4f3179	-0.012646073
113	0x3d03dd83	0.032193672
114	0xbde1172b	-0.10990747
115	0xbceaae10	-0.028647453
116	0xbda88905	-0.082292594
117	0x3d8658f0	0.06559932
118	0x3d79847c	0.060917363
119	0xbbb0b68c	-0.005392855
120	0x3d20df9f	0.03927576
121	0xbe0ba0de	-0.13635585
122	0xbcb8ae91	-0.022544177
123	0xbd2ab566	-0.0416769
124	0x3e163c33	0.14671402
125	0x3daf2d0e	0.085535154
126	0x3d1a5c00	0.037685394
127	0x3d30667a	0.04306648
128	0x3d1cd104	0.03828527
129	0x3d0c86eb	0.034308355
130	0xbd9911bb	-0.07474085
131	0xbc14e652	-0.009088116
132	0xbdd4709a	-0.103730395
133	0xbccf9c34	-0.025343038
134	0xbd3cd2e2	-0.04609955
135	0x3e068336	0.1313599
136	0x3e07857d	0.13234515
137	0x3b2f1d07	0.0026720183
138	0xbda04368	-0.07825357
139	0x3cf46b94	0.029836453
140	0x3da9602a	0.08270295
141	0xbc12f012	-0.00896837
142	0xbd73aecc	-0.05949287
143	0xbce83298	-0.028344437
144	0xbdfa3fdd	-0.12219212
145	0x3c11dcc3	0.008902731
146	0xbd8141d4	-0.06311384
147	0x3d13f092	0.036118098
148	0x3d056acd	0.032572556
149	0xbb018196	-0.0019761077
150	0xbd8993e2	-0.067176595
151	0x3d701653	0.05861504
152	0x3d0bc624	0.03412451
153	0xbd5e0ac4	-0.054209486
154	0x3bd85441	0.0066018407
155	0xbd5e08dc	-0.054207668
156	0xbd3638f8	-0.044487923
157	0xb9ba3a47	-0.00035520105
158	0xbc8a0b54	-0.016851105
159	0xbd1babe3	-0.03800572
160	0x3d3f8744	0.04675986
161	0xbdffd39e	-0.12491535
162	0x3e5dc6f8	0.21657932
163	0xb625e2cb	-2.4718927e-06
164	0xbd44ffca	-0.048095502
165	0xbe706247	-0.2347499
166	0xbd2281f9	-0.039674733
167	0xbd256512	-0.04037959
168	0x3e93b39b	0.28847966
169	0xbd5ca267	-0.053865816
170	0xbde8ea47	-0.1137281
171	0x3d8f01b7	0.06982749
172	0xbd0ed438	-0.034870356
173	0xbb443e18	-0.0029944237
174	0x3d1bafde	0.038009517
175	0xbdb78570	-0.08960998
176	0x3d91cbb4	0.071189314
177	0xbd0950aa	-0.033524193
178	0x3c49e3f0	0.012322411
179	0xbd01f125	-0.031724114
180	0xbcc6f988	-0.024288908
181	0xbc7b7eac	-0.015350025
182	0xbdc8cf5e	-0.09805177
183	0xbac22570	-0.0014812183
184	0xbc6a53db	-0.014302219
185	0xbd175e86	-0.03695538
186	0xbcaf8880	-0.021427393
187	0xbd10d815	-0.035362322
188	0xbc077287	-0.008267052
189	0xbdb0648b	-0.08612927
190	0xbd4fe5b0	-0.050756156
191	0xbde842e1	-0.11340881
192	0x3c691e13	0.014228362
193	0xbdb11e17	-0.08648317
194	0xbd716777	-0.058936562
195	0x3c460b08	0.012087591
196	0x3c0391fa	0.008030409
197	0x3dd79bad	0.1052774
198	0x3c4b7975	0.012419094
199	0x3dd73264	0.10507658
200	0xbd45ef7e	-0.0483241
201	0x3cafec87	0.02147509
202	0x3db40637	0.08790248
203	0xbcbf5636	-0.023356538
204	0x3d7afe7f	0.061277863
205	0x3e37a987	0.17935763
206	0xbce78757	-0.028262777
207	0xbd9f9283	-0.07791617
208	0x3dd419cc	0.10356483
209	0x3d151a13	0.03640182
210	0x3d9a2c18	0.075279415
211	0xbd1b8223	-0.037965905
212	0xbc8418f5	-0.016125182
213	0xbaba1fc8	-0.0014200145
214	0xbd07fd40	-0.033200502
215	0x3d3530e6	0.044236086
216	0xbbf76561	-0.007549927
217	0xbd50fea0	-0.05102408
218	0x3c8d8184	0.017273672
219	0x3d45a38c	0.048251674
220	0xbd5ae0cb	-0.053437036
221	0x3db2c9ba	0.087298825
222	0xbccaa7d1	-0.024738224
223	0x3c0e07e6	0.008668875
224	0x3d5303df	0.051517364
225	0x3c245b70	0.010031566
226	0x3d297f56	0.041381203
227	0xbd0589e8	-0.03260222
228	0xbd901937	-0.07036059
229	0xbdb595d0	-0.08866465
230	0x3caaf261	0.020867528
231	0xbda89a66	-0.08232574
232	0xbd5f611d	-0.054535974
233	0xbc20f24a	-0.009823391
234	0xbc56f852	-0.013120728
235	0xbd4d6da7	-0.0501534
236	0x3d163204	0.036668792
237	0xbd0f253b	-0.034947615
238	0xbcd2a1d4	-0.025711931
239	0x3de9ca85	0.11415581
240	0x3e80c548	0.25150514
241	0x3e2d6940	0.16934681
242	0xbad4da85	-0.001623944
243	0xbc12f921	-0.00897053
244	0x3ca5071a	0.020144988
245	0x3ca86841	0.020557525
246	0x3cf73f7b	0.030181637
247	0xbae945e7	-0.0017797322
248	0xbd9bd4ca	-0.07608946
249	0x3dc6d205	0.09708027
250	0x3d48c2c0	0.049013853
251	0xbdf409d5	-0.11915938
252	0xbdb2ae54	-0.08724657
253	0x3c867550	0.01641336
254	0x3aa54baa	0.0012611051
255	0x3ced33e3	0.028955406
