embeddings/actor06/angry_i02_s02_r02_layer5.npy (npy, 3200 bytes, 1 tensors)

array f4 [768]
000000 72 6b 17 3e 64 f0 2a 3a d1 a9 62 3d 38 25 3e 3d
       0.14787081 0.00065208063 0.05533773 0.046422213
000010 21 b6 71 bd 57 f6 82 3d 30 bc 92 3d 80 57 e4 bb
       -0.059011582 0.06394642 0.071648 -0.0069684386
000020 b1 4e 92 3d 2a d0 4c 3d 21 08 06 bd ce d4 1f 3d
       0.071439154 0.05000321 -0.032722596 0.039021306
000030 8e 2d 4e 3d 0c ba d7 3d 3f 2d d1 bd a1 92 dc 3c
       0.050336413 0.105335325 -0.10213708 0.026925387
000040 9a f7 ce bc 9a 6c 25 bd b3 77 a9 bd 9b fd 37 3d
       -0.02526455 -0.040386774 -0.08274784 0.04491959
000050 7d ae 02 be 72 09 87 3d 9b a7 01 bb ef 7e 0e 3d
       -0.12761874 0.065935984 -0.0019783739 0.034789022
000060 d1 1e b9 3c 7d a8 63 3c 48 73 a8 bc e4 c0 55 3d
       0.022597702 0.013895151 -0.020562783 0.052185908
000070 e9 e1 15 bd 0e 22 a3 bd c8 98 fb bc be c1 c4 bd
       -0.036592398 -0.0796548 -0.0307125 -0.09607266
000080 8a c6 de 3d e2 21 d5 3d 76 05 b7 3b 32 05 f1 3d
       0.10877712 0.10406853 0.005585368 0.11768569
000090 3f 65 c6 3c 0e 35 81 bd 50 36 eb bb 59 06 e3 3d
       0.0242182 -0.063089475 -0.0071781054 0.11085195
0000a0 6a 44 5e bc 54 f1 1b bc 92 c0 13 3d f1 1a be bc
       -0.013566116 -0.009517986 0.03607232 -0.023206206
0000b0 ad 2d 4c 3e 9d 9f dc 3d d3 d3 ac bd 7a 34 c8 3a
       0.19939299 0.10772631 -0.0843884 0.0015274428
0000c0 1d 54 bf bd 14 c5 15 3e a6 0c 27 bd 49 82 9d bd
       -0.09342215 0.1462596 -0.040783547 -0.076908655
0000d0 fd 28 e5 3d 3d 4a 46 bc f0 43 d4 bc c6 2b 54 bd
       0.111894585 -0.012102661 -0.025911301 -0.051799558
0000e0 01 f4 2a 3b ea 53 b3 bd 01 e9 51 3d 56 ce 0b 3d
       0.002608538 -0.0875624 0.0512476 0.034132324
0000f0 f9 c1 f0 bd 13 93 2d 3e d9 55 85 3c aa 1e 0f 3c
       -0.11755747 0.16950636 0.016276287 0.008735338
000100 1a d6 87 3d 31 56 50 bd c5 ea 44 3c 4d ec 12 be
       0.066326335 -0.05086345 0.012018864 -0.14347954
000110 cc 21 ee 3c c0 02 9b 3a 92 07 03 3d 4f bd 23 3e
       0.02906885 0.0011826381 0.03198964 0.15990184
000120 a1 21 2e bd f1 8a 21 3d c8 3c 58 3d 69 b4 2e bd
       -0.04251254 0.039439145 0.05279234 -0.04265252
000130 1f ae f3 3c 64 7c c5 bc 78 b5 2d bd f6 15 e7 bc
       0.029746113 -0.024107166 -0.04240939 -0.028208714
000140 c3 99 46 bd 40 68 c1 3d 4c 33 ee bd 41 b6 90 3d
       -0.048486482 0.09443712 -0.11630878 0.07066012
000150 e5 ff c5 bd e6 77 66 bd a4 49 9e bd f7 78 ae bd
       -0.09667949 -0.056266688 -0.077288896 -0.08519166
000160 99 ed 44 bd 3a eb 1f bd 0f a5 98 be 48 8a 9d bd
       -0.048078153 -0.03904269 -0.2981343 -0.07692391
000170 0e 48 d8 bc a7 15 e7 3b 04 71 9d 3d 8b c9 f9 3c
       -0.026401546 0.0070521417 0.07687572 0.030491611
000180 98 b7 6f 3e a4 af a5 3d 89 f8 cd bc 97 77 16 3c
       0.23409879 0.080901414 -0.025142925 0.009183786
000190 e6 c4 c3 bd b5 0a db bd f1 1d 4d bb 78 12 2a 3d
       -0.0955904 -0.106954016 -0.0031298364 0.04152152
0001a0 19 d3 0f 3c 0d 1f de be 75 cf ad 3c a6 e8 54 3d
       0.008778357 -0.43383065 0.021217087 0.051979683
0001b0 40 72 a6 ba f3 7e 16 be e2 5a 9e bc 23 e6 85 bd
       -0.0012698844 -0.14696865 -0.019330446 -0.06538036
0001c0 1d 69 bf 3d 2b e2 46 3d 9f b5 fe 3b 48 97 19 3d
       0.09346221 0.048555534 0.0077731158 0.03749779
0001d0 b5 76 08 be 29 80 00 3c b7 af 01 3e bd 8c 21 3d
       -0.13326533 0.007843056 0.12664686 0.03944086
0001e0 61 02 11 3e 1a 25 b0 bd 57 20 18 bb 76 7e 7a 39
       0.14161064 -0.086008266 -0.0023212635 0.00023888968
0001f0 7f 1c 9c 3b dd d2 e6 3d 3a 8a cc 3d d1 42 a4 bc
       0.004764139 0.11270688 0.09987302 -0.020051392
000200 d0 de ae 3b f8 8f 79 3d b0 8a 81 bd 85 32 de 3c
       0.00533662 0.060928315 -0.06325281 0.027123699
000210 cb 28 0d bd e2 9d c3 bd ea d9 a6 bc a3 cc 1a bd
       -0.03446273 -0.09551598 -0.020367581 -0.037792813
000220 bc f8 be bd a6 bc 4c bd a4 6d df bd 9e 59 b3 3e
       -0.09324786 -0.049984597 -0.10909584 0.3502931
000230 dd 76 26 3b 6f a4 04 bd 76 0c 95 bd 51 44 cf 3c
       0.0025400438 -0.03238338 -0.07277767 0.02530113
000240 31 b0 f3 bc c0 e1 46 3d 86 6f af be f6 ca a2 3d
       -0.0297471 0.048555136 -0.34264773 0.07948868
000250 55 58 39 bb a5 c8 36 be 32 cb 22 be 60 b1 7d 3d
       -0.002828141 -0.17849977 -0.15897825 0.061936736
000260 19 ed 19 3e 7a 89 aa 3d 7e 2a 81 3d 83 22 1e bc
       0.15031852 0.08327003 0.06306933 -0.009651783
000270 39 64 bf 3d bc fe b6 bd 71 3c d5 3c 8b 33 05 bd
       0.09345288 -0.089353055 0.026029797 -0.03251986
000280 3a b2 54 38 91 d1 13 be a1 fe 27 3d 6f f8 af bd
       5.0710725e-05 -0.14435412 0.041014317 -0.08592307
000290 ab 16 b0 bd 9c 15 05 be 44 49 95 bd f7 dc 76 bd
       -0.085980736 -0.12996525 -0.07289365 -0.060269322
0002a0 f2 13 0d bc 9f d1 ad 3c 2c 38 ff 3c 95 5c 5a 3d
       -0.008610712 0.02121812 0.031154715 0.05331095
0002b0 82 40 04 bd c1 3e 98 3d bb 72 f4 bd d7 7f 6f 3e
       -0.032288082 0.07433844 -0.119359456 0.23388611
0002c0 61 66 02 3e 44 20 7a 3d 10 ee 06 3d df 2e 2f bd
       0.12734367 0.061065927 0.032941878 -0.04276931
0002d0 40 3e 18 bd 4a c3 37 bd 3b 05 38 be cf fb f0 bd
       -0.03716874 -0.044863977 -0.17970745 -0.11766779
0002e0 30 75 87 bd 24 0c 34 3b 22 d3 e5 bc 70 29 99 bd
       -0.066141486 0.0027473057 -0.028054778 -0.07478607
0002f0 fe 6b 02 bc 64 a1 bf bc 4e d9 d8 bc 62 c8 9d bb
       -0.007960318 -0.023392387 -0.026470806 -0.0048151473
000300 07 11 b8 3a 7a b5 92 bd b5 f1 32 bd 83 3b 9d 3d
       0.001404316 -0.0716352 -0.04368754 0.076773666
000310 4f 1d 8c 3c b2 82 a7 3c 0c be ea 3c 71 ae 0c be
       0.01710382 0.020448063 0.028655075 -0.13738419
000320 e6 ec 34 bd fb 7d 9d 3c 1b ef 3e 3c 6c d7 03 3f
       -0.044171236 0.019225111 0.011653687 0.5150058
000330 f3 b1 97 3c d7 8b af 3d df a4 a1 bd c2 2d 37 bd
       0.01851747 0.08571594 -0.07892775 -0.044721372
000340 e8 1a 94 3d a1 e1 ab 3d 89 63 10 3d a1 21 17 bd
       0.072316945 0.08392645 0.035251174 -0.036897305
000350 bf 1a 62 3d 32 7d dd 3b da 20 a7 3c df a0 46 3d
       0.05520129 0.006759309 0.020401407 0.048493262
000360 2b 26 ad 3d 19 d2 df bd b1 3c 47 3d 9e 41 00 3d
       0.084545456 -0.10928745 0.048641864 0.031312577
000370 de 07 46 3c 7f a2 cf 3d 65 aa 9b bd 86 70 1a 3e
       0.012086837 0.101384155 -0.076008596 0.15081987
000380 3b 45 21 bc be 9e 80 3c 7e 32 37 3d ce a4 e0 3d
       -0.009843166 0.015700694 0.044725887 0.10968934
000390 7d 64 a7 3d 29 88 a3 bb 54 60 9c 3d a5 a9 8c bd
       0.081734635 -0.004990597 0.07635561 -0.068682946
0003a0 c0 2f bf bd 3b 10 fa 3c f5 0c 5f bc 27 13 a5 bb
       -0.093352795 0.030525317 -0.013613929 -0.0050376835
0003b0 5b ce da 3b b0 d2 46 bd bf 3b 9f bb c9 3e 54 bc
       0.0066774315 -0.04854077 -0.004859417 -0.012954422
0003c0 c1 e7 9e 3e 82 0d 85 3f 42 c8 5e 3d ca dd bc bd
       0.3103619 1.0394747 0.0543902 -0.092219904
0003d0 71 05 1b bd 42 23 e5 bc c6 7d e7 3c 8c 51 3f ba
       -0.037846986 -0.027970914 0.028258216 -0.0007298223
0003e0 32 4d 4a be a1 1b a8 3d c4 03 e3 3b e3 9d 8c bd
       -0.1975601 0.08208395 0.006927939 -0.06866052
0003f0 5e 1f 8e bd d1 0e b5 bd 4b ca 90 bd f6 3e 44 3e
       -0.069395766 -0.08840717 -0.07069834 0.19164643
