embeddings/actor06/happy_i01_s01_r02_layer5.npy (npy, 3200 bytes, 1 tensors)

array f4 [768]
000000 19 ed f3 3d 90 02 7f bc 26 2c ed 3c 73 52 9a 3d
       0.11910457 -0.015564576 0.028951716 0.07535257
000010 07 b9 7e bd ce ab e1 3d 5e ed 9e 3d 3f 23 07 bd
       -0.062188175 0.11019097 0.07760118 -0.032992598
000020 6b dc 00 3d 7d 2b 99 3c ec 75 09 3c ab 9d 9e bc
       0.031460207 0.018697495 0.008389931 -0.019362291
000030 f1 c1 74 bd a7 c4 cf bc 40 73 89 bd 5a d0 f2 3c
       -0.05975527 -0.025362326 -0.06711435 0.029640365
000040 02 d4 a8 bb ca 7c 02 3c 72 48 d5 3c a3 14 31 bc
       -0.0051522264 0.007964322 0.026035521 -0.010808143
000050 40 45 28 bd 01 13 7d 3c 31 32 15 be 4f af 8b bd
       -0.041081667 0.015446425 -0.14569928 -0.06820547
000060 99 fe 17 3e b7 43 11 3d 05 ca 83 3d 1f ef 7c 3c
       0.14843215 0.03546497 0.064350165 0.01543787
000070 64 00 1c bd 3a 84 63 bd 15 02 2c bd 14 bb 68 bc
       -0.03808631 -0.055546023 -0.041994173 -0.014204759
000080 06 f6 b5 3c 1d f8 94 3d 24 8e 03 3c 1b f6 3f 3d
       0.02221204 0.07273886 0.008029494 0.046865564
000090 5d 7f d9 3c d8 a6 a2 bc 25 f9 c1 bd 5c 92 72 3d
       0.02654999 -0.019854948 -0.09471349 0.05922161
0000a0 bb e9 c3 3c 46 52 6b bd 7a d7 87 3d 27 fc 41 3d
       0.023915162 -0.05745151 0.06632896 0.04735961
0000b0 12 c5 18 3d 95 0c a9 bc ef 07 3c 3c 55 fa cf bc
       0.037297316 -0.020635882 0.011476501 -0.025387922
0000c0 d0 94 00 bd 2c ae de 3c 73 87 d8 bc 67 f3 99 bc
       -0.03139192 0.027182661 -0.026431775 -0.018792821
0000d0 dd a7 47 3d ed 52 5c bd 5e 3a b1 3d a0 6f b9 bd
       0.04874407 -0.05379002 0.08653711 -0.09054494
0000e0 88 5e ae bc 7a bc 0d 3d 1f f6 c7 bc 2d d6 7b bd
       -0.02128531 0.034603573 -0.024409352 -0.06148355
0000f0 3d 95 a8 bd 84 80 18 3e 8a 8f 69 b9 c3 55 43 3d
       -0.0823159 0.14892775 -0.00022274084 0.04768921
000100 9c 68 06 3c 03 45 70 bc ae cb a6 bd 9f 07 5d bd
       0.008203652 -0.014664891 -0.081443176 -0.053962346
000110 c8 34 04 3d 93 76 d6 bc 05 8e 18 bd 93 3d d6 3c
       0.0322769 -0.026179587 -0.037244815 0.026152408
000120 3f 1a 0c bd 69 aa de 3d 53 59 9c bd b1 a0 aa 38
       -0.034204718 0.10872347 -0.07634225 8.136163e-05
000130 a7 67 92 bc 6a 86 ec bc ea 26 6e bd cc f8 82 3d
       -0.01787169 -0.028872687 -0.05814258 0.063951105
000140 54 83 32 bc 0e cf 0e 3d ba c2 6b bd 47 a9 af 3a
       -0.010895569 0.03486543 -0.057558753 0.0013401889
000150 c1 b1 64 bd 71 e3 b9 bc 84 61 08 be de e8 f8 bc
       -0.05583358 -0.02269146 -0.1331845 -0.030384477
000160 a0 44 0e bd 5c b4 24 3d 84 bb 94 bd 15 04 d0 3b
       -0.034733415 0.040211067 -0.07262328 0.006348143
000170 d3 25 82 bd 1d 4e ec 3c 3f f7 81 3d 84 7b 29 bd
       -0.06354871 0.028845841 0.063459866 -0.04137756
000180 d1 94 83 3d 9d 22 73 bc c7 fc f0 bb 9e 86 c2 bc
       0.06424869 -0.014839795 -0.007354352 -0.023745831
000190 8a 00 39 bd 2c 9c ac bd fa 1d 68 3d 5c 1e c4 3b
       -0.04516653 -0.08428225 0.056669213 0.0059850644
0001a0 ec 12 2d bc 16 f6 90 be 9c 7d c7 bd 26 c6 73 bd
       -0.010563593 -0.2831275 -0.09740755 -0.05951514
0001b0 4e 2d e0 3c b2 d1 6c bd 76 e9 37 3d 1e aa 29 3d
       0.027365353 -0.05781717 0.04490038 0.041422002
0001c0 87 9a 2d 3d 22 5b e9 3b cf 3b 9f bd 39 02 96 bd
       0.042383697 0.0071214596 -0.077750795 -0.07324643
0001d0 5a 4d 02 be 50 4a c4 ba 4a f6 8d 3d c2 49 23 bc
       -0.1272482 -0.001497576 0.069317415 -0.009966316
0001e0 b3 2b 90 3d 92 4e cb bd cb fd 91 3d 13 18 b7 bd
       0.07039585 -0.099270955 0.07128485 -0.08940139
0001f0 1d 1c 3e 3e c2 57 22 3e 2e ed 0e bb 07 5d 2c 3b
       0.18565412 0.1585379 -0.002180885 0.0026300566
000200 fe f0 2a 3d 3a 24 09 3d 15 24 8d bc 70 30 36 3d
       0.041733734 0.033481814 -0.01722912 0.044479787
000210 ed 63 15 be 5a 0c 92 3b 26 3c 70 3c cc fa c2 3c
       -0.145889 0.004457039 0.014662778 0.02380123
000220 e8 cd f5 3c 17 5d 9d 3c d8 c8 2c bd e0 c5 4a 3e
       0.03000541 0.019209428 -0.042183727 0.19802046
000230 90 c5 66 bb 52 38 c7 bc d6 5d 29 b9 70 f3 83 bd
       -0.0035212971 -0.024318848 -0.00016152053 -0.064429164
000240 e1 c2 66 bd be 25 2c 3d 39 d5 c1 bd fd 90 a3 3d
       -0.056338195 0.04202818 -0.09464497 0.07986639
000250 8d 08 23 3d 11 6c d6 bc a6 8a 8f bd 64 8f 90 3d
       0.039803077 -0.026174577 -0.07008867 0.070585996
000260 9a 6c 83 3d df 43 cc 3e a7 21 44 3c be 94 16 bc
       0.064171985 0.39895532 0.011970914 -0.009190736
000270 4c 80 57 bd ae fa f5 bc 48 4c 1f 3d 46 e1 00 bd
       -0.052612588 -0.03002676 0.038891107 -0.031464837
000280 e0 59 34 3d 92 45 fa bd 54 f0 c3 3d fe ae e5 bb
       0.044031024 -0.12220301 0.09567323 -0.007009386
000290 54 27 36 bd f1 6f 20 be 93 5f 91 bc 4d 80 80 bc
       -0.0444711 -0.15667702 -0.017745769 -0.015686179
0002a0 31 65 eb 3d 24 76 0c 3d 67 10 09 bd bd 37 4b 3d
       0.1149391 0.034292355 -0.033462908 0.049613703
0002b0 e0 54 0a bc 0c 48 05 bd ef 25 8d bc 58 95 cf 3d
       -0.008443087 -0.032539412 -0.017230002 0.10135907
0002c0 04 bd 30 3e 71 ae 63 3d 96 30 d2 39 10 b5 44 3c
       0.17259604 0.055586282 0.0004009052 0.012006059
0002d0 f9 46 58 bd 05 21 7e bc c6 ba c1 bc a5 c1 df bc
       -0.05280206 -0.015510802 -0.02364863 -0.027314017
0002e0 7a f3 b8 bd 5f a2 89 bc 10 e3 f0 3a 63 b8 f5 bd
       -0.090308145 -0.016801057 0.0018378217 -0.119980596
0002f0 fb 5f 39 3d db ff b9 bd c6 20 eb 3b 4f ba 8c bd
       0.04525755 -0.09082004 0.0071755378 -0.06871473
000300 40 fb d9 bc 38 29 0d be 6c 0d bf bd 50 14 25 bd
       -0.026609063 -0.13785255 -0.09328732 -0.040302575
000310 e0 ff 6f bd f6 f9 91 3d 07 e0 46 3c 58 0e 14 bc
       -0.05859363 0.071277544 0.012138373 -0.009036623
000320 b0 1d 46 bd c1 73 07 3b d9 41 b4 3c 49 b2 03 be
       -0.048368156 0.002066836 0.022004055 -0.12860979
000330 d3 a6 0d 3e d0 c3 a0 3d bb 0b af bd 42 21 b9 bd
       0.1383317 0.07849848 -0.08547159 -0.090395465
000340 77 ed e4 3c eb f7 a2 3d a3 dd e6 3c da cd 13 bc
       0.027945263 0.07957443 0.028181856 -0.009021247
000350 f9 63 9a bc 8a 2d 57 bd 40 24 b5 bc 27 34 6e 3d
       -0.018846499 -0.052533664 -0.022112012 0.058155205
000360 78 20 3d 3e ad e0 26 bd ad 63 6e 3d 4d 39 28 bb
       0.18469417 -0.04074161 0.058200527 -0.002566892
000370 69 40 8e bd 1b 02 c1 3d bf 33 f0 bc d2 59 4d bc
       -0.06945879 0.0942423 -0.02932155 -0.012533622
000380 79 fa 05 bd 4a b1 1a bc 36 c2 71 3b 81 86 7f 3d
       -0.032709572 -0.009441683 0.003688944 0.062384132
000390 ef 93 b3 bd 22 fe bc bd be 13 84 3d 4a ea 45 3c
       -0.087684505 -0.092281595 0.06449078 0.012079785
0003a0 da 1f a1 bd 7a 95 7e bd e2 d5 e7 bc 85 8d 3a bd
       -0.07867403 -0.06215427 -0.02830023 -0.04554512
0003b0 69 dd 31 3d bb 9b 30 3d 43 14 51 3a c5 31 82 3d
       0.043424044 0.043117266 0.00079757365 0.06357149
0003c0 79 09 fc 3d 8b c0 dc 3d 1e d6 94 3d e7 30 68 bd
       0.12306494 0.10778912 0.07267402 -0.056687262
0003d0 83 65 97 bc 38 5e e8 3c e1 d6 c7 3d ee a6 13 3d
       -0.018481022 0.02836524 0.09757782 0.03604787
0003e0 58 17 e1 bd cc 5f 2c be e3 22 42 bc 0a bf 8a bd
       -0.109907806 -0.16833419 -0.011849138 -0.06774719
0003f0 51 a5 b3 bd 86 f0 ac bb 3d d8 05 bd a2 3e 54 3d
       -0.08771766 -0.005277696 -0.032676924 0.051817544
