embeddings/actor13/angry_i01_s02_r01_layer5.npy (npy, 3200 bytes, 1 tensors)

array f4 [768]
0.061528344 0.059941646 0.067711964 0.054421764 -0.042294413 0.08763751 0.1279673 -0.04152912
0.031838447 0.062753655 0.045607764 0.056638338 0.07456979 -0.050980143 -0.13018097 0.04442198
-0.105547525 0.03219452 -0.021573668 -0.018326 -0.008146644 -0.009815555 -0.38605437 -0.02819608
0.05656528 0.065451756 0.056188453 0.05206058 -0.06258601 -0.14612493 0.059899636 -0.057362173
0.01505898 0.053761136 -0.07233824 0.11874403 0.0077217463 0.037616707 -0.034519058 0.08973991
-0.06930902 -0.07402294 0.12567009 -0.029186225 -0.009442067 0.00065164844 -0.038246665 0.028073285
0.017045313 0.040894374 -0.07694295 -0.034023836 -0.00033127528 -0.07802753 -0.01829469 -0.13811831
0.0003088487 -0.0051861587 0.05235056 -0.05815193 0.002109593 -0.01297981 0.009724316 -0.018990498
0.12603188 0.02002914 -0.023710027 -0.13085292 0.10193216 0.027583485 -0.034594223 0.09221038
0.013384646 -0.012218786 0.070992105 -0.013608494 0.04981697 -0.0055766567 0.035461836 0.008839103
-0.102310635 -0.04246188 -0.08667488 0.037520356 -0.044170637 -0.048930068 0.04788716 0.042605292
-0.01817818 0.025291407 -0.13061263 0.009944097 -0.010401515 0.011620421 0.015089738 -0.08484163
-0.09011044 0.00897077 0.023020092 -0.011570177 -0.034799907 -0.076822594 0.0033408706 0.09564748
-0.0018877351 -0.1897337 -0.048529737 -0.023543129 0.06382981 -0.029431758 0.025930418 0.013009653
0.009954161 0.0730392 -0.04694796 -0.052784488 -0.08041387 -0.012629941 0.09659537 0.06591945
0.028911466 -0.048160277 -0.043636147 -0.04716376 0.089787655 0.13556737 -0.04263166 -0.0071221893
0.057230238 0.114513695 0.024254194 -0.039669573 -0.11823035 -0.012676427 -0.06749732 0.02902416
0.053844314 -0.051832434 -0.017937735 0.039166156 0.06615208 0.005466729 -0.11721571 0.09778274
-0.11575 0.037760865 -0.094653815 0.109399274 0.059799243 -0.050180163 -0.0024839183 -0.028876243
0.07273272 0.37825865 0.022075057 -0.0010864928 -0.029125292 -0.04383113 -0.024414042 -0.027600046
0.061200343 -0.16319859 0.07016797 -0.04872502 -0.096405864 -0.10593845 -0.08850685 -0.005472125
0.2837275 -0.008333319 -0.08662532 0.070477344 -0.07353284 -0.019032627 -0.0014653584 -0.15460475
0.15468216 0.049719043 0.061111283 -0.005460144 -0.058286656 0.00022241993 -0.030423177 -0.13622032
-0.08621215 -0.026626252 -0.016278118 -0.04505468 -0.060763065 -0.10192415 -0.029898582 -0.036797643
0.03692404 -0.108456925 0.020013219 -0.07602441 0.034432694 0.02348305 0.054141313 0.027000247
-0.015555068 0.046146933 0.023113219 0.01577156 0.099099256 0.1658875 -0.05359361 0.009427082
0.060890943 -0.028366426 0.022230433 -0.018264746 0.03845624 0.027198087 -0.08659675 0.007303556
0.067057446 -0.006201358 -0.021794252 0.06554973 -0.052433826 0.16786267 -0.025696533 -0.01527817
0.06054545 -0.006678134 -0.029703947 -0.023373786 0.042094123 -0.12449642 0.073653676 0.03409831
-0.07920698 -0.0033182579 0.009654472 -0.112431556 0.03307797 0.037383236 0.03291242 0.06337036
0.18977173 -0.28715107 0.057874534 -0.07350581 0.073387384 -0.052439995 0.074829 -0.07919495
-0.056527458 0.012813486 0.0049798 -0.08409658 -0.09816236 0.007015716 0.0010092356 -0.002131102
00000000: 2505 7c3d 5f85 753d 92ac 8a3d 5be9 5e3d
00000010: e83c 2dbd 4b7b b33d dc09 033e 701a 2abd
00000020: 0869 023d fd84 803d 35cf 3a3d 9afd 673d
00000030: 0cb8 983d 8ed0 50bd 294e 05be d2f3 353d
00000040: 4d29 d8bd 67de 033d 43bb b0bc 6820 96bc
00000050: 8079 05bc 6cd1 20bc eba8 c5be 77fb e6bc
00000060: ffb0 673d 920b 863d dd25 663d 7a3d 553d
00000070: 182d 80bd c6a1 15be 5259 753d 99f4 6abd
00000080: f1b9 763c a334 5c3d 1226 94bd 1230 f33d
00000090: b406 fd3b fa13 1a3d db63 0dbd 8fc9 b73d
000000a0: e3f1 8dbd 5799 97bd a9af 003e f317 efbc
000000b0: e6b2 1abc 63d3 2a3a 89a8 1cbd f2f9 e53c
000000c0: 9da2 8b3c dc80 273d 4494 9dbd 945c 0bbd
000000d0: 04af adb9 e6cc 9fbd bfde 95bc e36e 0dbe
000000e0: f9ec a139 a7f0 a9bb 8a6d 563d b830 6ebd
000000f0: 1941 0a3b 45a9 54bc bd52 1f3c f691 9bbc
00000100: 800e 013e 2714 a43c 883b c2bc 4ffe 05be
00000110: cfc1 d03d c3f6 e13c acb2 0dbd ccd8 bc3d
00000120: 464b 5b3c 4e31 48bc 4f64 913d 29f6 5ebc
00000130: e10c 4c3d 63bc b6bb 6e40 113d e3d1 103c
00000140: 3d88 d1bd 82ec 2dbd 9982 b1bd f2ae 193d
00000150: 45ec 34bd e56a 48bd 5425 443d e382 2e3d
00000160: 68ea 94bc ed2f cf3c 51bf 05be 91ec 223c
00000170: 1e6b 2abc 9463 3e3c f33a 773c 73c1 adbd
00000180: d38b b8bd 23fa 123c a294 bc3c d790 3dbc
00000190: 598a 0ebd 2a55 9dbd 82f2 5a3b d3e2 c33d
000001a0: e16d f7ba 8d49 42be 1ec7 46bd 85dd c0bc
000001b0: 34b9 823d df1a f1bc 076c d43c 7126 553c
000001c0: c716 233c 9395 953d 814c 40bd 8c34 58bd
000001d0: 07b0 a4bd d0ed 4ebc cbd3 c53d c700 873d
000001e0: bdd7 ec3c b643 45bd d1bb 32bd c92e 41bd
000001f0: 97e2 b73d 2cd2 0a3e 899e 2ebd 4161 e9bb
00000200: 416a 6a3d 2886 ea3d bbb0 c63c 907c 22bd
00000210: c122 f2bd cab0 4fbc 093c 8abd 13c4 ed3c
00000220: db8b 5c3d 3f4e 54bd 28f2 92bc b16c 203d
00000230: be7a 873d 3f22 b33b ca0e f0bd 5142 c83d
00000240: 560e edbd 23ab 1a3d dcd9 c1bd ba0c e03d
00000250: 0df0 743d b789 4dbd 3cc9 22bb df8d ecbc
00000260: e4f4 943d 1eab c13e c0d6 b43c a668 8eba
00000270: 2a98 eebc 4588 33bd f5ff c7bc 7e19 e2bc
00000280: 36ad 7a3d 881d 27be 3ab4 8f3d e393 47bd
00000290: 7070 c5bd 42f6 d8bd 1443 b5bd 834f b3bb
000002a0: bb44 913e 7988 08bc 9e68 b1bd 6d56 903d
000002b0: 6398 96bd 50ea 9bbc 4511 c0ba b550 1ebe
000002c0: 0065 1e3e 32a6 4b3d d34f 7a3d 02eb b2bb
000002d0: fdbd 6ebd 6539 6939 073a f9bc 577d 0bbe
000002e0: ff8f b0bd 4c1f dabc b059 85bc 428b 38bd
000002f0: b1e2 78bd 9cbd d0bd dfed f4bc 20b9 16bd
00000300: aa3d 173d aa1e debd c3f2 a33c b0b2 9bbd
00000310: 4c09 0d3d 865f c03c 48c3 5d3d 9f2f dd3c
00000320: afda 7ebc 9104 3d3d ef57 bd3c 5c33 813c
00000330: 8df4 ca3d 6ade 293e f984 5bbd 0c74 1a3c
00000340: c868 793d b560 e8bc 991c b63c f39f 95bc
00000350: 4a84 1d3d 86ce de3c a359 b1bd ab52 ef3b
00000360: 6a55 893d c334 cbbb dc89 b2bc f03e 863d
00000370: dac4 56bd 31e4 2b3e 8981 d2bc 4a51 7abc
00000380: 81fe 773d 40d4 dabb b155 f3bc 627a bfbc
00000390: e36a 2c3d fbf7 febd bdd7 963d abaa 0b3d
000003a0: 4537 a2bd 2177 59bb ca2d 1e3c 8442 e6bd
000003b0: c47c 073d 2a1f 193d 2ccf 063d 52c8 813d
000003c0: 8553 423e 7705 93be d90d 6d3d 378a 96bd
000003d0: 204c 963d 52cb 56bd f23f 993d f630 a2bd
000003e0: 5689 67bd a8ef 513c 972d a33b d43a acbd
000003f0: 5909 c9bd 17e4 e53b 5448 843a f5a9 0bbb
