embeddings/actor13/happy_i02_s02_r01_layer5.npy (npy, 3200 bytes, 1 tensors)

array f4 [768]
00000000: 531e 9e3d ac19 c53d 9306 723d 0fb9 f13c
00000010: 8b03 36bd af45 033e feb3 ce3d dcfc bbbc
00000020: 5487 d83d fcb9 513c 55a7 063d 83b4 4d3d
00000030: 6d49 493d 9e54 de39 0ffe bfbd f488 033d
00000040: 5aee 09be 623a cf3d 98ec b6bc 3f50 d2bc
00000050: 2629 073d 267d 2ebd 169b af3d b138 d93b
00000060: d58f 193c 1f5d 833d 4bee 413c ef9d 893d
00000070: ffbf cdbd 9b7f 38be aed3 2abd 2bc6 a0bd
00000080: 672b a73c e5b9 25bb abc0 a63d 760b 233e
00000090: 2515 45bd bd7a 5d3d ef53 b0bd e12b c43d
000000a0: 2898 31bd 70d0 20bd 596b 9e3d 608d 49bd
000000b0: 6382 f13c 4409 433d 3465 01bd 276e 693c
000000c0: f7c2 723d 6500 be3d 70a9 4ebd cffe 2fbd
000000d0: 23c7 3ebb 9f4d 4cbd 6ce0 31be ddbc eebd
000000e0: 59e2 8dbc 438b 5a3b 84e7 47bc 8a64 343d
000000f0: a99d bebc b0d1 2c3d b5b7 e63b 56ce 0e3d
00000100: 4ded 153e 15b7 0f3d a7f5 d83c b9ed 06be
00000110: a4e0 813d 3ddd ea3b 001a fcbc f9e1 733d
00000120: 4b55 3bbb f695 d43c 33f9 fc3c b6fd 59ba
00000130: cc76 b538 1e74 ff3c 23f1 c93c 3758 bd3c
00000140: f285 01be cc2c 8f3d dcac 2dbd 8d34 853c
00000150: 0fd8 d0bc 5ac7 77bd 9bf1 863c e922 4abc
00000160: c269 cb3c 17ba 433d aecb 77bd f64b 853b
00000170: 004a 95bb 5eab 233d 0734 cd3d e2b8 a3bd
00000180: 6016 b0bd c241 653d 2cad 5d3c e02d 193c
00000190: c601 87bd 56ff 0dbd 5b0e c93c 270a d03c
000001a0: 28fa 813b bb6a 7abe 9f3d b139 3195 153c
000001b0: ff4e f4ba 9b19 183c 1ffc 693c 43c3 053c
000001c0: f72d b03d 854a d63b c067 ecbd 77bf 26bd
000001d0: 0fd2 97bd 2b24 a5bb cafd 943d 038d 8b3d
000001e0: 9ea5 383c d840 6dbd becc 1ebc 1f33 cebc
000001f0: 6b39 ea3d 9cb4 d93d b0a0 82bd 128f 273d
00000200: ef15 b33d 9092 113e e6b1 eabc 9f83 8f3b
00000210: bbe8 f4bd 831f 433b 3e33 08bd 87e9 b03d
00000220: da09 9ebc a366 efbc 46ac 72bd 975d 2a3e
00000230: da82 e0bc cab4 48bd 53fe 14be ccce 773d
00000240: af7f d0bd 2354 1cbd 55f0 9fbd b3c9 523d
00000250: e25a 4d3c b704 b5bd b82a b6bd 0a3f e23b
00000260: f014 f93d e67d 2d3e f042 9d3d 8ac0 55bd
00000270: 31c5 aa3c 6267 1fbd 0e94 773d 344e 2bbd
00000280: 616f be3d 05ee 0bbe 460c a2bd 3236 adbd
00000290: 5cd8 fabc 784b 20be 005e 8cbd 573c e5bd
000002a0: c83b fe3d ed35 d2bc 8ef3 b1bd 3125 b63d
000002b0: fad0 2dbd 33be 2c3c 2ffb 8fbd ec0b 093d
000002c0: 7802 033e acfa c93d a820 e33b 95b1 70bc
000002d0: 87bf f6bc cd0c f4bc 1bbd c2bc 899a 5dbd
000002e0: 6681 e4bc fceb acbc 8276 0ebd 02ee 21bd
000002f0: 7d1d 7a3c b010 09be ed65 56bc be20 91bc
00000300: e5af 5f3c d7d7 04be b5f7 613b e4dc 563c
00000310: 032a a2ba de2e 0f3e ac42 1c3c c1fb da3d
00000320: f681 75bd c574 893d 740c e63d 5475 ac3c
00000330: 67ae 163e 732d 213e 8f0f 2bbd 7b98 abbd
00000340: 8082 7d3d 5841 b7bd 851b 753c ec42 4b3b
00000350: 493c 633d 86d4 25bd 6aa2 9abd c62c 4f3d
00000360: 1dc2 343e 63ee 5dbd b1d0 153d b2ae 003d
00000370: 2b11 18bd 94a4 153e 395f 0f3c 3016 243d
00000380: 9ff6 b53b f9f5 093d 05f2 7e3b 6dc9 ec3c
00000390: 042b 9f3d ce68 a0bd 588b 7e3d 861b 463d
000003a0: 08e4 c5bd 57e0 58bd 3021 4f3d 5440 15be
000003b0: 50ae 6c3d 34fd 8b3d 5365 05bd 3213 25bd
000003c0: 8243 293e 7791 953e 9ba8 c73d 6bab 0cbe
000003d0: f774 c03c ba3c c8bd f387 073e 17b6 18bd
000003e0: 6f9e cfbd 55a8 5f3b 6f27 863b 0ed9 c0bd
000003f0: 384b fbbd 5ec2 a2bd 9524 033c 86a4 07bd
0.07720628 0.09624037 0.0590883 0.029507188 -0.044436973 0.12819551 0.100929245 -0.022947721
0.10572687 0.01280069 0.032874424 0.050220978 0.04914229 0.00042406184 -0.0937463 0.03211303
-0.1346983 0.101185575 -0.022329614 -0.02567303 0.032998227 -0.04259982 0.08574502 0.0066290726
0.009372671 0.06414246 0.011836599 0.067195766 -0.10046386 -0.18017428 -0.04170578 -0.078502975
0.020406438 -0.0025287804 0.08142217 0.15922341 -0.048115868 0.05407213 -0.08609759 0.09578682
-0.043357998 -0.03926128 0.07735319 -0.04920709 0.029481119 0.04761626 -0.031590655 0.014247454
0.059267964 0.09277419 -0.050454557 -0.042967614 -0.0029110394 -0.049878713 -0.17370766 -0.116571166
-0.017319845 0.0033347167 -0.012201194 0.044041194 -0.023268538 0.04219216 0.0070409426 0.034864746
0.14641304 0.03508671 0.026484324 -0.13176621 0.06341675 0.007167487 -0.030774117 0.059541676
-0.0028584774 0.025950413 0.030880546 -0.0008315699 8.65288e-05 0.031183299 0.024651116 0.023113353
-0.12648752 0.06990966 -0.04240118 0.01626041 -0.02549365 -0.06049285 0.016472628 -0.012337425
0.024830703 0.04778489 -0.06049698 0.004067893 -0.0045559406 0.03995835 0.10019689 -0.07994248
-0.08598018 0.055970915 0.013530057 0.009349316 -0.06592135 -0.034667335 0.024542978 0.025395466
0.0039665885 -0.24454777 0.00033805982 0.009129808 -0.0018639265 0.009283449 0.014281302 0.00816423
0.08602517 0.006539645 -0.11543226 -0.04070994 -0.07413112 -0.005039712 0.07274969 0.06814005
0.011269955 -0.057923168 -0.009692369 -0.02517086 0.11436733 0.10630152 -0.06378305 0.040907927
0.08744418 0.14216065 -0.028649282 0.004379704 -0.11958452 0.002977342 -0.033251993 0.08638292
-0.019291807 -0.029223746 -0.059246324 0.16637264 -0.027406145 -0.04900054 -0.14550142 0.06049995
-0.10180604 -0.038166177 -0.078095116 0.051461887 0.012533875 -0.0883879 -0.08894867 0.0069044875
0.12162197 0.16942558 0.07678783 -0.052185573 0.020845981 -0.038916953 0.06044393 -0.041822627
0.092985876 -0.13665016 -0.07912497 -0.084576026 -0.030620746 -0.15653789 -0.068538666 -0.111931495
0.12413746 -0.02566048 -0.086890325 0.088938124 -0.042435624 0.010543394 -0.07030331 0.033458635
0.1279391 0.09862265 0.006931383 -0.014690776 -0.030120624 -0.02979126 -0.023771813 -0.054102454
-0.027893733 -0.02110862 -0.034780987 -0.039533623 0.01526582 -0.13385272 -0.013085824 -0.017715808
0.013652776 -0.12972961 0.003447992 0.013114188 -0.001237214 0.13982722 0.00953738 0.106925495
-0.059938394 0.06711725 0.11232844 0.02105204 0.14714967 0.15739994 -0.041762885 -0.08378693
0.061892033 -0.0894801 0.014960174 0.003101523 0.055477414 -0.04048588 -0.07550509 0.05057981
0.17652173 -0.05418242 0.036575977 0.031416602 -0.037125748 0.14613563 0.00875073 0.040060222
0.005553081 0.033681843 0.003890158 0.028904641 0.077718765 -0.0783249 0.062144607 0.048366092
-0.09662634 -0.052948322 0.05056876 -0.1457532 0.057783425 0.06835404 -0.032567333 -0.04030151
0.16529658 0.29212543 0.09748956 -0.13737266 0.023493273 -0.09777208 0.13235454 -0.03728303
-0.10137641 0.0034127433 0.0040940563 -0.094164 -0.12270206 -0.07947229 0.008004327 -0.033115886
