embeddings/actor13/happy_i01_s01_r02_layer5.npy (npy, 3200 bytes, 1 tensors)

array f4 [768]
00000000: 4e0d 4d3d 620a 153d 6f74 a8bb 9c5f 0c3d
00000010: a5bc 9bbd 2f18 143e afc9 9e3d d6f5 dabd
00000020: 0c0c 283d e8b0 e1bc 39a1 783d c4db 993b
00000030: 0fd5 adbc 8a33 383d e38b a7bd 6609 c23c
00000040: a3eb febb 2067 9c3c d33d 6dbc fae0 6ebd
00000050: 3e64 dabb 1873 7dbd c204 aebe b879 d0bd
00000060: be2b 4bbe 68eb 213d 902a 86bc b078 283d
00000070: 4f93 80bd 6295 85bd 1a58 30bb 2e96 b8bc
00000080: 9166 d73c 5809 673d 2436 60bc f4e9 3f3e
00000090: 99c0 333d 02af 483d 1ec8 9bbc 287f 573d
000000a0: b69f 83bd 1caa 28bc 2654 083e 0394 2fbc
000000b0: 2109 233b 52b5 dcb7 d9d5 a83c e4c8 73bd
000000c0: 2c1a 43bd d0e1 26bd 6312 47bc 0b7c a4bd
000000d0: 2d5c a53d 0037 93bd 03fb e43d d134 cbbd
000000e0: a07f 86bc 49a3 c83c 9986 3f3b 3e8e e43c
000000f0: 5e03 1e3d 3ee1 0e3e 7418 51bc 53af 993b
00000100: 8afd 203d f02a cb3c 1b9f 6fbc d3d0 39bd
00000110: 6b55 f73c 5120 c83a 6f48 6abc ca68 b9bc
00000120: 51dc 523d 7a3e 7f3d 41af b7bd 1106 98ba
00000130: 9a23 fc3a 0176 9b3d 7bd7 a4bd 4b37 bdbd
00000140: 3b30 6ebd ee14 3abd 5a47 7dbd 631f ec3c
00000150: 93a5 053c 081c 143c ec35 623d 39f3 ac3c
00000160: 1a76 dfbb 6297 ec3c 1b54 d8bd 10d9 d23c
00000170: e025 9ebd 990b d33d d20e a63d 8069 ccbd
00000180: 2127 40be 47b7 513d e49c c9bc 41d4 b8bb
00000190: 8a70 adbd 6243 97bb a4fe 863d e758 b0bc
000001a0: efa8 0d3d 7069 84be 7693 c6bc e90e 15bd
000001b0: e493 513d f1b3 89bd 1aa7 4c3d 2a1a a53d
000001c0: d0b0 b23d edc1 9e3d a88b d6bd 0208 71bd
000001d0: 65bc d3bd 57a1 c93b 586c 843d 3324 7d3d
000001e0: 9c3a ca3d d6e7 7abd 9eb6 5e3b a4e1 5fbc
000001f0: 59c7 7a3d ffa8 eb3d c3db 7abc fe4d d2bc
00000200: 6707 803d eac1 e73d 1c02 833a 61a5 1d3d
00000210: cb29 2cbe bf2e ad3c 7103 a6bc c33a d63c
00000220: 4859 82bd cdef 6ebd b965 2fbd e7b8 063b
00000230: 878f 7b3c 7c37 d0bb 1f36 f8bc 3c7d 5e3d
00000240: 4dc3 2bbe 7c90 11bd 2c8a 1abd 3b02 acbc
00000250: 556e 3ebc fe4a a3bc 7258 fabd f412 833d
00000260: b646 983d e830 0b3f a252 613d 587f 29bd
00000270: 4bfc 34bd 9b45 babd d003 b83d b491 cdbd
00000280: 3dad d93d c17d 3abe 1311 19bd 6561 ea3c
00000290: ea0a 94bc 4305 1dbe 2508 33bd 5e99 31bd
000002a0: 2f2a 3a3e 4c29 b23b 691b cdbd 5da5 2c3d
000002b0: 253c 35bd 6894 2dbd 70f9 aa3c b0bb 98bd
000002c0: 1686 933d a297 b8bc c594 4abd 6d06 d33c
000002d0: afe2 dbbc 6b86 b3bc 5c53 eabd 4f8a dfbd
000002e0: 0c00 86bd 9fff 853b daab 923c 1eaa b1bc
000002f0: 0ca9 72bd 64a3 dabd 7408 2a3d 1586 fdbc
00000300: 3852 ff3b dc47 6cbd 2656 fbbd 21f2 b13c
00000310: 02b4 af3d 777d c83d 960c d83b d524 313e
00000320: 71e4 72bd f8d8 5fbc 08be f13d b623 0ebd
00000330: c95b 8f3d ef9a bf3d f4cd 3ebd cc29 65bd
00000340: f3d2 c83c d40b 17be 45c0 78bb c954 cc3c
00000350: 8e2c c63c 907d dfbc 8734 9fbd d504 d03c
00000360: a77a 863d 6892 73bc e798 c2bc 2595 a83d
00000370: 2651 9dbc fd4c a93d bc52 1dbc 8069 0abd
00000380: 3036 da3c d270 23bd afb5 1dbd 2d93 243d
00000390: 1d22 313d 7b45 97bd 0060 243e 07da b83d
000003a0: d7bd e6bc f440 a93c 0e83 d73c 9026 f5bd
000003b0: 1692 7f3d 25fd a53c a416 11bd f5c6 5f3d
000003c0: 9f4f 03bd db00 5ebe 1a08 9a3d fafd c7bd
000003d0: 3098 e73d 77eb 7bbc 5148 823d 0831 92bc
000003e0: 7972 0bbd 8b95 c93d c6f4 24bd 9306 c5bc
000003f0: e58a 88bd 860a a2bc 2fb6 273d 74be 32bd
0.050061516 0.036386855 -0.005140833 0.034270868 -0.076043405 0.1446235 0.07753312 -0.10691421
0.041027114 -0.027550176 0.06070063 0.0046953876 -0.021219758 0.044971026 -0.08180978 0.023686122
-0.007779555 0.019092143 -0.014480072 -0.058320023 -0.006664782 -0.06187734 -0.33988005 -0.10179466
-0.19840905 0.03953114 -0.016377717 0.04113072 -0.06278097 -0.06522633 -0.0026907981 -0.022532549
0.026294025 0.056405395 -0.013684783 0.1874159 0.043884847 0.048995025 -0.019016322 0.0526115
-0.06426947 -0.0102944635 0.1331335 -0.010716441 0.0024877267 -2.6310478e-05 0.020609783 -0.059517756
-0.04763238 -0.040742695 -0.01215038 -0.08031472 0.08074222 -0.07188225 0.11180689 -0.09922183
-0.016418278 0.024491923 0.0029224514 0.027899858 0.03857743 0.1395311 -0.012762178 0.0046900897
0.039304294 0.024800748 -0.014625336 -0.045365166 0.030192098 0.001526842 -0.014299496 -0.022632975
0.05147964 0.06231544 -0.08968974 -0.0011598488 0.0019236684 0.07590867 -0.08048912 -0.09239062
-0.058151465 -0.045430116 -0.061835624 0.02882356 0.008157152 0.009039886 0.055227205 0.021112071
-0.0068194987 0.028880779 -0.10562917 0.02573827 -0.07722068 0.103049465 0.081082955 -0.0998106
-0.18764926 0.051200178 -0.024610944 -0.005640537 -0.08468731 -0.004616187 0.065915376 -0.021526767
0.034584936 -0.25861692 -0.024240237 -0.036391173 0.05116643 -0.06723774 0.049964048 0.08061631
0.087251306 0.07751832 -0.10475856 -0.058845527 -0.10338668 0.0061532664 0.064659774 0.0618021
0.0987446 -0.061256252 0.003398336 -0.013664637 0.06122527 0.11506843 -0.015311184 -0.025671955
0.06251412 0.11316283 0.0009995135 0.038487796 -0.16812818 0.021140454 -0.020265313 0.026151067
-0.06364685 -0.05833416 -0.04282162 0.0020556988 0.015354044 -0.0063542705 -0.030299244 0.05431865
-0.1677372 -0.03553818 -0.037729427 -0.020997157 -0.011622985 -0.01993322 -0.12223901 0.064000994
0.07435362 0.543715 0.055010445 -0.04138121 -0.044185918 -0.090953074 0.08985102 -0.10037556
0.10628746 -0.18212034 -0.0373698 0.028610894 -0.01807161 -0.15334038 -0.04370894 -0.043359153
0.18180154 0.005437052 -0.10014994 0.04214989 -0.04424681 -0.04237786 0.020870894 -0.074576735
0.07203309 -0.022533242 -0.049458284 0.0257599 -0.02684149 -0.021914681 -0.11441681 -0.10915052
-0.06542978 0.0040893103 0.01790421 -0.021687564 -0.059243247 -0.106756955 0.041511968 -0.030947724
0.0077917837 -0.057685718 -0.12272291 0.021721901 0.08579256 0.097895555 0.0065932972 0.17299207
-0.05929989 -0.013662569 0.11803824 -0.034702025 0.069999285 0.09355723 -0.04658313 -0.055948064
0.02451465 -0.14750606 -0.0037956398 0.024942772 0.024191167 -0.027281553 -0.07773691 0.02539293
0.06566363 -0.014866449 -0.02375455 0.08231572 -0.019203734 0.082666375 -0.009602245 -0.03379202
0.026637167 -0.039902516 -0.038503345 0.04017942 0.043245424 -0.07386299 0.16052246 0.090259604
-0.028166695 0.020660855 0.026307609 -0.11970246 0.062395178 0.02026231 -0.035421982 0.0546331
-0.032058354 -0.21680014 0.075210765 -0.09765239 0.11308324 -0.015375963 0.063614495 -0.017845646
-0.034044717 0.09842976 -0.040272497 -0.024050986 -0.06667117 -0.019780409 0.04094523 -0.04363866
