embeddings/actor21/angry_i01_s01_r01_layer5.npy (npy, 3200 bytes, 1 tensors)

array f4 [768]
0.117747344 0.045700073 0.043567814 0.06617852 -0.0419025 0.07964026 0.033701867 -0.06494091
0.021590024 -0.0013893028 0.058965363 0.07412784 0.01718488 0.009214189 -0.10111647 0.02928758
-0.058988214 -0.0028712335 -0.03377299 0.015013914 0.023805708 -0.017198263 -0.20730221 -0.016609285
-0.011785753 0.052079648 -0.02682534 0.07527905 0.004913212 -0.07904165 0.039267197 -0.080472454
0.028064705 0.042445816 -0.043214887 0.10768224 -0.04091065 -0.041348055 -0.023769138 0.10096779
-0.0072009414 -0.04073491 0.12200833 -0.009558176 0.031180363 0.034541354 -0.016556608 -0.041908607
0.043423936 0.03722688 -0.026051927 -0.050914995 0.05081447 -0.070834585 0.10632681 -0.1367564
0.025543258 -0.024749437 0.005142803 -0.062015586 -0.058671195 0.024693348 0.037708674 -0.018975452
0.021630013 0.065508366 -0.043108877 -0.14552215 0.08300679 0.012014401 -0.06109936 0.026085168
0.011688667 0.0017980735 0.052655853 -0.012269293 0.021425966 -0.03581287 -0.07570953 -0.030919293
-0.015760915 -0.008016861 -0.09557226 -0.027195895 -0.1342672 -0.01336302 -0.015442443 -0.0090036215
-0.050679527 0.035171647 -0.09716881 0.009477102 -0.041025583 0.0075724786 0.05604641 -0.047678236
-0.27175394 -0.0035286164 0.019762687 0.024907779 -0.087035105 -0.031396214 0.09571842 -0.009024291
-0.010561959 -0.25093898 -0.013331075 -0.07622811 0.057007313 -0.102312066 -0.061080262 0.009990882
0.031082485 0.01358107 -0.048013803 -0.065450236 -0.055622306 -0.0024156945 0.07415566 0.002766496
0.011558036 -0.112132765 0.011906093 -0.06116078 0.12768681 0.095229626 -0.011209075 -0.034865722
0.05479749 0.044886727 0.0019498522 -0.0066191866 -0.082163624 -0.04232794 -0.021465376 0.057461012
0.08226282 -0.023162687 -0.053908292 0.05075458 0.06639423 -0.01617677 -0.014786224 0.027588788
-0.14820547 0.034273703 -0.20662883 0.08134531 0.11488526 -0.018907875 -0.043628816 0.057398237
0.007078426 0.1280733 0.030466853 -0.005362863 -0.007486783 -0.044680607 0.002397417 0.025156347
0.054978643 -0.17374094 0.12098495 0.03613502 -0.06151007 -0.14636998 -0.023030866 0.036691498
0.28121826 -0.0226585 -0.11436188 0.064478464 -0.092270695 -0.00053432444 -0.03665066 -0.13458766
0.12990093 0.065026216 0.013870154 0.010210976 -0.06205691 0.027793003 -0.026221817 -0.021804353
-0.040936936 -0.013703254 -0.0641396 0.008578797 -0.07592473 -0.011837033 -0.0048897974 -0.030117914
-0.006494293 -0.060766153 -0.11984517 0.0005198465 -0.049958758 0.03171939 0.014415181 0.065379314
-0.0059187594 -0.04610671 0.11950081 0.005391722 0.1365308 0.14228667 -0.034738723 -0.054850653
0.03994929 -0.03372603 0.058051106 -0.0084342975 0.026664888 0.007793346 -0.028640682 0.0866937
0.07338665 -0.058714963 -0.024652626 0.043837577 -0.0508024 0.12991433 0.012681639 -0.019248946
0.041892722 0.022767494 0.022282355 0.037173267 -0.034257684 -0.08085883 0.01603099 0.0765915
-0.03602146 -0.016001696 0.030060194 -0.06434125 0.029682338 0.028128326 0.0009529028 0.015145295
0.17897023 -0.17595775 -0.015868003 -0.117945716 0.057628337 0.02372513 0.051448166 0.029437885
-0.032802474 -0.08210074 0.035525996 -0.045471396 -0.11617361 -0.029514993 0.010295704 0.05580613
00000000: 8525 f13d 0030 3b3d 2a74 323d 9b88 873d
00000010: f5a1 2bbd 6f1a a33d f80a 0a3d bdff 84bd
00000020: 90dd b03c 4419 b6ba aa85 713d 56d0 973d
00000030: 4ec7 8c3c 1cf7 163c 2716 cfbd 82ec ef3c
00000040: a09d 71bd 4e2b 3cbb 8c55 0abd ebfc 753c
00000050: 3004 c33c 5fe3 8cbc 0847 54be 3210 88bc
00000060: 0819 41bc 7851 553d d1c0 dbbc e72b 9a3d
00000070: 02ff a03b 97e0 a1bd a4d6 203d bece a4bd
00000080: f4e7 e53c aadb 2d3d 1802 31bd 8288 dc3d
00000090: ed91 27bd 945c 29bd 7fb7 c2bc 33c8 ce3d
000000a0: e0f5 ebbb a6d9 26bd 81df f93d e599 1cbc
000000b0: f66d ff3c 3c7b 0d3d b9a1 87bc 5ca8 2bbd
000000c0: 4cdd 313d 377b 183d da6a d5bc 3e8c 50bd
000000d0: d522 503d b911 91bd dfc1 d93d df09 0cbe
000000e0: 1840 d13c 55bf cabc f584 a83b 0e04 7ebd
000000f0: 3551 70bd b449 ca3c 6974 1a3d 6872 9bbc
00000100: 6d31 b13c 4029 863d ef92 30bd c203 15be
00000110: 77ff a93d 0dd8 443c 5343 7abd 90b0 d53c
00000120: d381 3f3c 56ad eb3a aaad 573d 2505 49bc
00000130: 8285 af3c 84b0 12bd 990d 9bbd 754a fdbc
00000140: 091d 81bc 2759 03bc 64bb c3bd edc9 debc
00000150: 577d 09be 91f0 5abc 4d02 7dbc ed83 13bc
00000160: 5695 4fbd 2510 103d 7100 c7bd d945 1b3c
00000170: 710a 28bd 8e22 f83b ec90 653d 414a 43bd
00000180: 5523 8bbe 5c40 67bb 5ce5 a13c 660b cc3c
00000190: 763f b2bd 5199 00bd 0508 c43d 9fda 13bc
000001a0: 110c 2dbc 137b 80be 956a 5abc 7c1d 9cbd
000001b0: 8080 693d fd88 d1bd 4c2f 7abd ccb0 233c
000001c0: b2a0 fe3c 2383 5e3c 1faa 44bd c60a 86bd
000001d0: 37d4 63bd a150 1ebb ecde 973d 1a4e 353b
000001e0: eb5d 3d3c dda5 e5bd c611 433c ba83 7abd
000001f0: 55c0 023e c007 c33d 45a6 37bc 5ccf 0ebd
00000200: 5573 603d 25db 373d 2f92 ff3a c3e5 d8bb
00000210: 6745 a8bd 1060 2dbd 28d8 afbc 3d5c 6b3d
00000220: 6979 a83d adbf bdbc f1ce 5cbd 09e4 4f3d
00000230: b3f9 873d 2585 84bc eb41 72bc e201 e23c
00000240: 2dc3 17be 9562 0c3d 8296 53be 5f98 a63d
00000250: f748 eb3d b0e4 9abc 21b4 32bd 6a1a 6b3d
00000260: 24f2 e73b a625 033e 9f95 f93c f5ba afbb
00000270: b053 f5bb 0303 37bd fc1d 1d3b af14 ce3c
00000280: 4931 613d 25e9 31be f5c6 f73d 5102 143d
00000290: fcf1 7bbd 03e2 15be 3aab bcbc d349 163d
000002a0: d7fb 8f3e 529e b9bc 9036 eabd 490d 843d
000002b0: 6bf8 bcbd e811 0cba 011f 16bd 59d1 09be
000002c0: c004 053e 772c 853d a43f 633c f04b 273c
000002d0: 632f 7ebd 27ae e33c 23cf d6bc 0b9f b2bc
000002e0: 7dad 27bd 9d83 60bc 9f5b 83bd 158e 0c3c
000002f0: 6d7e 9bbd 1df0 41bc 983a a0bb d8b9 f6bc
00000300: 14ce d4bb eee5 78bd 6271 f5bd 4f46 083a
00000310: 8ea1 4cbd 31ec 013d a72d 6c3c 97e5 853d
00000320: 27f2 c1bb 64da 3cbd d7bc f43d 0bad b03b
00000330: bbce 0b3e 99b3 113e 314a 0ebd 14ab 60bd
00000340: dea1 233d 4e24 0abd ffc6 6d3d 0230 0abc
00000350: 5370 da3c 535f ff3b dd9f eabc 778c b13d
00000360: bd4b 963d 1a7f 70bd 4ef4 c9bc 088f 333d
00000370: 2d16 50bd 4308 053e a6c6 4f3c f7af 9dbc
00000380: b497 2b3d e582 ba3c 7c89 b63c ff42 183d
00000390: c951 0cbd 5099 a5bd 6c53 833c 01dc 9c3d
000003a0: 3d8b 13bd fd15 83bc cc40 f63c 58c5 83bd
000003b0: 6028 f33c 606d e63c 39cc 793a f923 783c
000003c0: f943 373e 452e 34be 9dfd 81bc 868d f1bd
000003d0: b10b 6c3d 345b c23c 50bb 523d b827 f13c
000003e0: e35b 06bd 6f24 a8bd b583 113d 3740 3abd
000003f0: 6eec edbd 6dc9 f1bc 50af 283c f894 643d
