embeddings/actor24/angry_i01_s02_r02_layer5.npy (npy, 3200 bytes, 1 tensors)

array f4 [768]
0.08431033 0.027348341 0.021353971 0.073424384 -0.009755962 0.111471154 0.046042446 -0.16614147
0.020922335 0.0054337853 -0.025396183 0.06208741 0.0279872 -0.07536668 -0.113714986 -0.010754499
-0.09719529 0.0584877 -0.08575675 -0.013791128 0.012402212 0.024643661 -0.13583364 -0.057083614
0.1349856 0.057124086 -0.047884606 0.06442625 -0.0506809 -0.08174466 0.041532114 -0.015573812
0.015326281 0.040138867 -0.058382895 0.0020791953 0.024783496 -0.026211718 0.011579343 0.13054325
-0.050785188 -0.011651814 0.06516314 -0.06509995 0.07305453 0.047999535 -0.035264194 -0.025675455
-0.025727788 -0.012002855 -0.06473737 -0.043965332 0.041019462 -0.028496817 0.035876676 -0.19005008
-0.016923502 -0.0066980333 -0.01864106 -0.06417765 -0.089544505 0.0649591 -0.006833089 0.00065760064
0.07767038 -0.022494294 -0.08419668 -0.04890646 0.087368794 0.039031636 -0.030256366 0.0399771
-0.0228196 0.030017454 0.076015286 -0.08936427 0.016683457 -0.018543398 -0.02854409 0.007782773
-0.06372148 -0.020335179 -0.09435715 0.014469411 -0.11449924 -0.036614116 -0.00289757 0.011323544
-0.0013191417 0.0147300735 -0.037671898 0.040088307 -0.017415723 -0.034071267 0.023233507 -0.012913204
-0.01156626 -0.021913808 0.017985644 -0.050972085 -0.020290766 -0.11723809 0.058370188 0.08046264
-0.0017160513 -0.21210852 -0.07249065 0.012794868 0.005111048 -0.15840797 0.0275139 0.0659824
0.025708765 0.059438545 -0.018266676 -0.074500084 -0.072135575 0.07744703 0.06297537 0.05156916
0.091017194 -0.07923562 0.013953481 -0.037583962 0.09555696 0.098555535 -0.032617707 -0.00964558
0.042231213 0.10426514 -0.023406059 -0.07409573 -0.04899563 -0.016641412 -0.02629836 0.047696292
0.10738046 -0.0025738012 -0.07604733 0.2194196 0.05077679 0.03739775 -0.07567005 0.07746957
-0.04100103 -0.023142228 -0.08862383 0.017239174 0.037029713 -0.047817763 -0.0763562 0.094263785
0.113092355 0.079942055 0.05485885 -0.057921723 -0.0111729745 -0.11355215 0.023631152 -0.018440923
0.03593061 -0.10372354 0.13606444 -0.006162197 -0.04745603 -0.086286195 -0.0011939607 0.007697769
0.118277326 0.011442644 -0.060470633 0.071199566 -0.07360793 0.009127997 0.00640885 -0.04049293
0.08262842 0.032348037 0.07096642 -0.007846809 -0.08929288 0.015961185 -0.024076134 -0.043850116
-0.10063657 -0.048453774 -0.009988865 -0.06287283 -0.009350503 0.11667377 -0.014434956 -0.059730053
0.06334197 -0.06902185 -0.005871771 -0.008329955 0.045849144 -0.02102177 -0.0064170617 -0.04435753
-0.026315073 -0.030424427 0.039102588 -0.08920221 0.08719942 0.06548045 -0.01836266 -0.059577297
0.07298455 0.06716644 0.083711185 0.0009953206 0.02879152 0.05624281 -0.072906435 0.038631544
0.14674571 0.0038626906 -0.04844139 0.037921727 -0.07776814 0.12410276 -0.05670173 0.029934052
0.042788483 0.0200785 0.037328046 -0.0124622295 0.060481757 -0.05716538 0.02650644 -0.024367781
-0.06343757 -0.055936776 -0.02577116 -0.050310828 0.03835706 -0.0068329936 0.016374858 0.06670599
0.22729723 -0.1089539 0.0388865 -0.06978672 0.07899253 0.0013966532 0.08226621 -0.001572797
-0.061061505 -0.09315458 -0.0024100156 -0.034875527 -0.0790086 -0.040710006 -0.036884625 0.07323042
00000000: e5aa ac3d a109 e03c 86ee ae3c 865f 963d
00000010: 78d7 1fbc fd4a e43d 0197 3c3d fd20 2abe
00000020: 5165 ab3c e50d b23b a80b d0bc 5e4f 7e3d
00000030: 6a45 e53c d959 9abd 67e3 e8bd a333 30bc
00000040: 530e c7bd cc90 6f3d 3ca1 afbd 2ff4 61bc
00000050: a632 4b3c 81e1 c93c f917 0bbe 82d0 69bd
00000060: aa39 0a3e f2fa 693d a622 44bd e9f1 833d
00000070: c796 4fbd bf69 a7bd 941d 2a3d 4d29 7fbc
00000080: 151b 7b3c a768 243d e722 6fbd 1c43 083b
00000090: c206 cb3c f5b9 d6bc 49b7 3d3c 21ad 053e
000000a0: 2104 50bd 40e7 3ebc 4174 853d 1f53 85bd
000000b0: 9d9d 953d 299b 443d 3071 10bd 5555 d2bc
000000c0: 15c3 d2bc 9fa7 44bc 0795 84bd fe14 34bd
000000d0: 0604 283d 2872 e9bc 6cf3 123d 7d9c 42be
000000e0: 28a3 8abc 2d7b dbbb 23b5 98bc 926f 83bd
000000f0: 1c63 b7bd 4709 853d 1be8 dfbb d562 2c3a
00000100: a611 9f3d f445 b8bc 4f6f acbd 2452 48bd
00000110: 69ee b23d a3df 1f3d 33dc f7bc 07bf 233d
00000120: 2bf0 babc 2ae7 f53c e7ad 9b3d 9d04 b7bd
00000130: bfab 883c 53e8 97bc 4cd5 e9bc a206 ff3b
00000140: 6880 82bd f695 a6bc 523e c1bd 1c11 6d3c
00000150: 947e eabd aff8 15bd 28e5 3dbb 6386 393c
00000160: 0de7 acba 6856 713c d94d 1abd a333 243d
00000170: 6bab 8ebc 508e 0bbd 3254 be3c e791 53bc
00000180: 6980 3dbc 9684 b3bc a156 933c 1bc8 50bd
00000190: d238 a6bc 861a f0bd 9415 6f3d 99c9 a43d
000001a0: 20ed e0ba fa32 59be fa75 94bd 91a1 513c
000001b0: 947a a73b b335 22be d564 e13c c821 873d
000001c0: 309b d23c d575 733d ffa3 95bc 8093 98bd
000001d0: d1bb 93bd 8c9c 9e3d 3bf9 803d 2f3a 533d
000001e0: 3967 ba3d 4946 a2bd 249d 643c a4f1 19bd
000001f0: 5eb3 c33d 7cd7 c93d 259a 05bd 7f08 1ebc
00000200: a3fa 2c3d f688 d53d 10be bfbc 81bf 97bd
00000210: a4af 48bd 9253 88bc a96f d7bc 305d 433d
00000220: 49ea db3d 38ad 28bb b4be 9bbd 88af 603e
00000230: 53fb 4f3d 622e 193d e6f8 9abd 5ea8 9e3d
00000240: b2f0 27bd c594 bdbc 6980 b5bd 2b39 8d3c
00000250: 78ac 173d 8fdc 43bd a460 9cbd 5f0d c13d
00000260: f79c e73d a9b8 a33d acb3 603d 543f 6dbd
00000270: da0e 37bc 088e e8bd 1e96 c13c 6b11 97bc
00000280: fa2b 133d 026d d4bd 7a54 0b3e 41ec c9bb
00000290: 4161 42bd d1b6 b0bd ac7e 9cba 913d fc3b
000002a0: 623b f23d ed79 3b3c 0eb0 77bd 14d1 913d
000002b0: c1bf 96bd 988d 153c 5501 d23b eadb 25bd
000002c0: 1739 a93d 607f 043d d856 913d e78f 00bc
000002d0: 2fdf b6bd 08c1 823c 503b c5bc 2e9c 33bd
000002e0: 8c1a cebd 7777 46bd 56a8 23bc 78c3 80bd
000002f0: da32 19bc a8f2 ee3d 9880 6cbc 80a7 74bd
00000300: 6fb9 813d 545b 8dbd fc67 c0bb 5d7a 08bc
00000310: 50cc 3b3d d935 acbc 3746 d2bb 3eb0 35bd
00000320: b592 d7bc a63c f9bc 092a 203d a6af b6bd
00000330: 9c95 b23d 9d1a 863d 4a6d 96bc 5307 74bd
00000340: ec78 953d 8f8e 893d c570 ab3d 6b75 823a
00000350: 32dc eb3c dc5e 663d f84f 95bd 1c3c 1e3d
00000360: 8244 163e 3225 7d3b 7b6a 46bd d053 1b3d
00000370: e744 9fbd 9629 fe3d 1340 68bd 4238 f53c
00000380: fa42 2f3d ab7b a43c 4be5 183d 612e 4cbc
00000390: b8bb 773d 3f26 6abd 0924 d93c f19e c7bc
000003a0: 8feb 81bd f61d 65bd 0a1e d3bc ba12 4ebd
000003b0: 4b1c 1d3d 4ee7 dfbb 9124 863c 269d 883d
000003c0: 9bc0 683e 3923 dfbd 7347 1f3d 57ec 8ebd
000003d0: d6c6 a13d e80f b73a 307b a83d 4f26 ceba
000003e0: a11b 7abd d4c7 bebd 5af1 1dbb a4d9 0ebd
000003f0: 43cf a1bd 89bf 26bd 5514 17bd d5f9 953d
