embeddings/actor18/happy_i01_s01_r02_layer5.npy (npy, 3200 bytes, 1 tensors)

array f4 [768]
0	0x3c9c87c9	0.019107716
1	0xbc23e967	-0.010004378
2	0x3da01a37	0.078175
3	0xbd65fa75	-0.056147058
4	0x3c85feac	0.016356789
5	0x3d9fcec3	0.078031085
6	0xbc9d20e7	-0.019180728
7	0xbc9c7356	-0.019097965
8	0x3cc0a0b5	0.023514131
9	0x3d299fa4	0.04141201
10	0x3c9c319d	0.019066626
11	0x3c0375d3	0.008023697
12	0x3c242078	0.010017507
13	0xbd5c5871	-0.05379528
14	0xbd557d65	-0.05212154
15	0x3d421cc3	0.04739071
16	0xbda9ee5f	-0.08297419
17	0xbbd2a22a	-0.006428023
18	0xbc94bd3a	-0.018156637
19	0xbdef7550	-0.116922975
20	0xbc3b3f6b	-0.011428694
21	0xbc7ff3cf	-0.015622093
22	0x3df8e587	0.12153154
23	0x3c4bb81b	0.012434031
24	0x3e5dc6f8	0.21657932
25	0x3d3748fd	0.04474734
26	0xbda96683	-0.08271506
27	0x3c6f14ea	0.014592389
28	0xbd6b8237	-0.05749723
29	0x3d20926b	0.039202135
30	0xbd0443a7	-0.03229108
31	0xbd65e817	-0.05612954
32	0x3c8e871f	0.017398415
33	0x3d416e0e	0.047224097
34	0xbc187a99	-0.009306573
35	0x3d9d9085	0.076935805
36	0xbcce3950	-0.025173813
37	0x3d2e9ddc	0.042631015
38	0xbd231029	-0.039810333
39	0x3d835f76	0.06414692
40	0xbbf193c3	-0.007372351
41	0x3b773656	0.0037721596
42	0x3d668500	0.056279182
43	0xbc86a6cb	-0.016436955
44	0x3d440015	0.04785164
45	0x3d940d4e	0.072291
46	0x3ce53229	0.02797802
47	0xbd0d4273	-0.0344872
48	0x3d84ed7c	0.06490609
49	0xbd3a7003	-0.04551698
50	0x3ce5ab37	0.028035743
51	0xbda7b834	-0.08189431
52	0x3ca84ecc	0.020545386
53	0x3cfddde5	0.030989597
54	0x3d830618	0.06397647
55	0xbd5aaf45	-0.053389806
56	0x3b5b250c	0.003343883
57	0xba8f9358	-0.0010953946
58	0xb955924c	-0.00020367763
59	0x3c841e1b	0.016127637
60	0xbaaed39d	-0.0013338212
61	0x3d81fda4	0.06347206
62	0x3d71e093	0.05905206
63	0xbce7625b	-0.028245142
64	0xb8ea24b7	-0.00011164828
65	0xbd266e57	-0.040632572
66	0x3bdd0ebc	0.0067461412
67	0xbd4f75c9	-0.050649438
68	0x3da88b0c	0.08229646
69	0x3db1719b	0.08664247
70	0x3d0057a4	0.03133358
71	0x3d238b2f	0.039927658
72	0x3ad04197	0.0015888688
73	0x3cc8725c	0.024468593
74	0xbad4b430	-0.0016228016
75	0xbc3f4363	-0.011673781
76	0xbb8813d1	-0.004152753
77	0x3cd53614	0.026026763
78	0x3ccb9357	0.02485053
79	0xbcf5813c	-0.02996885
80	0xbd3d5889	-0.04622701
81	0x3cbb8bc6	0.022893798
82	0xbd93c528	-0.07215339
83	0xbce26059	-0.027633833
84	0x3d3b7523	0.045766007
85	0x3b96f4fd	0.0046068416
86	0xbd9b9f77	-0.07598775
87	0x3d26e43f	0.040745016
88	0x3d0a5e8e	0.03378158
89	0x3c8e3380	0.017358541
90	0xbd8e6d34	-0.069544226
91	0xbd66a9c0	-0.05631423
92	0xb91eded0	-0.00015151058
93	0x3d104f43	0.03523184
94	0x3d1bd987	0.038049247
95	0xbd41b409	-0.047290836
96	0x3d28bd87	0.041196372
97	0x3cebd9f6	0.028790455
98	0x3c8ae235	0.016953567
99	0x3c9f8f90	0.019477636
100	0xbdbe1e5d	-0.09283135
101	0xbe0340c0	-0.12817669
102	0x3dd39191	0.10330499
103	0xbcea103e	-0.028572198
104	0x3c5a2289	0.013313898
105	0xbe4ac044	-0.19799906
106	0xbd6e774f	-0.05821925
107	0xbcc8622a	-0.02446087
108	0xbcd1dc43	-0.025617724
109	0xbd849124	-0.06472996
110	0x3bcf8a12	0.006333598
111	0x3c7dcb45	0.015490358
112	0xbc329f2f	-0.01090221
113	0x3cf7a35a	0.03022926
114	0xbd8954a1	-0.06705595
115	0x3c16acb5	0.00919645
116	0xbe1054f0	-0.14094901
117	0x3bcc45c3	0.006233902
118	0xbbd13fda	-0.0063857855
119	0x3baacef0	0.005212657
120	0x3d36a173	0.044587564
121	0xbd31c0ef	-0.043396886
122	0xbbb53744	-0.00553027
123	0x3cee2785	0.029071579
124	0x3e0eb4f7	0.1393622
125	0x3db90199	0.09033508
126	0xbc44f474	-0.012021173
127	0x3d425602	0.047445305
128	0x3d851560	0.064982176
129	0x3d6c2a30	0.05765742
130	0xbd14c012	-0.036315985
131	0xbd20c7e0	-0.039253116
132	0xbdddf07d	-0.10836885
133	0x3bc80d0f	0.0061050723
134	0xbbc5ec35	-0.006040121
135	0x3ce55a67	0.027997209
136	0xbd66f2f7	-0.056384053
137	0x3c742dda	0.01490351
138	0xbd0066d1	-0.031348053
139	0xbddc9c0f	-0.10771953
140	0xbba0c593	-0.004906365
141	0x3cf73b51	0.030179651
142	0xbd9e12a8	-0.07718402
143	0x3d52f60b	0.051504176
144	0x3d2d8f7a	0.042373158
145	0xbc4c7325	-0.0124786245
146	0xbd03502a	-0.032058872
147	0x3d9c7270	0.07639015
148	0x3d9825f0	0.07429111
149	0xbd3ec9ce	-0.046579175
150	0xbe30dffd	-0.17272945
151	0x3dc8dfb3	0.09808292
152	0x3dafba85	0.08580498
153	0x3de3a96c	0.11116299
154	0x3d49c9b7	0.049264636
155	0xbcaca22e	-0.021073427
156	0xbc23450a	-0.009965191
157	0xbd4b563b	-0.049642783
158	0x3d763a53	0.060114216
159	0xbd638dc9	-0.05555514
160	0x3d82bcd2	0.06383671
161	0xbe3a05f1	-0.18166329
162	0x3d911dcc	0.070857614
163	0xbc107568	-0.008817054
164	0xbbe5efee	-0.0070171272
165	0xbe47b10d	-0.19501133
166	0xbd207199	-0.039170835
167	0xbd4bfdff	-0.049802776
168	0x3da7e6c3	0.08198311
169	0x3d1ec397	0.038760748
170	0xbcf2e6d5	-0.029651085
171	0x3da3522f	0.0797466
172	0xbbfb06f7	-0.0076607424
173	0x3d5899b3	0.052880954
174	0x3d08ea86	0.033426784
175	0xbdaf7794	-0.085677296
176	0xbba2ab5c	-0.0049642753
177	0xbd30b57b	-0.043141823
178	0xbb515efa	-0.003194748
179	0xba0f1961	-0.0005458799
180	0xbcec71a5	-0.028862784
181	0xbc8d12f9	-0.01722096
182	0xbe3c80fa	-0.18408576
183	0xbd733783	-0.059379112
184	0xbe056baa	-0.13029352
185	0x3a7fdc9f	0.0009760353
186	0xbd1704c8	-0.036869794
187	0xbcc1097e	-0.023564097
188	0x3c188fdc	0.0093116425
189	0xbe18a4fd	-0.14906688
190	0x3bc94de2	0.0061433176
191	0xbd360078	-0.04443404
192	0x3d16266e	0.036657743
193	0xbd35b036	-0.0443575
194	0xbe07717a	-0.13226882
195	0xbdb88211	-0.09009183
196	0x3abb1784	0.0014273976
197	0x3dbdd0cc	0.092683405
198	0x3d24bd97	0.04021987
199	0x3e010959	0.12601222
200	0xbd13618b	-0.035981696
201	0xbc8fb25c	-0.017541103
202	0x3c87e69e	0.016589459
203	0x3e505a16	0.20346865
204	0x3d0c53d4	0.034259632
205	0x3c96eb21	0.018422665
206	0xbd8441ed	-0.06457887
207	0xbd795c71	-0.060879175
208	0x3da2c45f	0.07947611
209	0xbd2a5d80	-0.041593075
210	0x3c3964fe	0.011315582
211	0x3d20ae23	0.03922857
212	0x3d51153a	0.051045634
213	0xbd1e5d13	-0.03866298
214	0x3d055d4f	0.03255969
215	0x3d3673dd	0.04454409
216	0x3dfdd389	0.12393863
217	0xbcefe1f1	-0.029282542
218	0x3cac4286	0.021027815
219	0x3d470c38	0.048595637
220	0xbc763164	-0.015026424
221	0x3d98999b	0.07451173
222	0x3c7d7445	0.015469615
223	0xba26cffd	-0.000636339
224	0xbd19bc9e	-0.037533395
225	0x3c0aff96	0.008483788
226	0xbce19c08	-0.027540222
227	0x3c5dccad	0.013537568
228	0x3cf3b2d2	0.029748354
229	0xbd9257dd	-0.07145665
230	0x3d5adef0	0.053435266
231	0x3d184b60	0.03718126
232	0x3be88bb0	0.00709673
233	0xbd19561b	-0.037435632
234	0xbdc5aae1	-0.09651733
235	0xbd1c1d01	-0.038113598
236	0x3da0a835	0.07844583
237	0x3d1cfe75	0.038328607
238	0x3cf09ded	0.02937218
239	0x3d8bb8a3	0.06822326
240	0x3e69dc1e	0.22837874
241	0x3ebe799e	0.37202162
242	0x3c730c0e	0.014834417
243	0xbcf1199a	-0.029431153
244	0x3d13aa8b	0.036051314
245	0xbde01f65	-0.10943488
246	0x3de44f6b	0.1114796
247	0x3d47cd7a	0.048779942
248	0xbd7de67b	-0.06198738
249	0x3e2d0bae	0.16898987
250	0xbd1b4ad6	-0.037913166
251	0xbd662624	-0.056188717
252	0xbdaef946	-0.08543639
253	0xbc54f64e	-0.012998177
254	0xbcf64ee2	-0.030066911
255	0xbca9ccda	-0.020727564
