embeddings/actor22/angry_i02_s01_r02_layer5.npy (npy, 3200 bytes, 1 tensors)

array f4 [768]
0.05642241 0.03462179 0.033656105 0.060178608 -0.0043728244 0.12047804 0.022206135 -0.07130962
0.02156943 0.024653666 0.0047370167 0.0055388524 0.057718754 -0.01499745 -0.055455424 0.011634648
-0.05299296 0.012686112 -0.07087208 -0.023983955 -0.079838045 -0.031863555 -0.23432547 0.07458629
0.099671744 0.07954863 -0.10977715 0.09748481 -0.057373855 -0.04560557 -0.029765902 -0.06603705
0.034030087 0.058647394 0.06426216 0.06636258 0.054892898 0.0032118214 0.023149436 0.10775309
-0.011787539 -0.015485188 0.124296136 -0.0016713738 0.04475308 0.06101853 0.005271503 -0.016940745
0.004076572 0.05327771 -0.0056774076 -0.019072473 0.07884378 -0.14454034 0.011170755 -0.16239731
-0.041220933 -0.022137547 0.012951031 -0.049319014 -0.02613865 0.06891134 -0.0027207476 -0.032254983
0.069939755 0.019222796 -0.031776223 -0.1544979 0.13175334 -0.0055076573 -0.004645793 0.08669619
0.014196995 0.01725237 0.07015703 0.0121764345 -0.027503403 -0.037004672 -0.077707045 -0.04741182
-0.05692319 -0.00069079583 -0.10869755 -0.06371755 -0.100182965 -0.07520509 0.018177016 0.051713407
0.021592783 0.06303762 -0.09460546 -0.015935108 -0.03134743 0.054545093 0.09388284 -0.031951535
-0.15129729 0.06686765 -0.0132714985 0.0026304477 -0.03077818 -0.06806318 0.043809704 -0.015219428
0.009466502 -0.2246614 -0.004526823 -0.047242165 -0.016580382 -0.118584886 0.041269097 0.022116132
0.024064982 0.05798392 -0.04716139 -0.084483355 -0.09082789 0.008154614 0.051930808 -0.0013520524
0.07139126 -0.09270676 -0.03560627 0.0033079898 0.08726562 0.15322013 -0.011187629 -0.004965211
0.09875898 0.037521884 -0.032390993 -0.050782327 -0.0750128 -0.06303241 -0.0008908707 0.11563502
0.088266246 -0.017321443 -0.012026828 0.104180776 0.05996739 -0.0152887 -0.054779354 -0.0014785137
-0.114102 -0.06501135 -0.004535757 0.02685857 0.09977234 -0.023124097 -0.14633629 0.039423585
0.04029744 -0.0950909 0.023310391 -0.07562679 0.020006001 -0.023546798 -0.0035487053 0.0051714927
0.065182045 -0.11083345 0.062328815 -0.047375858 -0.029611595 -0.25915477 -0.015003121 -0.062082853
0.24700794 -0.03248024 -0.043280523 0.10037962 -0.06856536 -0.03741368 0.028034227 0.002631788
0.10322465 0.05022076 0.018511392 -0.05346023 -0.04074338 -0.04132564 -0.065351926 -0.021658063
-0.05622809 0.018381083 -0.042763423 -0.03833408 0.00039029703 -0.116878 0.013187835 -0.037641507
-0.01162516 -0.09287664 -0.096824266 0.030991111 -0.047012936 -0.005876628 0.009930964 0.035738852
-0.025677385 0.02928239 0.06980639 -0.0045690713 0.121074595 0.098749705 -0.032576226 -0.07796784
-0.004993735 0.034430977 0.115456074 0.05242069 0.038749024 0.013661617 -0.028556528 0.09877264
0.06889573 -0.10483701 0.002982519 0.036772057 -0.037959263 0.112330616 0.04427385 0.016470522
-0.05074031 0.02267193 0.014936711 0.043370605 -0.037721317 -0.11945886 0.0029645497 0.029596724
-0.05166152 0.030091159 0.013676266 -0.091005504 0.04573645 0.008554826 0.02017942 -0.004127893
0.108289756 0.18280168 0.013930259 -0.06835111 0.014231043 -0.022182971 0.0836764 0.02641712
-0.15137844 0.1287227 -0.004439574 -0.04837553 -0.08373941 -0.0209608 0.05848225 0.01856971
00000000: 2f1b 673d 94cf 0d3d fcda 093d d87d 763d
00000010: e949 8fbb 31bd f63d a4e9 b53c c70a 92bd
00000020: 60b2 b03c 7cf6 c93c fa38 9b3b 437f b53b
00000030: 806a 6c3d ddb7 75bc 3a25 63bd 409f 3e3c
00000040: 250f 59bd 69d9 4f3c 6225 91bd 007a c4bc
00000050: 2182 a3bd 5c83 02bd 04f3 6fbe b2c0 983d
00000060: b320 cc3d 64ea a23d d8d2 e0bd 1ea6 c73d
00000070: d900 6bbd e8cc 3abd 9fd7 f3bc 6f3e 87bd
00000080: 2263 0b3d 4038 703d e19b 833d 1be9 873d
00000090: 60d7 603d 6c7d 523b e3a3 bd3c a7ad dc3d
000000a0: 8620 41bc 96b5 7dbc f98e fe3d 0012 dbba
000000b0: 014f 373d 91ee 793d 92bc ac3b 51c7 8abc
000000c0: c494 853b ba39 5a3d 8c09 babb e03d 9cbc
000000d0: d978 a13d 6202 14be 8b05 373c 7b4b 26be
000000e0: 48d7 28bd cd59 b5bc 9030 543c bc02 4abd
000000f0: b920 d6bc 6321 8d3d 924e 32bb cd1d 04bd
00000100: 933c 8f3d 2079 9d3c c927 02bd b334 1ebe
00000110: 59ea 063e 9479 b4bb bc3b 98bb c68d b13d
00000120: 839a 683c d854 8d3c 7dae 8f3d ab7f 473c
00000130: d14e e1bc 3692 17bd df24 9fbd e632 42bd
00000140: 4a28 69bd 8616 35ba d29c debd 597e 82bd
00000150: ba2c cdbd 2005 9abd f7e7 943c 70d1 533d
00000160: 59e3 b03c de19 813d 82c0 c1bd 588a 82bc
00000170: 2a66 00bd ad6a 5f3d a545 c03d 9ddf 02bd
00000180: aded 1abe e8f1 883d b370 59bc 9763 2c3b
00000190: 8622 fcbc b564 8bbd ce71 333d e85a 79bc
000001a0: 6319 1b3c a30d 66be be55 94bb 0081 41bd
000001b0: 95d3 87bc a2dc f2bd c909 293d e42c b53c
000001c0: ed23 c53c 8c80 6d3d 4d2c 41bd 9c05 adbd
000001d0: f903 babd ee9a 053c 66b5 543d 5a37 b1ba
000001e0: 9535 923d 0bdd bdbd e1d7 11bd dcca 583b
000001f0: 51b8 b23d bde5 1c3e 514c 37bc 35b3 a2bb
00000200: 2642 ca3d 8cb0 193d 6bac 04bd 2101 50bd
00000210: 50a0 99bd 2317 81bd 5289 69ba 0ed2 ec3d
00000220: efc4 b43d b3e5 8dbc 2c0c 45bc bb5c d53d
00000230: 5ea0 753d 757d 7abc 5160 60bd b0ca c1ba
00000240: 4fae e9bd ac24 85bd b0a0 94bb 8106 dc3c
00000250: 7155 cc3d bf6e bdbc 2ed9 15be a07a 213d
00000260: ee0e 253d 05bf c2bd 6ff5 be3c 38e2 9abd
00000270: a0e3 a33c 37e5 c0bc 6591 68bb a075 a93b
00000280: 2a7e 853d a6fc e2bd 804c 7f3d 300d 42bd
00000290: 0494 f2bc efaf 84be a7cf 75bc 974a 7ebd
000002a0: a6ef 7c3e 000a 05bd eb46 31bd d593 cd3d
000002b0: ff6b 8cbd 163f 19bd 09a8 e53c 137a 2c3b
000002c0: 7267 d33d 49b4 4d3d 34a5 973c 1df9 5abd
000002d0: 88e2 26bd 1345 29bd 3bd7 85bd 406c b1bc
000002e0: 6d4f 66bd ed93 963c b328 2fbd 3204 1dbd
000002f0: c8a0 cc39 bc5d efbd ca11 583c fb2d 1abd
00000300: 7577 3ebc 1c36 bebd cd4b c6bd 12e1 fd3c
00000310: a390 40bd bb90 c0bb 7bb5 223c e762 123d
00000320: 6159 d2bc 9fe1 ef3c a7f6 8e3d 26b8 95bb
00000330: f5f5 f73d 493d ca3d a66e 05bd 9aad 9fbd
00000340: 7ca2 a3bb 7f07 0d3d 3c74 ec3d 14b7 563d
00000350: 4cb7 1e3d fad4 5f3c 61ef e9bc 4f49 ca3d
00000360: 3419 8d3d c9b4 d6bd 5e76 433b 4c9e 163d
00000370: 2c7b 1bbd 980d e63d 7f58 353d 30ed 863c
00000380: 12d5 4fbd 7cba b93c 1bb9 743c 60a5 313d
00000390: ab81 1abd d9a6 f4bd e448 423b d474 f23c
000003a0: 089b 53bd bc81 f63c 6b12 603c 1861 babd
000003b0: 2556 3b3d 8a29 0c3c 504f a53c 4743 87bb
000003c0: 05c7 dd3d 5d30 3b3e be3b 643c abfb 8bbd
000003d0: 5229 693c 10b9 b5bc 885e ab3d b768 d83c
000003e0: f302 1bbe e2cf 033e d979 91bb 6b25 46bd
000003f0: 917f abbd fcb5 abbc 158b 6f3d 811f 983c
