embeddings/actor09/happy_i01_s01_r02_layer5.npy (npy, 3200 bytes, 1 tensors)

array f4 [768]
00000000: cc1c e43c f9ce ccbc 0098 373d 01ce 553d
00000010: 821e 35bd 6953 c13d 6ecc 03bd 2a33 afbc
00000020: 5a97 093d 3c3f 2fbd 2143 0b3c b18a 8b3d
00000030: 6912 7b3b 05b3 30bd 5c61 c7bd 45bc dfbc
00000040: 6240 af38 e26a 043d b875 6339 4743 40bd
00000050: f551 e9bc 68b3 68bd 95e5 43bf 5367 833d
00000060: b7f6 d7bd b4ef f13c e1ed 923d 604c 4a3d
00000070: 8587 b1bc bbe5 44bd 7fd5 a6bd 88d9 0bbd
00000080: 37c2 f83c 98bb 033d 79ec 4dbc 69c0 713e
00000090: 1de1 753d c1f8 7a3c b231 b93c 1d5a b23d
000000a0: 57f2 87bb 1419 9dbc e84c 933d 04cf 7bbd
000000b0: b6c7 3abd f601 823d fcd2 febc 91c6 6ebd
000000c0: 275a 873d e663 37bc 0f35 01bc 6954 8ebd
000000d0: 1d61 bf3d 08d1 67bd c174 833c 945d 1ebe
000000e0: 361b 62bc 755f 813d 98ac 16bd bd80 c53c
000000f0: f658 453d e838 983d dfe9 8e3d 0bec 17bd
00000100: b521 843d dd21 873d 5997 57bc 6618 89bd
00000110: e11a fe3d 6658 6e3d 92ba 11bd f4e1 1b3d
00000120: f03e cb3c f0f2 5eba de93 89bc aa35 c9bc
00000130: ca2a 433c 99d4 ab3c b019 18bc 4df0 cfbc
00000140: fcae 94bc 47de 9fba e9b9 93bd cde4 c9bc
00000150: 9452 3dbd 8f81 1f3b 0b05 b43c 0ad1 b53c
00000160: 2996 70bc 7cbc 173d 6834 5cbd 2fcf 53bc
00000170: 6bfe 043c 2d48 673c 92b1 3e3b 3c1e 47bd
00000180: 8050 b4be 3d8e 843c 477f 2b3d 06a3 ddbc
00000190: 60a9 7bbd 9a49 c9bd f170 9f3d e387 40bb
000001a0: 4ea0 963d 192f 92be e1bb 8b3c de5d 2cbc
000001b0: ab52 053b 6ed2 c6bd fa27 5a3c cb10 7b3d
000001c0: f70c 323d b27d 353d 69ca b5bd 5e64 fcbc
000001d0: 2f7e a5bd 577b 1cbc 8da3 723d 444d ea3c
000001e0: 334b 313d 66a9 64bd 8dfe 4c3c c5f4 d8bc
000001f0: 9b3c 8b3d 53c6 c73d 66dc b63b 5315 aebc
00000200: 787a 2b3d 74e4 e43d 9889 3fbd cd30 133d
00000210: 01d0 04be b8a5 37bc ba3e 7b3d 0327 9f3d
00000220: 3e9d 98bb ecbc 4abd 73e7 1fbd 4997 da3a
00000230: 0513 113b 28c9 093b aa23 9cbd b2fe a0bd
00000240: a397 debd 805d f3bb c073 c63c 440e ed3c
00000250: db97 043d 958c 47bc e8a7 acbc 5c80 323d
00000260: 7fe4 e33d 90aa fb3e d50c 4b3d 8e2e 18bd
00000270: 2adb 933c b4ad b2bd a562 72bc cc63 5fbd
00000280: 1c50 9f3d 4a6f 35be d610 723d 9d73 3dbd
00000290: b45a 5ebd bc80 63be 65d9 cabd 3d56 efbb
000002a0: 99ca d33d 4569 9dbb d0d8 abbd aaf6 093e
000002b0: 943a 28bd 6f37 f4bb 9808 0abd ec96 84bd
000002c0: 54dd b23d 03e3 e8bb 2ac0 d13c c3af b5bb
000002d0: e83d e3bc 28b4 763c 15b1 d3bd bf22 d8bd
000002e0: 84ed 23be 9296 cdbc 32f9 543c 15d5 71bd
000002f0: 69f4 47bd 1c9c 07be 4902 8dbc 668e d9bd
00000300: 1e7b 00bc 3722 5bbd 0cd1 d6bd 402e 41bd
00000310: 0a96 763d 82f5 fabb 463f 46bc b5e3 c03d
00000320: f343 e3bc 2955 7bbc 57e7 633d 7d53 b9be
00000330: 3457 f9bb 5454 dc3c fe52 9cbb 8f68 a9bd
00000340: ce78 193d c3dc dabd 351a c13c 3c71 a03b
00000350: 13de 303d df83 343d 876f 9dbc af00 313d
00000360: 5275 c13c 7c92 28bd 02c8 7c3b a53e c83d
00000370: 7990 443a 3a62 d13d fb1b b93c 800d fcbc
00000380: 784e 42bb b881 cfbc 9131 4a3c f9e6 993c
00000390: c7a9 823c 8a53 71bd f581 bf3d 12c4 16bd
000003a0: 3a37 0f3c 7f38 1a3d 148c 833d 7b33 ecbd
000003b0: 1af8 b33c b774 ff3b fb05 83bb 2ce6 0e3d
000003c0: 580c 713e 8b89 19be cf99 133c 5a41 92bd
000003d0: 427e 883b 6ce4 01bc a2bb cd3d 3db0 31bc
000003e0: 7eef bcbd 473b dcbd fe36 2dbc 4646 94bc
000003f0: 9e5e b8bd 52ba 3cbd 06b2 a93c 41dc 9bbc
0.027845763 -0.025001036 0.044822693 0.052198414 -0.044218548 0.09439737 -0.03217738 -0.021386702
0.033591606 -0.042784914 0.0084998915 0.06813563 0.0038310534 -0.043139476 -0.09735367 -0.027311454
8.3566425e-05 0.032328494 0.0002169226 -0.04693916 -0.028481463 -0.05681172 -0.7652219 0.06416192
-0.10545104 0.029533245 0.07174278 0.049389243 -0.021671066 -0.04807065 -0.0814619 -0.034143
0.030366046 0.032161325 -0.0125685865 0.23608555 0.060029138 0.015318097 0.022606704 0.08708594
-0.004148762 -0.019176997 0.07192403 -0.061476722 -0.045600615 0.0634803 -0.031106465 -0.058294836
0.06608992 -0.011193251 -0.007886185 -0.06949694 0.09344695 -0.056595832 0.016046884 -0.15465385
-0.013800433 0.06317035 -0.036785692 0.024109239 0.048180543 0.07432729 0.06978201 -0.037090342
0.064517416 0.06598256 -0.013158643 -0.06694107 0.124074705 0.058189772 -0.035578318 0.038057283
0.024810284 -0.00085048284 -0.016794141 -0.024561722 0.011912057 0.020975398 -0.009283468 -0.025383139
-0.018149845 -0.0012196981 -0.07213194 -0.024645234 -0.04622133 0.0024338698 0.02197506 0.022194404
-0.0146842385 0.037044987 -0.053760916 -0.012927814 0.008117299 0.014116329 0.002909754 -0.048612818
-0.35217667 0.016181106 0.041869428 -0.027055275 -0.061440825 -0.098284915 0.07785214 -0.002937787
0.073547944 -0.28551558 0.017057361 -0.010520427 0.0020343463 -0.09708105 0.013315195 0.061295312
0.043469395 0.044309326 -0.08876497 -0.030809578 -0.08080708 -0.009550891 0.059238005 0.028601296
0.043284606 -0.055825613 0.0125118615 -0.026483903 0.06798669 0.09754624 0.0055804728 -0.021250403
0.041864842 0.111763865 -0.04676208 0.035935212 -0.12969972 -0.011208944 0.061339118 0.07771113
-0.0046574166 -0.049496576 -0.039039087 0.0016677167 0.002213658 0.002102444 -0.0762399 -0.07861079
-0.10868766 -0.0074269176 0.024225116 0.028937466 0.032371383 -0.012179513 -0.021076158 0.043579444
0.111275665 0.49153566 0.049572784 -0.037153773 0.018048842 -0.087245375 -0.0147940265 -0.054538533
0.077789515 -0.17718235 0.059098087 -0.046252836 -0.05428572 -0.22217077 -0.09904746 -0.0073039816
0.10341377 -0.004803809 -0.08390963 0.13473001 -0.04107149 -0.0074528973 -0.033699602 -0.064740986
0.08733621 -0.00710714 0.025604326 -0.005544634 -0.02773948 0.015057601 -0.1033651 -0.10553502
-0.16008574 -0.025096212 0.012998866 -0.0590411 -0.048817072 -0.13243145 -0.017213004 -0.106228635
-0.007841853 -0.053499427 -0.10489091 -0.047163248 0.060201682 -0.0076586613 -0.0121000465 0.09418432
-0.027742362 -0.015340128 0.055640545 -0.3619651 -0.0076092724 0.02689568 -0.0047706356 -0.08271896
0.037468724 -0.10686638 0.023572067 0.004896311 0.043180536 0.044071075 -0.01921822 0.043213543
0.023615513 -0.041155323 0.0038571362 0.097775735 0.0007498335 0.10223813 0.02259635 -0.030768156
-0.0029648822 -0.02533041 0.012340919 0.018786894 0.015950097 -0.05891756 0.09350959 -0.03680808
0.008741194 0.037651535 0.06423202 -0.115332566 0.02196889 0.007795896 -0.0039985157 0.034887478
0.23539865 -0.14993875 0.009008839 -0.07141371 0.0041654417 -0.007927995 0.10045554 -0.010845241
-0.09225367 -0.10753494 -0.010572193 -0.018099915 -0.09002422 -0.046076126 0.020714771 -0.019025924
