embeddings/actor20/angry_i01_s01_r01_layer5.npy (npy, 3200 bytes, 1 tensors)

array f4 [768]
0	0x3d2d418c	0.04229884
1	0x3d147060	0.03623998
2	0xbc35667d	-0.011071798
3	0xbbad53a0	-0.00528951
4	0xbcdf9193	-0.027291095
5	0x3e0cec64	0.13762051
6	0xbbdffb00	-0.0068353415
7	0xbe289efc	-0.16466898
8	0xbcc367da	-0.023853231
9	0xbbf1b258	-0.0073759966
10	0x3d7b40fc	0.06134127
11	0x3cbac418	0.022798583
12	0x3ba80653	0.005127707
13	0xbd88d169	-0.06680567
14	0xbd82ec58	-0.06392735
15	0xbccf5adf	-0.025311885
16	0xbd8f1360	-0.06986117
17	0x3b3699de	0.0027862708
18	0x3cda0efd	0.026618475
19	0xbdee5ce9	-0.11638815
20	0x3ce810a7	0.028328253
21	0xbdce3d52	-0.1007029
22	0xbea7f687	-0.32805273
23	0xbcf82402	-0.030290607
24	0x3abf6f72	0.0014605357
25	0x3d0caa41	0.034342054
26	0xbc79b394	-0.015240569
27	0xbc705239	-0.014668041
28	0xbd956330	-0.07294309
29	0xbb96a5a8	-0.0045973845
30	0x3dc9ef75	0.09860126
31	0xbcbcce96	-0.023047727
32	0xbbbe969c	-0.005816294
33	0x3da56cf1	0.080774195
34	0x3d20093a	0.0390713
35	0x3d67bb6e	0.05657523
36	0x3d5451f2	0.05183596
37	0x3d822595	0.063548245
38	0x3cb93f1b	0.022613099
39	0x3d700c14	0.05860527
40	0xbd501cde	-0.05080878
41	0xbc27eba0	-0.0102490485
42	0x3db072fe	0.08615683
43	0xbcabe1f9	-0.020981776
44	0xbc65178e	-0.013982667
45	0x3d806e40	0.062710285
46	0xbcb15c1f	-0.021650372
47	0xbdb586ac	-0.08863577
48	0xbd6b288a	-0.057411708
49	0xbd79173f	-0.060813185
50	0x3cb859c8	0.022503749
51	0xbd4f97fc	-0.050682053
52	0xbdc0ae24	-0.09408215
53	0xbdd1a29c	-0.102360934
54	0x3dcbb054	0.09945741
55	0xbe162863	-0.14663844
56	0x3ca607f4	0.020267464
57	0x3d274e5a	0.040846206
58	0x3d5ade03	0.053434383
59	0x3d08a453	0.033359837
60	0x3d468f80	0.048476696
61	0x3ce07fd5	0.027404705
62	0x3cb9e2ba	0.02269112
63	0x3c7ac098	0.015304707
64	0x3d551e31	0.052030746
65	0x3a1ba566	0.0005937427
66	0xbd612fe2	-0.054977305
67	0xbd6aef7e	-0.057357304
68	0x3ce42247	0.027848376
69	0xbd118c7b	-0.035534363
70	0xbda46733	-0.08027496
71	0x3d319653	0.04335625
72	0x3d5913d9	0.052997444
73	0x3d8f4653	0.06995835
74	0x3cff4c92	0.031164441
75	0x3cbb8629	0.022891121
76	0x3c55abde	0.013041465
77	0xbc99b9b9	-0.018765317
78	0xbd8f5095	-0.06997792
79	0x3cea6a92	0.02861527
80	0x3d4f2c14	0.050579146
81	0x3ce104cd	0.02746811
82	0xbdbf49a4	-0.09340218
83	0xbd691e5a	-0.05691371
84	0xbdaf5164	-0.08560446
85	0xbd76f58d	-0.06029277
86	0x3c17f1ec	0.009273987
87	0x3d3f0e89	0.04664472
88	0xbb782eb3	-0.0037869632
89	0x3cbda2a7	0.023148848
90	0xbd9502ac	-0.072759
91	0x3d9cacdb	0.07650157
92	0xbd4de6fa	-0.050269105
93	0x3c8b7294	0.017022409
94	0x3e28e397	0.16493069
95	0xbcbf2561	-0.023333253
96	0xbe06d08d	-0.13165493
97	0x3d53be5c	0.051695213
98	0x3cfb6ce5	0.030691573
99	0x3c91647a	0.017748106
100	0xbd297b5b	-0.041377407
101	0xbd0c5512	-0.034260817
102	0x3d5245d6	0.051336132
103	0x3bfd5c7b	0.007731972
104	0x3de6299c	0.11238405
105	0xbe95c959	-0.2925518
106	0xbd53c8b6	-0.051705085
107	0xbd1db949	-0.03850678
108	0x3d26f318	0.040759176
109	0xbcc2b960	-0.023770034
110	0x3d4ceff7	0.050033536
111	0x3df10033	0.11767616
112	0x3caadef1	0.02085826
113	0x3d4c69f8	0.049905747
114	0xbe0c85df	-0.13722943
115	0xbd429ffb	-0.04751585
116	0xbdc1c665	-0.09461669
117	0x3d195530	0.037434757
118	0xbc737bf8	-0.014861099
119	0x3c824645	0.015902648
120	0x3dbc5dc2	0.091975704
121	0xbd33b899	-0.043877218
122	0xbc3af63c	-0.011411246
123	0xbba2623a	-0.004955557
124	0x3da0ad8e	0.07845603
125	0x3d47db91	0.04879338
126	0x3c1a8e7f	0.009433388
127	0x3dc0f68b	0.09422024
128	0x3d906ea9	0.07052357
129	0x3d939ba1	0.07207418
130	0xbd01ca3d	-0.03168701
131	0xbc8e5a9c	-0.01737719
132	0xbde7462e	-0.112926826
133	0x3cf63ca9	0.030058222
134	0xbdb6aa26	-0.08919172
135	0x3df8f9e4	0.12157038
136	0x3d0b4c7f	0.0340085
137	0xbd246d8a	-0.040143527
138	0x3cafe83e	0.021473046
139	0x3daa5555	0.08317057
140	0x3d53072d	0.051520515
141	0x3d1da10b	0.03848366
142	0xbda3c4e1	-0.07996536
143	0x3c46b29b	0.012127544
144	0xbe1f7207	-0.15570842
145	0x3ccc91ed	0.024971927
146	0x3da3c9e9	0.07997496
147	0x3cb4cb23	0.02206952
148	0x3d1caa2a	0.03824822
149	0x3d256904	0.040383354
150	0xbdc54fc4	-0.09634355
151	0x3d6bf8fb	0.057610493
152	0x3db558f1	0.08854855
153	0x3ee1131e	0.43959898
154	0x3d123e23	0.03570379
155	0x3c18ca2b	0.009325544
156	0xbd7aff04	-0.061278358
157	0xbd067c19	-0.032833192
158	0xbd12f22f	-0.035875496
159	0xbdc2cf15	-0.09512154
160	0x3dbd5842	0.092453495
161	0xbe37882c	-0.17923039
162	0xbca61dcf	-0.020277886
163	0xbc063ac4	-0.008192722
164	0x3a8ec5f9	0.0010892741
165	0xbe358403	-0.1772614
166	0xbce8f972	-0.028439257
167	0xbd89f600	-0.06736374
168	0x3e1e628a	0.15467277
169	0xbc6d5fc1	-0.014488162
170	0xbd548aa1	-0.05189002
171	0x3ca8711a	0.020561744
172	0xbd35a88c	-0.044350192
173	0xbd28fa27	-0.04125419
174	0x3d26815c	0.04065071
175	0xbe0b576a	-0.13607565
176	0xbd11c915	-0.035592157
177	0xbcd75bea	-0.026288945
178	0xbd7bf4ef	-0.061512884
179	0x3d1a9cbe	0.037747137
180	0xbceb09da	-0.028691221
181	0x3be79393	0.0070671528
182	0xbe08c3dc	-0.13355964
183	0x3b60ffdb	0.003433219
184	0xbdd51abc	-0.1040549
185	0xbc96a74a	-0.018390317
186	0xbd3a1c3d	-0.045437086
187	0x3c8fc586	0.017550241
188	0xbd769fbc	-0.06021093
189	0xbdd43d44	-0.10363248
190	0xbc56508b	-0.013080726
191	0xbddbcb57	-0.10732143
192	0xbd748a9d	-0.059702504
193	0xbe1f388c	-0.15548915
194	0xbda86b31	-0.0822357
195	0xbd8203ca	-0.06348379
196	0x3c250903	0.010072949
197	0x3db8ccd4	0.09023443
198	0xbc5cb489	-0.013470777
199	0x3de7c235	0.11316339
200	0xbcde3feb	-0.027130088
201	0x3d6563b2	0.05600328
202	0x3de4d26a	0.11172946
203	0x3c8142e9	0.015778976
204	0x3db116a1	0.08646894
205	0x3dc712cc	0.09720382
206	0xbca0cbfd	-0.01962852
207	0xbe05d1d5	-0.13068326
208	0x3d32b48a	0.043629207
209	0xbdfccca0	-0.123437166
210	0x3d70f589	0.05882791
211	0xbb8e5e63	-0.004344748
212	0xbc48764e	-0.012235237
213	0xbc18c96e	-0.009325368
214	0xbab82ef6	-0.0014052081
215	0x3bfba729	0.007679839
216	0x3dab7773	0.083723925
217	0x3ccf0801	0.025272371
218	0x3caec3a4	0.021333523
219	0x3d110fc5	0.03541543
220	0xbd555236	-0.052080356
221	0x3d95be6e	0.07311712
222	0x3c968743	0.018375045
223	0xbcbeb36d	-0.023278916
224	0x3d535e15	0.051603395
225	0xba9d7452	-0.0012012816
226	0xbcd2038f	-0.025636462
227	0xbd02c5f1	-0.031927053
228	0x3da7426f	0.08166968
229	0xbdc7c1fd	-0.09753797
230	0x3d09809c	0.033569917
231	0x3cbc545e	0.022989448
232	0x3d5cb139	0.05387995
233	0xbc90e5e2	-0.017687742
234	0xbcb6261e	-0.022234973
235	0xbd471a83	-0.048609268
236	0x3d6fd64f	0.05855399
237	0x3d427904	0.04747869
238	0x3c7363b9	0.014855319
239	0x3df7b60e	0.12095271
240	0x3da7c0f1	0.081910975
241	0xbe0881b5	-0.1333073
242	0xbb027492	-0.0019905907
243	0xbda8b6a3	-0.0823796
244	0x3d571af2	0.05251593
245	0x3d0c4dc5	0.034253854
246	0x3d2d7efb	0.042357426
247	0xbd5c7299	-0.053820226
248	0xbd535401	-0.051593784
249	0x3e9ddafb	0.3083113
250	0xbd45a34b	-0.04825143
251	0xbd95bae2	-0.07311036
252	0xbd251b20	-0.04030907
253	0xbcfebb4a	-0.031095166
254	0xbcd2b828	-0.025722578
255	0xbca4bd30	-0.020109743
