embeddings/actor15/angry_i01_s02_r02_layer5.npy (npy, 3200 bytes, 1 tensors)

array f4 [768]
000000 a3 75 c2 3d 46 ad 9a 3d cf 4b 66 3d f5 6d 41 3d
       0.09495094 0.075525805 0.05622464 0.047224004
000010 3b de 11 be b5 1b 19 3d cd 95 6e 3d 69 29 69 bd
       -0.1424493 0.03737994 0.05824833 -0.056924257
000020 cd 95 60 3d 96 04 b1 3d ff 5d 45 bd cc 98 3f 3d
       0.05483036 0.08643453 -0.048185345 0.046776578
000030 a1 e2 b7 3d d3 ad f0 3c 2e c5 74 bd 83 91 be 3c
       0.08978773 0.02937976 -0.059758358 0.023262745
000040 27 6f 21 bd 24 8e 88 bc 45 99 16 bc c0 bc 94 bd
       -0.039412644 -0.01666934 -0.009191816 -0.07262564
000050 22 b2 a1 bc 1e 1d 32 3d c0 fa fd bd dc 8e f6 3c
       -0.01973826 0.0434848 -0.124013424 0.030097418
000060 21 4c 1b 3e c3 dd e6 3c 01 75 49 bd 98 b8 a9 3d
       0.1516576 0.028181916 -0.04918385 0.082871616
000070 5b e9 88 bd d9 e6 03 be 3d 34 30 3b 82 42 cc bd
       -0.06685134 -0.1288103 0.0026886605 -0.09973623
000080 39 e9 47 3d 99 2e 98 3c 05 f3 e4 bc b8 12 00 3e
       0.048806403 0.018576907 -0.027947912 0.1250714
000090 e5 f2 b0 3b 7f e1 48 3c 52 8d d6 bc 32 c3 10 3e
       0.005400049 0.012260794 -0.026190434 0.14136961
0000a0 61 06 96 bc 9b 4b 8d bd 86 24 a8 3d 89 10 50 bd
       -0.018313589 -0.06899186 0.08210091 -0.05079702
0000b0 c1 61 69 ba 77 7a a8 3d 42 2a 90 bd 62 3d ce 3b
       -0.0008902811 0.08226483 -0.0703931 0.0062939385
0000c0 2f c6 95 bc 80 46 95 3d 05 90 77 bd 84 96 74 bd
       -0.018282978 0.072888374 -0.060440082 -0.059713855
0000d0 f4 53 6d bd 3b 8b 31 3b 47 c0 81 bd 5a 78 39 be
       -0.057941392 0.0027091044 -0.06335502 -0.18112317
0000e0 05 69 fa bb 7f 29 27 3d 5f 6c 12 3d 8e 9f e8 bc
       -0.007641914 0.040811058 0.035747882 -0.028396394
0000f0 bb ef ce 3c 3b 29 0e bc bc 3f 73 bc a2 79 9b bb
       0.025260797 -0.008676822 -0.014846738 -0.0047447244
000100 dd 3e c8 3d 04 5f 54 3d 0e 4c 28 3b 15 1f 0c be
       0.09777615 0.051848426 0.0025680098 -0.13683732
000110 3e 3b 3e bc a0 95 18 bd b2 48 50 bd 89 c7 64 3d
       -0.011610804 -0.03725207 -0.050850578 0.055854354
000120 da e3 1b bd 06 1f 4c 3b b5 4b 36 3d 5c a7 82 3c
       -0.038059093 0.003114642 0.044505794 0.015948944
000130 f9 da 33 3d 3c fe b9 bb 13 33 72 bc de de 2e bc
       0.04391 -0.005676059 -0.014782685 -0.010673253
000140 ab 0b c1 bc 94 4c 7d bd e0 be a9 bd fb dd bb 3b
       -0.023565134 -0.06184061 -0.0828836 0.0057332492
000150 19 25 94 bd 70 14 45 bd 77 2b 76 3c 80 30 2a 3d
       -0.07233638 -0.048115194 0.015025011 0.04155016
000160 44 47 16 39 8f 75 2d 3c 6d de a3 bd dc 89 96 3b
       0.00014331663 0.01058711 -0.08001409 0.004594071
000170 f5 7a 6a 3c a0 e8 40 3c cf 05 60 3d e0 b1 04 bd
       0.014311542 0.011774212 0.05469304 -0.032396197
000180 ee f5 ec bd 8c f8 85 3b 6f f1 d0 39 38 03 a6 3b
       -0.11570345 0.004088467 0.00039852734 0.0050663017
000190 00 12 12 bd 13 b2 09 be d7 79 87 3b 85 63 4f 3d
       -0.035661697 -0.13446836 0.0041343975 0.05063202
0001a0 40 6e 75 3c 27 ee 66 be 31 8c 73 bd 53 49 3c 3c
       0.014979899 -0.22551785 -0.05945987 0.011492091
0001b0 df e8 87 3d 18 12 d5 bc 5f ad 50 3d a5 7f 19 3b
       0.066362135 -0.026009604 0.05094659 0.002342203
0001c0 02 49 14 3d 23 7a 78 3d f7 a4 0d bd 65 e8 93 3b
       0.03620244 0.060663354 -0.03458115 0.0045137876
0001d0 e7 5f a5 bd 1e 60 65 3c aa e0 ad 3d bc 00 8a 3d
       -0.080749325 0.013999967 0.08490117 0.06738421
0001e0 f8 1a 0e 3c 5f 7e 96 bd 12 f5 41 bc 96 07 bb bd
       0.008673422 -0.07348322 -0.0118382145 -0.09132306
0001f0 c0 cb 05 3e 5d e2 cf 3d c5 b1 7e bd 95 fb f5 bc
       0.13066006 0.10150597 -0.062181253 -0.03002719
000200 34 dd b4 3d 6d bd bd 3d 2f 1b 91 bc 4f 5c 37 bd
       0.08831254 0.09264646 -0.017713157 -0.044765767
000210 64 3d a9 bd 9b 1f 75 bd cc cc ac bd bd 2d 3b 3e
       -0.082636625 -0.059844594 -0.084374994 0.18279167
000220 8a d0 52 3d ba 51 56 bd 2d 87 31 3d 27 db d9 3d
       0.05146841 -0.052324034 0.043341804 0.10637503
000230 b7 8a a7 3d a6 11 1a bd 18 b3 01 be 8f b4 e4 3d
       0.08180755 -0.037614487 -0.12665975 0.11167251
000240 1b fb 02 be 7d 29 84 bc 34 a6 9c bd 29 9a 7c 3d
       -0.12791102 -0.016133064 -0.07648888 0.061670456
000250 61 d4 9c 3b 0d 1e 28 bc 93 7b 70 bd 20 af 30 bc
       0.0047860597 -0.010261071 -0.0587116 -0.010783941
000260 72 ee 83 3d 0c da 42 3e 64 27 3d bc 27 c8 50 bc
       0.06441964 0.19028491 -0.011545036 -0.012743033
000270 9b f5 b6 bc 74 a7 c9 bc 04 6b 01 bd e9 fd 61 bd
       -0.02233391 -0.02461598 -0.0315962 -0.05517379
000280 de f6 07 3d 77 2a f4 bd 95 0d cf bc 30 bc 95 bd
       0.033194415 -0.11922162 -0.025275031 -0.073112845
000290 4a 44 4a bd 45 59 16 be 10 af 17 bc 70 61 e2 bc
       -0.04938153 -0.14682491 -0.009258047 -0.027634352
0002a0 c2 35 c7 3d 54 f8 61 bd 77 96 60 bd 4f 5a b3 3d
       0.0972705 -0.055168465 -0.054830994 0.08757459
0002b0 86 83 85 bd 87 5d 87 3c 2e 15 ca bb 70 62 79 bc
       -0.06519227 0.01652409 -0.0061670756 -0.015221223
0002c0 f4 e6 e1 3d 05 17 05 3c 43 84 12 3b f2 c6 b1 bc
       0.11030379 0.008123164 0.0022356666 -0.02170131
0002d0 62 9d 43 bc 52 93 11 bd 9e 80 10 bd 7f e5 c5 bd
       -0.011939378 -0.035540886 -0.03527891 -0.096629135
0002e0 7b d9 d9 bd d6 be 37 bc a8 29 c7 3c 21 5a b5 bc
       -0.10637184 -0.011214932 0.024311855 -0.022137703
0002f0 82 ca fb bc a3 c6 a7 bd 4e 66 de bc 67 4b 8b bd
       -0.030736212 -0.08192184 -0.027148392 -0.06801491
000300 e4 49 62 3c 87 89 b1 bd 6b 58 13 bc 48 51 5f bd
       0.013811562 -0.086688094 -0.008993248 -0.054520875
000310 ad 3c 79 ba ae 1c 48 bb 69 e7 14 3d 07 c5 31 3e
       -0.00095076376 -0.0030534673 0.036353502 0.17360316
000320 4c da 17 3d 73 7f c7 bb ff e3 86 3d d4 cf 1b be
       0.03707342 -0.006088191 0.065864556 -0.15215999
000330 db 5f 10 3e 43 56 52 3e c2 a9 c2 3c ef e4 f5 bb
       0.14099066 0.20540719 0.023762587 -0.0075040977
000340 93 f0 0e 3d b8 e6 73 bd a3 52 61 3b db 99 a3 3c
       0.0348974 -0.059546202 0.003438153 0.019970825
000350 1f 9b 15 3d 03 33 6e bc a9 e8 bb bd 6f e0 5a 3d
       0.036524888 -0.014538529 -0.09175236 0.053436693
000360 54 6e ea 3d f7 64 d9 3b 07 6d 21 3d 98 49 87 bc
       0.11446825 0.0066343504 0.039410617 -0.016514584
000370 43 99 3a bd 48 29 16 3e af dd be bb 99 c3 f7 bc
       -0.045556318 0.14664185 -0.0058247666 -0.030244635
000380 c3 64 22 3d a0 ff 80 bd 85 ab 1b 3d 5c 77 66 3d
       0.039646875 -0.062987566 0.03800537 0.056266174
000390 ce e8 50 3d c3 92 be bd 56 8a bd 3d 2b 8f 85 3d
       0.05100327 -0.09305336 0.09254901 0.06521448
0003a0 95 1d c7 bd 76 2c f9 3c 92 70 8c bc 72 ca 96 bd
       -0.09722439 0.030416708 -0.017143521 -0.07362832
0003b0 1b 2e 0e bd 72 5a c1 3c 43 cb 0f 3d 07 e3 05 bb
       -0.03471194 0.023602698 0.035105955 -0.0020429508
0003c0 ab bf 4c 3e 97 ce 0c be 36 91 40 3d 56 f7 29 bd
       0.1999499 -0.13750683 0.047013484 -0.041495644
0003d0 90 99 46 3d 49 c7 4d bd 98 8b d7 3d b1 89 28 bd
       0.048486292 -0.05023888 0.10524672 -0.041146938
0003e0 3c 7a 59 3b ef 1f 20 bc 25 d8 f0 3c 6f 9a 93 bd
       0.003318443 -0.009773239 0.02939994 -0.0720719
0003f0 b1 41 6e bd 5b 9a 49 bd 91 68 83 3d 30 06 3e bc
       -0.058168117 -0.04921947 0.06416429 -0.011598155
