embeddings/actor15/angry_i01_s02_r01_layer5.npy (npy, 3200 bytes, 1 tensors)

array f4 [768]
000000 87 0c 9e 3d 5f 5e 0c 3d d7 b1 50 3d e6 a2 7b 3d
       0.07717233 0.034269687 0.05095085 0.06143465
000010 2b 9c ca bd 53 7c 39 ba 60 bf 83 3d 4d ca 87 bc
       -0.09893068 -0.00070757157 0.06432986 -0.016575957
000020 fe e5 dc 3c 20 39 2b 3d e0 31 12 bd 8d f3 2f 3d
       0.026965138 0.041802526 -0.035692096 0.042956877
000030 a7 ac 86 3d 66 b7 e0 bc 2d 3b f7 bd c6 fd 42 3c
       0.065758996 -0.027431201 -0.12071834 0.011901325
000040 63 d0 78 bd 09 f8 89 bc 67 b0 12 3d 79 36 58 bd
       -0.060745608 -0.016841905 0.03581276 -0.052786324
000050 b4 7d 45 3a 3b d8 5e 3d 10 22 79 be 3a 4a 88 bd
       0.0007533685 0.054405432 -0.243294 -0.066547826
000060 38 30 fc 3d 50 de 30 3d 63 56 d8 3d 94 4a ec 3c
       0.123138845 0.043180764 0.10563352 0.028844155
000070 18 8c cb bd e5 8c ca bd 1c 8d b9 3c 8d cd a6 bd
       -0.0993883 -0.09890155 0.022650294 -0.081446745
000080 e0 70 07 3d cf 07 06 3d 5a 70 db bc ba 98 15 3e
       0.03306663 0.03272229 -0.026786972 0.14609042
000090 d9 59 ae 3c 9c 48 0d 3b 01 e2 35 bd c1 9f 84 3d
       0.021283077 0.002155817 -0.044404987 0.06475783
0000a0 c9 4f 02 bc 12 5c 85 bd 14 2f 9a 3d 58 36 8d bd
       -0.007953593 -0.06511702 0.07528511 -0.06895131
0000b0 95 e1 b5 bc 5b b4 0d 3e 52 36 9e bd dd 20 0f 3c
       -0.022202292 0.13838331 -0.077252045 0.008735863
0000c0 cb 3b a4 bc bf 1f 98 3d 8e 46 8a bd 24 aa 89 bc
       -0.020048043 0.0742793 -0.067517385 -0.016804762
0000d0 75 a5 4f bd e4 d7 fc 3c a0 8d e5 bc a2 ee 1d be
       -0.0506949 0.030864663 -0.028021634 -0.15423062
0000e0 02 cc 28 bd f8 e4 40 3d ee c7 e5 3c 1e fe 0d 3c
       -0.041210182 0.04709336 0.028049435 0.008666543
0000f0 23 21 f9 bc ab 2f 19 bd a1 38 21 3d 06 a8 ac bb
       -0.030411309 -0.037398975 0.039360646 -0.0052690534
000100 63 b9 e7 3c e1 47 c8 3d 33 b4 1b 3c c3 df b5 bd
       0.028286641 0.09779335 0.009503412 -0.0888057
000110 fc 1f 41 bd 31 9a 22 bd ec c0 eb bc 3e 31 37 3d
       -0.047149643 -0.03969783 -0.028778516 0.044724695
000120 98 90 2f bc ee a5 0f 3b a1 97 4c 3c ba f3 9b bc
       -0.010715626 0.002191897 0.012487323 -0.019037116
000130 77 9f 8b 3c ba 6e 6e bd e7 2c 0a 3d 73 22 2c 3d
       0.017043812 -0.058211066 0.03373423 0.04202504
000140 f0 62 11 bd 6a 55 a1 3b 2f 48 85 bd 92 ff 16 3d
       -0.035494745 0.004923512 -0.065079086 0.036864825
000150 fc b7 9c bd 8f 99 5b 3c 1a a9 3c bd 9c 79 d8 3c
       -0.0765228 0.01340331 -0.046059705 0.026425175
000160 97 05 c0 3c 5f a9 c6 bc 53 7f 88 3c 5e 65 83 3c
       0.023440165 -0.024250684 0.016662275 0.016039547
000170 84 03 c9 bc 4c 02 69 3d 41 70 63 3b 63 ce 1f bd
       -0.02453781 0.056886956 0.003470436 -0.039015185
000180 d0 a2 44 be ce a8 43 3d 33 22 2c 3c 75 1c d3 39
       -0.19202733 0.047768407 0.010506201 0.00040266258
000190 0b 73 29 bc 6c b3 a6 bd 65 94 9e 3c a8 71 51 3d
       -0.01034237 -0.08139691 0.01935787 0.05113378
0001a0 48 41 20 3c 65 ae 83 be 6f 6e 25 bd 19 2b 70 3c
       0.009781189 -0.2571899 -0.04038852 0.014658713
0001b0 c7 7b 54 3c 21 5e 24 3d fb 14 73 3d b6 b1 cd 3c
       0.012968964 0.04012883 0.05934618 0.025109153
0001c0 21 df 4c 3c 9c 18 02 3e 0b 88 7a bd 52 b9 bf 3c
       0.01250437 0.127047 -0.061164897 0.023403797
0001d0 08 da 91 bd a9 2d ab 3d 84 6b d1 3d ce ee 51 3d
       -0.07121664 0.08358318 0.10225585 0.051253133
0001e0 15 cf 21 3d a1 3e 35 bd 37 69 86 3c c5 a9 c0 bd
       0.03950413 -0.04424918 0.016407592 -0.09407381
0001f0 c8 16 dc 3d 0b 2d c3 3d 36 ae 6a bd ba d5 fb 3b
       0.10746533 0.09530076 -0.057295047 0.0076853903
000200 c9 24 d2 3c 2f f3 a0 3d 4e e8 00 bc 1c 7d 47 bc
       0.025652306 0.078588836 -0.007867886 -0.0121758245
000210 03 70 6b bd 96 d7 00 bd 2c b0 05 bd 1a 9e 12 3e
       -0.05747987 -0.0314556 -0.032638714 0.14318123
000220 24 5c b8 3d 2d b2 81 bb 86 20 15 3d c6 4a bf 3d
       0.090019494 -0.003958008 0.03640797 0.09340434
000230 b5 ed 19 3d e8 3b 06 bd 03 37 9d bd 4e 34 f8 3d
       0.03758021 -0.032771975 -0.07676508 0.12119351
000240 d2 ae 0e be be 0a 80 3c d1 8d e0 bc 0c 6b 99 3d
       -0.13933876 0.015630122 -0.027411373 0.07491121
000250 6f c8 59 3d 04 c4 cc 3b 3a da 45 bb af 54 11 bc
       0.053169664 0.006248953 -0.0030189888 -0.008870288
000260 a2 90 96 3d e8 32 ce 3e 41 e2 8f 3b 8a ba 6d bd
       0.07351805 0.40273213 0.0043909852 -0.058039226
000270 08 36 f3 bc 82 98 8d bd 03 2a ee 3c e8 fb 2a bd
       -0.02968885 -0.06913854 0.029072767 -0.041744143
000280 13 5c 58 3d f6 09 fe bd 67 62 6e bd 83 2a 2e bd
       0.052822184 -0.12404244 -0.058199313 -0.04252101
000290 7b 47 25 bd e2 7a a7 bd 98 6e c9 39 30 e2 8e bd
       -0.040351372 -0.08177735 0.00038420106 -0.069767356
0002a0 1f 58 ff 3d 8e d6 be bc bb 5b 90 bd 61 ff 93 3d
       0.1246798 -0.023295667 -0.07048746 0.07226444
0002b0 99 ab c4 bd 2c 99 64 bc 70 46 9d 3b 8f 1b c3 bd
       -0.09603042 -0.013952535 0.0047996566 -0.09526741
0002c0 bc 20 0a 3e cc 05 47 3b bc 08 9c 3d af 9a 49 bd
       0.1348905 0.0030368445 0.076188534 -0.049219783
0002d0 02 0e e5 bc 16 b1 b8 bb f2 45 b0 bc bd 35 58 bd
       -0.027960781 -0.0056363447 -0.021517728 -0.052785624
0002e0 ac 22 b6 bd a0 2b 43 bd 5b cd a7 bc 8d 83 85 bc
       -0.08893332 -0.047649026 -0.020483663 -0.01629808
0002f0 09 14 bb bc 07 92 45 bc 63 04 97 bc 74 b9 67 bd
       -0.022836702 -0.012058741 -0.018434709 -0.056573346
000300 d1 53 6d 3c 35 85 c4 bd 34 58 37 bd 94 ee d9 bd
       0.014485315 -0.0959572 -0.04476185 -0.10641208
000310 8f 60 1a bc 68 ca d8 bc ea e0 7f 3d 30 3b 15 3d
       -0.009422435 -0.026463702 0.062470354 0.0364334
000320 f6 f2 b9 3c 62 86 6f 3d c6 1b 78 3d c9 21 6c be
       0.02269886 0.058477767 0.06057336 -0.23059763
000330 bb e5 ff 3d 53 4d 01 3e ec c4 9e bb 3e 5d 63 bc
       0.124949895 0.12627153 -0.0048452523 -0.013877211
000340 ec e3 97 3d 57 79 7f bd 0d 73 89 3c 84 ac 19 bd
       0.074165195 -0.062371578 0.016778493 -0.03751804
000350 b8 2f d7 3c 44 5d ad bb 13 66 72 bd f5 d6 9a 3d
       0.026267871 -0.005290659 -0.059179377 0.07560531
000360 b8 b9 e5 3d c5 e8 bb 3c 5f ce e4 3c e5 9e 4b 3c
       0.11217064 0.022938142 0.027930437 0.01242802
000370 6e 23 22 bd a5 c7 7d 3d 53 7c d7 3c a6 b3 e0 bc
       -0.03958457 0.061957974 0.0263044 -0.027429413
000380 f0 b8 dd 3d 8f fd 94 bd e4 e5 62 3d 4c 03 8f 3b
       0.1082629 -0.07274925 0.055395022 0.0043644067
000390 2e b5 88 bb 9a a6 04 be c1 c6 9b 3d 4d ae b2 3d
       -0.004171989 -0.12954178 0.07606269 0.087246515
0003a0 d2 3a 3c bd 19 d4 fc 3c 5f 18 24 3c e0 9f b4 bd
       -0.045954533 0.030862855 0.010015576 -0.08819556
0003b0 7f 4a 04 bd 2c 9c 06 bd ee d7 6c 3c bc c1 29 3c
       -0.032297608 -0.03286378 0.0144557785 0.010361131
0003c0 b6 e1 0c 3e 52 82 1d be da 7e da 3c 4a c4 7b bd
       0.13757977 -0.15381745 0.026671816 -0.061466493
0003d0 6e b7 7e 3d 5a c0 51 3a 0c 12 3d 3d a0 3a 8a 3c
       0.06218665 0.000800138 0.04615979 0.016873658
0003e0 a2 41 18 bc 15 a6 51 be cd 4c 55 3c 6c aa 8b bd
       -0.009292992 -0.20473512 0.013018799 -0.06819615
0003f0 c5 f8 2d bd aa d2 f2 bc 05 8c c7 3c 97 20 80 bc
       -0.042473573 -0.029641468 0.024358759 -0.01564054
