embeddings/actor10/happy_i02_s02_r02_layer5.npy (npy, 3200 bytes, 1 tensors)

array f4 [768]
00000000: 6996 a13d 7613 fcbc 0484 75b9 c5ac b6bc
00000010: 0962 cebd 9c7e c33d 45b5 413d 8955 a5bd
00000020: c7ab a93d 865a 9b3d 6207 bfbd 9cfe 9a3c
00000030: f5c8 a53d 0447 bb3b 15b5 d1bd 4666 213d
00000040: de4f 853d 682c 2dbd c458 36bd 15e9 08bc
00000050: 792b adbd a5ba 773c 93eb 663e 25f5 9c3c
00000060: a6df 953b 4953 9c3d d145 fbbb e2c7 4f3d
00000070: e9e2 17bd fb3f d8bc fb9e f2bc 9fb8 5bbd
00000080: cbcc 8f3d 5f94 00ba cf5d aa3d fe11 0f3e
00000090: 2bdf 48bc a831 2cbd 80d5 ffbd ff2e 603d
000000a0: 743a 4d3d 787d 833c 16cd 583d dcf6 b5bd
000000b0: 36ce 923d 25da 4d3e a1ef 873d 280f b0bd
000000c0: a30d 1dbd 90b2 ee3d 5b9b b6bc 7804 f6bc
000000d0: 21ee 00bd 59ec ae3b cde8 513c 57b8 64bd
000000e0: 2171 c6bc f185 6aba 64d1 abbc 1bbb 7d3d
000000f0: 3bf4 50bd 11b8 a03c 45ff fd3c 5a26 d0bb
00000100: 608c 333d 6072 703c d0a0 273d ab6b 19bd
00000110: 9de7 113d 43eb 443b 71f6 0cbd 66eb c33d
00000120: e742 36bc 6954 3e3d 1eba 43bc 0146 0d3d
00000130: a7f5 08bd 9f85 273c 41d1 89bc 6689 ccbc
00000140: 3b44 4cbd 92b5 a63d d10d 42bd 4c5d a53d
00000150: 98aa 9dbb 1e1c 1a3c 8ec6 0bbe 5487 afbd
00000160: 73f9 cb3c 8bf8 c9bb a0f7 33be ea39 82bc
00000170: 5abc f23c 8056 cc3d 4fe6 9bbc 9620 04bd
00000180: 827c 323d d3ce a43d 9653 8539 62c3 5fbc
00000190: b254 dfbc 7692 85ba 64f2 213c b15e 643d
000001a0: ad5f 6cbc 267d a9be 3825 fabc 43eb 813d
000001b0: 5a38 90bd 2aab ecbd 06d0 023d a79f 34bd
000001c0: 829f 193e bc58 cd3d f823 0dbe c9ef 0b3d
000001d0: 7815 a0bd c021 4a3c 8384 1e3d 24e8 003d
000001e0: 7c53 cd3d 3a80 05bd fc9e aebd 2292 31bd
000001f0: f7fd c33d 8365 2b3c def9 303c 2bb3 11bd
00000200: 20bd 96bc 38f2 413d 8e65 8cbc 6f4a ce3b
00000210: 407b 853c 3352 96bd ba25 2abc cfb5 303d
00000220: decc 1b3d 1b82 42bc 51f1 01be 38c9 4f3e
00000230: 4901 29bd 99a5 cfbd a1c6 cebd f79f dc3c
00000240: a8e7 ddbd 71a2 473d a386 623d 2461 7e3d
00000250: a60b 07bb c92e aebc b413 0fbe 399c f63d
00000260: 8661 2b3e 41dc ac3d 14a3 2c3d 12f7 21bc
00000270: ea49 113e 968d 8abd c9d1 c6bc 35be f4bc
00000280: ced5 e33d ec85 5cbd f936 62bd c93a 7ebd
00000290: 2950 d2bd 2034 11be fd3f e1bc b048 dbbd
000002a0: cf64 0e3d 89ad 8cbd 9499 463d 89e8 0a3e
000002b0: 9999 58bd e4a4 2fbd 6673 3cbd cd59 7c3e
000002c0: c8cf 4e3e 5238 8f3d 2a5b 623d ac85 d4bd
000002d0: f888 423c ef91 d6bc 3e6d 24be ba46 8ebd
000002e0: 3787 20bc 6195 d3bd 0d07 e9bc a3bd c13b
000002f0: 15cf 233d 62e7 82bd 3ecf a6bb b51c 163d
00000300: 0948 99bb 0dba a8bd 143a b8bd 0a75 dabb
00000310: e36b 93bc a64a fb3d 0154 9b3d 775e 50bd
00000320: 5b27 9abd aac6 253d 8721 c03b 754f fb3e
00000330: 38ac 383d 1faf 053d 2b5c eabc a3bf bebd
00000340: dac6 3cbb c5cb 6bbd 3cac 573d b77e 3dbd
00000350: e686 b93d 49e2 3dbd e975 033d cf51 133d
00000360: dc8b 233e c237 6fbd d3f1 873d 4437 443c
00000370: d51b 1f3c d3d6 cf3d 3fe4 a53b 647d 8b3d
00000380: 9b13 323d 8ba7 37bc 2856 89bc 8af2 513d
00000390: 4431 063e 23b3 16be 6484 8f3d 74a6 fa3c
000003a0: 3b4d c6bd 3c3b 4a3c 7ce6 64bd 2323 d4bd
000003b0: 3ffc d73c 33eb 83bd 33a6 0a38 831f c23c
000003c0: 8403 493e c93b a43f 96a2 babc 228b f3bd
000003d0: 5b1f 0fbd fa0e a5bc c8ee 263d e22f e1bc
000003e0: 8651 a1bd 5d8b dd3d 4a59 b1bc 0a8f 9ebd
000003f0: 4356 06be b7f2 e4bd 480a 9dbc 9704 bbbd
0.078900166 -0.030770998 -0.000234142 -0.02229918 -0.100772925 0.09545633 0.047292013 -0.08072955
0.08284717 0.07585625 -0.0932758 0.018920235 0.0809497 0.005715253 -0.10239617 0.039404176
0.06509374 -0.042278677 -0.044518247 -0.008356352 -0.084555574 0.015120183 0.22550802 0.019159863
0.00457378 0.07633073 -0.007668235 0.050727732 -0.037081633 -0.026397696 -0.029616823 -0.053642865
0.07021483 -0.00049049215 0.08318674 0.13971707 -0.012260239 -0.042039543 -0.12491894 0.05473232
0.050104573 0.01605104 0.05292996 -0.08884975 0.07168238 0.20102747 0.066375025 -0.08596641
-0.038343083 0.11655152 -0.022290876 -0.030031428 -0.031477097 0.0053382334 0.012811852 -0.055839863
-0.024223866 -0.00089463504 -0.020973869 0.061946016 -0.051014166 0.01961902 0.031005511 -0.006352228
0.043835044 0.014675707 0.040924847 -0.037456196 0.035621274 0.0030047453 -0.034414712 0.09566383
-0.011124349 0.04646722 -0.011946229 0.03449059 -0.033437397 0.010224729 -0.016823413 -0.02496786
-0.049869757 0.081401005 -0.047376458 0.080744356 -0.004811596 0.009406118 -0.13649961 -0.08570734
0.02489922 -0.006163662 -0.1757493 -0.015896756 0.029630829 0.09977436 -0.019030718 -0.03225764
0.04357577 0.08047261 0.00025430013 -0.013657423 -0.027262066 -0.0010190743 0.009884451 0.055754367
-0.014427108 -0.33103293 -0.030535325 0.06343701 -0.07041998 -0.115560845 0.031936668 -0.04409757
0.15002254 0.1002669 -0.13783252 0.034164224 -0.07816595 0.012337148 0.03870059 0.031471387
0.10025689 -0.03259299 -0.085264176 -0.043352254 0.09569924 0.010461214 0.0108017605 -0.03557126
-0.018400729 0.04735014 -0.017138269 0.0062954943 0.016294122 -0.07339897 -0.010384971 0.043142136
0.038037173 -0.01187184 -0.12689711 0.20291603 -0.04126099 -0.10139007 -0.10096479 0.026931746
-0.108352005 0.0487389 0.05530418 0.06210436 -0.0020606308 -0.021262543 -0.1397236 0.12041516
0.16736421 0.084404476 0.04214771 -0.009885566 0.14188352 -0.067652866 -0.024269955 -0.029875854
0.111247644 -0.053838655 -0.055228207 -0.06206778 -0.102691956 -0.1418004 -0.027496332 -0.107072234
0.034764107 -0.06869037 0.048486307 0.13565268 -0.052880857 -0.04288186 -0.04600849 0.24643631
0.2019645 0.06993164 0.055262722 -0.103770584 0.011873476 -0.026192633 -0.16057298 -0.06947084
-0.009797863 -0.10331226 -0.028445745 0.005912499 0.03999241 -0.06391789 -0.005090623 0.03664847
-0.0046777767 -0.08238611 -0.089954525 -0.006666784 -0.01799578 0.122700974 0.07584382 -0.05087134
-0.07527038 0.040472664 0.005863372 0.49084058 0.045086116 0.03263771 -0.028608402 -0.093138956
-0.0028805048 -0.057567377 0.05265449 -0.046263423 0.09058933 -0.04635838 0.03209487 0.03596669
0.15971321 -0.058402784 0.06637921 0.011976067 0.0097112255 0.10148396 0.0050626094 0.06811026
0.04347573 -0.011209379 -0.016764715 0.051256694 0.13104731 -0.14716773 0.070076734 0.03059695
-0.09682699 0.012343224 -0.05588387 -0.10358264 0.026365397 -0.06441345 3.305655e-05 0.023696667
0.19630247 1.2830745 -0.022782605 -0.11891772 -0.034942012 -0.020148743 0.040755063 -0.027488653
-0.078768775 0.10817597 -0.021649022 -0.07742126 -0.13118844 -0.11179107 -0.019169942 -0.09131735
