embeddings/actor01/angry_layer6_energy_no_trim.npy (npy, 3200 bytes, 1 tensors)

array f4 [768]
0	0x3bd4d20f	0.0064947675
1	0xbce93eb5	-0.028472284
2	0xbc84f05f	-0.0162279
3	0xbb597d3e	-0.0033186222
4	0xbd937268	-0.07199556
5	0x3da4103b	0.08010908
6	0x3cf924ba	0.03041302
7	0xbc9f4a7b	-0.019444695
8	0x3a3806f8	0.00070200814
9	0x3cea4b58	0.02860038
10	0xbdcb9338	-0.09940189
11	0xbd6b4b1c	-0.057444677
12	0x3d11ba5b	0.035578113
13	0xbd91bb6b	-0.07115825
14	0xb7915792	-1.7326125e-05
15	0x3d4f50f7	0.050614323
16	0x3b7da0dd	0.0038700618
17	0x3c00e518	0.00786712
18	0x3adc0491	0.0016786029
19	0xbd94c356	-0.0726382
20	0x3c37ef78	0.011226527
21	0x3c7c4472	0.015397178
22	0xbc7b060a	-0.015321264
23	0xbc05ef63	-0.00817475
24	0x3e54d42b	0.2078406
25	0x3d9e234d	0.07721577
26	0x3d4ea341	0.05044866
27	0x3d9bb9fa	0.076038316
28	0xbdc595aa	-0.09647687
29	0x3d666650	0.056249917
30	0xbdeafd6a	-0.11474116
31	0xbda0ec9d	-0.078576304
32	0xbb9a316c	-0.0047055986
33	0xbc934039	-0.01797496
34	0x3cd04e1e	0.025427874
35	0xbb3104d0	-0.0027010925
36	0xbcc4f112	-0.024040733
37	0x3cae5f73	0.021285748
38	0xbd5d5fb8	-0.054046363
39	0x3ae24bcb	0.001726502
40	0xbd419610	-0.04726225
41	0x3ce616ce	0.028087046
42	0xbcb5198d	-0.02210691
43	0xbe0c6be1	-0.13713028
44	0xbddcd367	-0.10782509
45	0x3bb28dfa	0.005449054
46	0x3d5b0939	0.053475592
47	0xbc96e8b5	-0.01842151
48	0xbd37b16f	-0.04484695
49	0x3cacbccc	0.02108612
50	0xbd9c6671	-0.07636727
51	0x3d9437c7	0.07237201
52	0xbd9930ee	-0.07480036
53	0x3bfd5c2c	0.007731935
54	0x3c876b80	0.016530752
55	0xbd0739c2	-0.033014067
56	0x3aee7d5b	0.0018195318
57	0x3c859c19	0.016309785
58	0x3d5e5a44	0.054285303
59	0x3d27d1f0	0.040971696
60	0x3db06b9d	0.086142756
61	0x3a26ba33	0.00063601433
62	0xbd537723	-0.05162729
63	0xbabe0ee3	-0.0014500286
64	0x3d16a51d	0.036778558
65	0x3d90b21d	0.070652224
66	0x3ddd52b5	0.10806791
67	0xbdc8f23b	-0.09811827
68	0xbdbac7c5	-0.09120134
69	0x3cf9c813	0.03049091
70	0xbd7c8dd6	-0.061658703
71	0x3c3df9f8	0.011595242
72	0x3c524c72	0.012835609
73	0xbd534ac4	-0.051584974
74	0x3caf8e1d	0.02143007
75	0xbd86b0ae	-0.06576668
76	0x3d2f601e	0.042816274
77	0xbd413f0a	-0.04717926
78	0xbd486b37	-0.048930373
79	0x3d67f08f	0.0566259
80	0x3d5b7642	0.053579576
81	0x3d861409	0.0654679
82	0x3c448832	0.011995362
83	0xbda5ded8	-0.08099145
84	0xbd82d391	-0.06388009
85	0xbceb446a	-0.028719146
86	0xbdcc3143	-0.099703334
87	0xbc01c8f0	-0.007921442
88	0x3bcb6480	0.006207049
89	0x3d2700a7	0.040772106
90	0xbe6ee11c	-0.2332806
91	0x3ccbf2a6	0.024895977
92	0xbbb5c2f4	-0.005546922
93	0xbe076a6f	-0.13224195
94	0x3c0888d6	0.0083334055
95	0xbd70f4a0	-0.058827043
96	0x3e7d0a61	0.2471099
97	0xbab78d19	-0.0014003842
98	0xbd6d86e6	-0.057989977
99	0xbb2d238c	-0.0026418893
100	0xbd0ea017	-0.034820642
101	0xbd26818d	-0.040650893
102	0x3d778424	0.060428753
103	0x3bbc297f	0.0057422514
104	0xbd913372	-0.070898905
105	0xbe72bbe6	-0.2370449
106	0xbe41fdf4	-0.18944532
107	0xbcf30e54	-0.029669918
108	0xbcd3178a	-0.02576806
109	0xbe017389	-0.1264173
110	0x3cdae86b	0.026722154
111	0x3d219a01	0.03945351
112	0xbc105ae7	-0.008810735
113	0xbc8a48a2	-0.016880337
114	0xbd852781	-0.065016754
115	0xbda6cab5	-0.08144132
116	0xbc0ba809	-0.008523949
117	0x3df3da0b	0.11906823
118	0x3dc5c589	0.096568175
119	0xbcad1355	-0.021127382
120	0x3d1dacd3	0.038494896
121	0xbdc6c38b	-0.097052656
122	0x3d2a0370	0.041507185
123	0xbd3cdf1e	-0.04611122
124	0x3c2a678c	0.010400664
125	0x3ddd4d82	0.10805799
126	0xbd559fe7	-0.052154448
127	0x3da228c4	0.07917932
128	0x3cabf7b4	0.020992137
129	0x3d553eb8	0.052061766
130	0xbd5599f7	-0.052148785
131	0xbc6f7bb3	-0.014616895
132	0x3c671008	0.014102943
133	0xbcb615ca	-0.022227187
134	0x3bd2fbba	0.0064386996
135	0x3caba30b	0.020951768
136	0x3d4016b7	0.046896663
137	0x3d31307a	0.04325912
138	0xbdbd17d6	-0.09233062
139	0x3d5918a0	0.053002
140	0x3cd45e6e	0.025923934
141	0xbd94d5e5	-0.0726736
142	0x3ce75bac	0.028241955
143	0x3dc19f09	0.09454162
144	0xbd19d92e	-0.037560634
145	0xbc3f1793	-0.011663335
146	0xbdd5fb5c	-0.104483336
147	0xbc2460c6	-0.010032838
148	0x3ca98f5f	0.020698247
149	0xbc433e24	-0.011916671
150	0x3d6c0886	0.057625316
151	0xbc4badda	-0.012431586
152	0x3d990f65	0.074736394
153	0xbe51aaa6	-0.20475253
154	0xbd300d0d	-0.042981196
155	0x3c36f129	0.0111658955
156	0xbdcb880f	-0.099380605
157	0xbdad1854	-0.08451906
158	0xbc061130	-0.008182809
159	0xbd78a82e	-0.060707264
160	0x3d1fe516	0.039036833
161	0xbe0ab430	-0.13545299
162	0x3dc3340f	0.09531414
163	0xbde418b1	-0.11137522
164	0xbd3786ff	-0.044806477
165	0xbdf92fe3	-0.12167337
166	0xbcd547d9	-0.026035236
167	0xbdc3620f	-0.095401876
168	0x3e64c5e4	0.22341114
169	0xbd26c690	-0.040716708
170	0x3d22cbd8	0.03974518
171	0x3cf927ab	0.030414423
172	0xbda7b1c7	-0.08188205
173	0xbd9f8347	-0.07788711
174	0xbceb4e7a	-0.028723944
175	0xbce981ff	-0.02850437
176	0x3d396445	0.04526164
177	0xbda92ace	-0.082601175
178	0xbc6f2b55	-0.0145977335
179	0x3be82dee	0.0070855534
180	0xbc2932e4	-0.010327075
181	0x3caa6ab1	0.020802828
182	0xbcee4497	-0.02908544
183	0xbdc5fedc	-0.09667751
184	0xbdda508e	-0.10659896
185	0xbd272e49	-0.040815625
186	0x3d824e0a	0.06362541
187	0x3a6d18d4	0.0009044532
188	0xbcb56412	-0.022142444
189	0x3d3cf7e0	0.04613483
190	0x3d964b71	0.07338608
191	0x3c8ab433	0.016931629
192	0x3d60746a	0.05479852
193	0x3c0e70e1	0.008693905
194	0xbd8e2944	-0.069414645
195	0x39dd8b4c	0.0004225619
196	0x3d2db576	0.042409383
197	0x3e51589b	0.20443957
198	0xbc9c222e	-0.019059267
199	0xbd323cf8	-0.043515176
200	0x3bd8faa0	0.0066216737
201	0x3be9bb63	0.007132934
202	0xbca40722	-0.020022932
203	0xbb490331	-0.0030672068
204	0x3d60941d	0.05482875
205	0x3da949f9	0.08266062
206	0x3d9a1bdb	0.07524844
207	0x3c7bbf8f	0.015365495
208	0x3bf80ed7	0.0075701284
209	0xbd8ec918	-0.06971949
210	0x3d1f540c	0.038898513
211	0xbcb510c4	-0.022102721
212	0x3cc81e7f	0.024428604
213	0x3da151d4	0.078769356
214	0xbda24af3	-0.07924452
215	0x3d00fee0	0.031493068
216	0x3daad932	0.08342208
217	0xbd7ed859	-0.062218044
218	0x3d2dc736	0.04242631
219	0xbca04f73	-0.019569134
220	0xbb4f71da	-0.0031653554
221	0x3d910bf2	0.070823565
222	0x3ca121dc	0.019669466
223	0xbb939734	-0.004504109
224	0xbd1c6924	-0.038186207
225	0xbda467ea	-0.080276325
226	0xbd517d27	-0.051144745
227	0x3d1bc4c1	0.038029436
228	0x3d8aa00c	0.06768808
229	0xbda23130	-0.07919538
230	0xbd2d45cf	-0.042302903
231	0xbd1aab24	-0.03776087
232	0x3acd8835	0.0015680852
233	0x3cf3a832	0.029743288
234	0xbda737c1	-0.08164931
235	0x3c7eb2a1	0.015545518
236	0x3cdc26f2	0.02687404
237	0x3b79daae	0.0038124728
238	0x3dc49beb	0.096000515
239	0x3d56c14d	0.05243044
240	0xbd0ba191	-0.03408963
241	0x3de35de8	0.111018956
242	0x3da5c1c3	0.08093598
243	0x3d8a9ffd	0.067687966
244	0x3aaa333d	0.0012985241
245	0x3cc856af	0.024455396
246	0x3dafb73e	0.085798725
247	0xbdb42f91	-0.08798135
248	0x3d202872	0.03910107
249	0xbe327855	-0.17428716
250	0x3cb2391d	0.02175575
251	0xbd2635e6	-0.040578745
252	0x3d035e01	0.03207207
253	0xbd229e90	-0.039702
254	0xbdad80e9	-0.08471853
255	0x3cdd60f4	0.02702377
