embeddings/actor01/happy_i01_s01_r01_layer5.npy (npy, 3200 bytes, 1 tensors)

array f4 [768]
0	0x3de7401f	0.11291527
1	0x3bec95c9	0.007220004
2	0x3c099b0a	0.008398781
3	0x3cc48d2c	0.023993097
4	0xbcbf08a1	-0.023319544
5	0x3de3aa9b	0.11116525
6	0x3d17b9b0	0.03704232
7	0xbcd92f19	-0.026511716
8	0x3bb52752	0.005528369
9	0xbceb5dbd	-0.028731221
10	0x3d85956f	0.06522643
11	0x3d4badbf	0.049726244
12	0x3cd07192	0.02544478
13	0xbc858364	-0.016298003
14	0xbdd816f9	-0.10551257
15	0xbc8b5bf7	-0.017011626
16	0xbd8c8ffa	-0.06863399
17	0x3c0ec56d	0.008714062
18	0xbd83786c	-0.06419453
19	0xbd4418d2	-0.047875233
20	0x3b696608	0.0035613794
21	0xbd83d61a	-0.06437321
22	0xbe682485	-0.22670181
23	0xbcbcae24	-0.023032255
24	0xbd639f12	-0.055571623
25	0x3c8287d3	0.015933907
26	0x3d0fda44	0.035120264
27	0x3d46c5dc	0.048528537
28	0xbdb9f266	-0.09079437
29	0xbdc1eb77	-0.094687395
30	0x3c7a63f5	0.015282621
31	0xbc6718cf	-0.014105036
32	0x3bed59db	0.0072433776
33	0x3d52f545	0.05150344
34	0xbd82a7f1	-0.063796885
35	0x3e363580	0.17793846
36	0x3d81c4ee	0.063363895
37	0xbd1b8761	-0.037970904
38	0xbb3ff283	-0.0029288835
39	0x3d87809b	0.066163264
40	0xbd0e3145	-0.034714956
41	0x3b9edb17	0.004847895
42	0x3df5f973	0.12010469
43	0xbd10fa8b	-0.035395186
44	0xbccd9efc	-0.025100224
45	0x3b83fe4e	0.004028118
46	0x3ac6de46	0.0015172444
47	0xbcb8a7ac	-0.02254089
48	0x3bd5a6a7	0.0065201106
49	0xbcd89823	-0.026439732
50	0xbcf5f276	-0.030022841
51	0xbdbe4ce6	-0.09292011
52	0x3c8129fd	0.015767092
53	0xbd920aab	-0.07130941
54	0x3d9307bd	0.0717921
55	0xbe0cc8ef	-0.13748525
56	0xbd2f94a5	-0.042866368
57	0x3db1bdf0	0.08678806
58	0xbcbd7217	-0.023125691
59	0x3d9cf501	0.07663918
60	0x3d3b0d41	0.045666937
61	0x3cd21396	0.025644105
62	0x3d728f8a	0.05921892
63	0xbd2517fb	-0.040306073
64	0x3c72202f	0.014778181
65	0x3c72fa50	0.014830187
66	0x3c2f20d0	0.010688975
67	0xbd86a88c	-0.065751165
68	0x3def4194	0.1168243
69	0xbd8cef55	-0.068815865
70	0xbcbd76b7	-0.023127897
71	0x3aa08751	0.0012247359
72	0x3d81a54f	0.06330358
73	0x3d832b52	0.06404747
74	0x3c5467ff	0.012964248
75	0xbc05f17e	-0.008175252
76	0xbd67e51d	-0.056614984
77	0x3c8c2e49	0.017111914
78	0xbd768a6a	-0.060190596
79	0xbd1d94b2	-0.038471885
80	0xbc16cfd3	-0.009204823
81	0x3d11333d	0.035449255
82	0xbdecada5	-0.115565576
83	0xbb382186	-0.0028096153
84	0x3b4a7447	0.003089206
85	0x3d5c8067	0.05383339
86	0xbb82c3c4	-0.0039906222
87	0x3d3a29e6	0.045450114
88	0xbac731b9	-0.0015197314
89	0x3be4a736	0.006977941
90	0x3cc15a88	0.023602739
91	0x3b877a38	0.0041344427
92	0xbd12c3c6	-0.035831235
93	0x3d70097f	0.058602806
94	0x3dce21c5	0.10065035
95	0xbcd49c57	-0.025953455
96	0xbe2bdca8	-0.16783392
97	0x3d5be951	0.053689305
98	0xbc8cde32	-0.017195795
99	0x3c1612b2	0.009159731
100	0xbd886772	-0.06660356
101	0xbd7016a2	-0.058615334
102	0x3dc01d8c	0.093806356
103	0x3bb466d0	0.0055054203
104	0x3d174f2d	0.036940742
105	0xbe85b861	-0.26117232
106	0xbda1076e	-0.07862745
107	0xbd690a4d	-0.05689459
108	0x3d436f50	0.047713578
109	0xbd95cca4	-0.07314423
110	0x3c1b16af	0.009465857
111	0x3c897b7a	0.016782511
112	0xbc2f4879	-0.010698431
113	0x3da7a7bb	0.08186289
114	0xbe18f90f	-0.14938758
115	0xbdc966e7	-0.0983408
116	0xbd73b79a	-0.059501268
117	0x3d3524e0	0.04422462
118	0x3d76eae7	0.060282614
119	0xbb935a61	-0.004496858
120	0x3d87f319	0.06638164
121	0xbd64e7d0	-0.055885136
122	0xbd8fee62	-0.0702789
123	0xbd3796eb	-0.04482166
124	0x3dc92db2	0.09823169
125	0x3d291024	0.04127516
126	0xbbf43830	-0.007452987
127	0x3d3dfac9	0.046381745
128	0x3d082d8f	0.033246573
129	0x3dca6b71	0.09883774
130	0xbcbdd2e3	-0.023171848
131	0xbd3b7518	-0.045765966
132	0xbda0987e	-0.078415856
133	0xbc8e3741	-0.017360331
134	0xbcffa33c	-0.031205766
135	0x3e36eb58	0.17863214
136	0xbd6b8b4c	-0.05750589
137	0xbca88915	-0.020573178
138	0xbc05e303	-0.0081718
139	0x3d1b78e5	0.03795709
140	0x3b394ced	0.002827461
141	0x3b068af7	0.0020529607
142	0xbd202b67	-0.03910389
143	0x3d1df15a	0.03856025
144	0xbdf115b5	-0.117717184
145	0xbcfa75ec	-0.030573808
146	0xbd01ac68	-0.03165856
147	0x3d51220b	0.051057857
148	0x3d6f37ca	0.058402814
149	0x3c123cf3	0.008925664
150	0xbd9f3008	-0.07772833
151	0xbbfe3a3a	-0.007758406
152	0x3dd9eb79	0.10640616
153	0x3f0f0669	0.55869156
154	0x3ccdab06	0.025105964
155	0xbd05fbd1	-0.032710854
156	0xbcfaec8f	-0.030630378
157	0xbd88e5c3	-0.066844486
158	0x3c62924b	0.013828824
159	0xbd7e1ce5	-0.062039275
160	0x3dbb1f35	0.09136812
161	0xbe311b88	-0.17295659
162	0x3caad2a8	0.020852402
163	0xbd060532	-0.0327198
164	0x3bd78e40	0.006578237
165	0xbe35086d	-0.17678995
166	0x3c2c51ea	0.010517577
167	0xbbb92ba0	-0.0056509525
168	0x3e6381e2	0.22217515
169	0xbcd998af	-0.026562063
170	0xbd9bd385	-0.076087035
171	0x3dd90c6f	0.10598075
172	0xbd2f35a4	-0.042775765
173	0xbd5233de	-0.051318996
174	0x3c02ddc5	0.007987444
175	0xbe49ccea	-0.19707075
176	0x3d8c81a7	0.06860667
177	0xbbf9bf15	-0.0076216557
178	0xbd0362d7	-0.032076683
179	0xbcd14c53	-0.02554909
180	0xbcd56948	-0.026051179
181	0x3c9ef74c	0.01940503
182	0xbd6cc3dd	-0.057803977
183	0xbd8e6040	-0.06951952
184	0xbd4dcdc4	-0.05024506
185	0xbd451712	-0.048117705
186	0xbc870c1d	-0.016485268
187	0xbc321e97	-0.010871551
188	0xbd1fe308	-0.039034873
189	0xbe267451	-0.16255309
190	0x3d1b4d9b	0.037915807
191	0xbd8e04d7	-0.06934517
192	0x3c73e588	0.0148862675
193	0xbd13ceff	-0.03608608
194	0xbe256bb3	-0.16154365
195	0x3be8d1b1	0.0071050753
196	0x3cdd36b6	0.027003627
197	0x3d26dfe5	0.040740866
198	0xbd0bd142	-0.03413511
199	0x3df67f90	0.12036049
200	0xbd3e0514	-0.04639156
201	0x3cd505ad	0.026003683
202	0x3da88249	0.08227975
203	0x3cf1e408	0.02952768
204	0x3dad3c32	0.08458747
205	0x3d96261b	0.07331487
206	0xbcd5166f	-0.026011674
207	0xbd3a1a08	-0.04543498
208	0x3dc13798	0.09434432
209	0xbdb5a70a	-0.08869751
210	0x3d35d457	0.044391956
211	0xbd2c689f	-0.042091962
212	0xbcce22ba	-0.025163043
213	0x3cbaf875	0.022823552
214	0xbd30eaba	-0.043192603
215	0x3ca35024	0.019935675
216	0x3d009849	0.03139523
217	0xbc9cc422	-0.019136492
218	0x3d58c1a2	0.052919038
219	0x3d9907b3	0.07472172
220	0xbcfbb5cd	-0.030726338
221	0x3db28c9f	0.087182276
222	0x3daa8d34	0.083277136
223	0xbd29d447	-0.04146221
224	0x3cd980d6	0.026550692
225	0xbd11a7cc	-0.035560414
226	0xbc8d45e4	-0.01724524
227	0x3c9df680	0.01928258
228	0x3d5565cd	0.052099038
229	0xbdb47550	-0.08811438
230	0x3df959b9	0.12175316
231	0xbd8a6f9e	-0.067595705
232	0xbd675f41	-0.056487326
233	0x3d7a1236	0.061052524
234	0xbc97fc0c	-0.018552803
235	0xbd8b2cbf	-0.06795644
236	0x3c8e1601	0.017344477
237	0x3c65f730	0.014035985
238	0x3d1a012c	0.037598774
239	0x3d0d911e	0.034562223
240	0x3e0e4ac0	0.13895702
241	0xbe10fda9	-0.14159264
242	0x3d4cdf94	0.05001791
243	0xbdf16dda	-0.11788531
244	0x3de707ec	0.11280808
245	0xbcb0a4ec	-0.021563016
246	0x3d4bb818	0.049736112
247	0xbdc0ac8d	-0.094079114
248	0xbd06b726	-0.032889508
249	0x3de09386	0.10965638
250	0x3ceb8699	0.028750705
251	0xbd76eae1	-0.06028259
252	0xbd92a18f	-0.07159721
253	0x3ba90fb4	0.0051593427
254	0x3bce9eef	0.0063055675
255	0xbdddeb31	-0.10835875
