embeddings/actor19/angry_i02_s02_r02_layer5.npy (npy, 3200 bytes, 1 tensors)

array f4 [768]
0	0x3e02ff4e	0.12792704
1	0x3db0631f	0.08612656
2	0x3d7fe4a2	0.0624739
3	0x3d7c5480	0.061604023
4	0x3ac91779	0.0015342078
5	0xbc59f27e	-0.013302444
6	0x3d6f2dde	0.05839335
7	0xbd89762d	-0.06711993
8	0x3db8875f	0.09010195
9	0x3d56eebe	0.052473776
10	0xbdc6e213	-0.09711089
11	0x3d4c7b71	0.04992241
12	0x3d5a957f	0.053365227
13	0x3dc20779	0.094740815
14	0xbd5038e7	-0.050835516
15	0xb8333a5f	-4.2731288e-05
16	0xbcd1b2d3	-0.025597965
17	0x3d9faf86	0.0779715
18	0xbdd46ebd	-0.10372684
19	0x3daaa595	0.083323635
20	0xbd8c5171	-0.06851471
21	0x3d2ee3b7	0.042697635
22	0x3cc1c2a6	0.023652386
23	0x3e24508f	0.16046356
24	0x3e081193	0.13287954
25	0x3c5ab573	0.013348925
26	0xbd32dc58	-0.043667167
27	0x3d8c79ed	0.06859193
28	0xbce6e61d	-0.028185898
29	0xbe25ee67	-0.16204225
30	0xbd92c012	-0.07165541
31	0xbd1d1fa2	-0.038360246
32	0x3db2c063	0.08728101
33	0x3d984d7c	0.07436654
34	0x3c17e1c7	0.009270138
35	0x3dc5c5de	0.09656881
36	0xbd461244	-0.048357263
37	0xbd5dd1a5	-0.05415501
38	0xbe01951f	-0.12654541
39	0x3dc40cb3	0.09572735
40	0xbc8b441f	-0.017000256
41	0xbd87c6f8	-0.06629747
42	0x3c983aee	0.018582787
43	0xbd0616d0	-0.0327366
44	0x3de86a84	0.11348441
45	0x3d275b2a	0.040858425
46	0xbd8c58a5	-0.06852845
47	0xbc51f5e7	-0.012814975
48	0x3d2734c7	0.040821817
49	0x3e331117	0.17486988
50	0xbda8d1d8	-0.082431495
51	0xbd2fbe37	-0.042906012
52	0x3e10c62c	0.14138097
53	0x3d4e7884	0.0504079
54	0xbdff0734	-0.12452546
55	0xbdd735a3	-0.10508277
56	0xbcdb4cbe	-0.026769992
57	0xbcec979b	-0.028880885
58	0x3cd1d2b1	0.02561316
59	0x3d83b45b	0.064308845
60	0xbdeb5f18	-0.11492747
61	0x3d2c9166	0.04213085
62	0xbd75540f	-0.059894618
63	0x3cdc45c4	0.026888736
64	0x3dc4bd32	0.09606399
65	0x3a101311	0.0005496005
66	0xbbc82832	-0.0061083073
67	0xbe0a52d1	-0.13508154
68	0xbb885835	-0.0041609057
69	0xbcccb3eb	-0.024988135
70	0xbd23e392	-0.04001195
71	0x3dcd3b0e	0.100210294
72	0xbd5a4026	-0.053283833
73	0x3c56585f	0.013082593
74	0x3ded7b79	0.11595816
75	0xbd507423	-0.050892007
76	0x3d2c0a26	0.042001866
77	0xbdcc8460	-0.09986186
78	0xbd10aa46	-0.035318635
79	0x3cc1e67f	0.02366948
80	0xbddae150	-0.10687506
81	0x3d91c07a	0.0711679
82	0xbd84ade7	-0.06478482
83	0xbb98f8a8	-0.004668314
84	0xbdee0c70	-0.11623466
85	0xbd63515c	-0.055497512
86	0x3d3835b1	0.04497308
87	0xbd198dfc	-0.037488922
88	0xbc273054	-0.010204393
89	0x3d97b97a	0.07408424
90	0xbe2bf9dc	-0.16794533
91	0xbddc3469	-0.10752184
92	0xbd8c600e	-0.068542585
93	0x3da2787f	0.07933139
94	0x3d1e4989	0.038644347
95	0xbbee5a1e	-0.0072739264
96	0xbec52097	-0.38501427
97	0xbbf05888	-0.0073347725
98	0xbd50340a	-0.05083088
99	0x3db3318e	0.08749686
100	0xbdea1934	-0.11430588
101	0xbdc2a384	-0.095038444
102	0x3c038465	0.008027171
103	0x3cbe8bb4	0.023259975
104	0xbd153ae3	-0.036433112
105	0xbec304cc	-0.38089597
106	0x3d827675	0.0637025
107	0x3d504898	0.05085048
108	0x3b26689d	0.0025391944
109	0x3cdffbc7	0.027341736
110	0x3cc8e836	0.02452479
111	0xbcf1272e	-0.029437628
112	0x3d94baad	0.07262168
113	0x3cc39280	0.023873568
114	0xbce051ac	-0.027382694
115	0x3a572bb1	0.00082081096
116	0xbddf08b2	-0.108903304
117	0xbd9bbb38	-0.076040685
118	0x3d752669	0.059851084
119	0x3d20308d	0.0391088
120	0x3d97bb46	0.074087664
121	0xbdd01d4d	-0.10161839
122	0xbd9d05b7	-0.07667106
123	0xbc2db745	-0.010602777
124	0x3ddebfd0	0.10876429
125	0x3e84ec56	0.2596156
126	0x3d173019	0.036911104
127	0xba0c87ab	-0.0005360792
128	0x3cd26fed	0.025688136
129	0x3bec1950	0.007205166
130	0xbdb37a6e	-0.08763586
131	0xbd4197e3	-0.04726399
132	0xbdbade7e	-0.09124468
133	0xbd77ba89	-0.06048063
134	0xbd3825db	-0.044957977
135	0x3d320699	0.043463323
136	0x3da6b5b0	0.08140123
137	0x3c6fbce5	0.014632438
138	0xbd9ed538	-0.07755512
139	0x3de438f3	0.11143675
140	0x3ce51ff9	0.027969347
141	0xbd829441	-0.063759334
142	0xbce543fc	-0.027986519
143	0x3d6bf438	0.057605952
144	0xbdd667c7	-0.10469013
145	0xbd938c54	-0.072045
146	0xbea5b7db	-0.32366833
147	0x3e0e05ed	0.13869448
148	0x3c966cae	0.01836237
149	0xbe0fea05	-0.14054115
150	0xbdce30f1	-0.100679286
151	0x3d6eac24	0.058269635
152	0x3de22e59	0.11043996
153	0x3dc0f0e2	0.09420945
154	0x3c5db835	0.013532688
155	0xbc108ea8	-0.008823074
156	0x3db14526	0.08655767
157	0xbd7e4d44	-0.062085405
158	0xbd4024ce	-0.0469101
159	0x3b5c57ef	0.0033621748
160	0xba1090e0	-0.0005514752
161	0xbcf11b57	-0.029431982
162	0x3e0b179c	0.13583225
163	0xbdc6043d	-0.09668777
164	0xbd6fdbbe	-0.05855917
165	0xbe2ace51	-0.16680266
166	0xbd446313	-0.047946047
167	0xbe3aeb8c	-0.18253917
168	0x3e934fda	0.2877186
169	0xbd5cfa0e	-0.05394941
170	0xbda36666	-0.07978515
171	0x3da9127d	0.082554795
172	0xbd9c4556	-0.07630412
173	0x3d8ffe0d	0.07030878
174	0xbdf150b2	-0.117829695
175	0x3daead67	0.085291676
176	0x3e90aef0	0.28258467
177	0x3dcfe7da	0.10151644
178	0x3da2911e	0.07937835
179	0x38874e80	6.4519234e-05
180	0xbd71e05d	-0.05905186
181	0xbdbc6a74	-0.09199992
182	0xbd3c327b	-0.04594658
183	0xbd82e80f	-0.06391918
184	0xbddf00cc	-0.10888824
185	0xbdb146fa	-0.08656116
186	0xbd09e902	-0.03366948
187	0xbbae6099	-0.005321574
188	0xbcb36f7e	-0.02190375
189	0xbddbae21	-0.10726572
190	0x3b665ee1	0.0035151767
191	0xbd10f5a2	-0.035390504
192	0xbcf0a5a6	-0.029375862
193	0xbd902615	-0.070385136
194	0x3c764638	0.01503139
195	0x3be1c7c8	0.006890271
196	0xbc02db5b	-0.007986869
197	0x393fad66	0.00018279775
198	0x3cfa3dd4	0.03054706
199	0x3d8b0783	0.06788542
200	0x3c1271c8	0.00893826
201	0xbc907832	-0.017635439
202	0x3c85393d	0.016262645
203	0x3d018891	0.03162438
204	0x3e0170c9	0.1264068
205	0x3e49b155	0.19696553
206	0xbd6c5d9d	-0.057706464
207	0xbd0158ef	-0.031578954
208	0x3dc51367	0.09622841
209	0x3dcd6081	0.10028172
210	0xbca2082d	-0.01977929
211	0xbcb89742	-0.022533063
212	0x3d1e0eee	0.038588457
213	0xbd5cfc15	-0.05395134
214	0x3b4455c5	0.002995835
215	0x3debf43f	0.115211956
216	0x3dd7e96a	0.10542567
217	0xbdd3e45b	-0.1034629
218	0xbcd34f49	-0.025794642
219	0xbd17160e	-0.036886267
220	0xbd5234a8	-0.05131975
221	0x3e155622	0.14583638
222	0xbcdeafc0	-0.027183414
223	0xbd3952a4	-0.045244828
224	0x3d7cd87c	0.061729893
225	0x3cae5c81	0.021284344
226	0x3bf2f811	0.0074148257
227	0x3e23016e	0.15918514
228	0xbc227e2c	-0.009917777
229	0xbd2099a9	-0.03920904
230	0x3bd1b3bf	0.006399601
231	0xbc7f1f17	-0.015571377
232	0xbdac6704	-0.08418086
233	0x3c89a61e	0.016802844
234	0xbc469b42	-0.012121977
235	0xbded75d5	-0.1159474
236	0xbd893311	-0.06699193
237	0x3d5c6a70	0.053812444
238	0xbd14c168	-0.03631726
239	0x3ce017d3	0.02735511
240	0x3e67dcb2	0.22642782
241	0x3f0711bd	0.5276144
242	0x3d90406a	0.07043536
243	0xbe085566	-0.13313827
244	0x3d29819b	0.041383367
245	0xbdad9b7f	-0.08476924
246	0x3e2d9854	0.1695264
247	0x3df55164	0.11978415
248	0xbd882c37	-0.06649058
249	0xbdcd366c	-0.10020146
250	0x3cef4076	0.029205542
251	0xbdf15d91	-0.117854245
252	0xbda2ac62	-0.07943036
253	0xbd79d15d	-0.06099068
254	0xbcb3acc6	-0.02193297
255	0x3d6d7feb	0.05798332
