embeddings/actor02/angry_i02_s01_r01_layer5.npy (npy, 3200 bytes, 1 tensors)

array f4 [768]
0	0x3c9ab4a5	0.018884966
1	0x3ccf7072	0.025322173
2	0x3d32564f	0.04353934
3	0x3d36209b	0.04446469
4	0xbd65f115	-0.056138117
5	0x3e004766	0.12527236
6	0x3d64bc4a	0.05584363
7	0xbdb194a0	-0.08670926
8	0x3bbf97a5	0.005846935
9	0xbc2a8416	-0.010407468
10	0xbcb5aab9	-0.022176133
11	0xbc81463b	-0.015780559
12	0x3d15306b	0.036423128
13	0xbcca8e0f	-0.024725942
14	0xbdf8d9d8	-0.121509254
15	0x3d7eb6d8	0.062186092
16	0x3d282b39	0.041056845
17	0xbd7d0236	-0.061769687
18	0xbd2dffde	-0.042480342
19	0xbce05d42	-0.027388219
20	0x3ad7fabd	0.0016477924
21	0xbcdd4ff8	-0.027015671
22	0xbd500971	-0.050790254
23	0xbcfd82d1	-0.030946167
24	0x3ddc2855	0.1074988
25	0x3dbb6fc2	0.091521755
26	0xbcb5d510	-0.022196323
27	0x3db47894	0.08812061
28	0xbd4997e3	-0.049217116
29	0xbd6cac45	-0.057781477
30	0x395b2d9e	0.00020902461
31	0xbd9583b6	-0.073005125
32	0x3cef420f	0.029206304
33	0x3d6afd93	0.057370733
34	0x3d1af12e	0.037827663
35	0x3da08bc1	0.07839156
36	0x3d6e1497	0.058125105
37	0xbd75e37f	-0.06003141
38	0xbc55f6ac	-0.013059299
39	0x3d9138b0	0.070908904
40	0xbc1cf68d	-0.009580267
41	0xbd1b1f81	-0.03787184
42	0x3d7f700c	0.062362716
43	0x3d1f93ef	0.03895944
44	0x3dda0554	0.106455475
45	0x3e019219	0.12653388
46	0xbc1227a5	-0.008920585
47	0xbd842913	-0.06453147
48	0x3be6bea5	0.0070417696
49	0x3cbd62c1	0.023118379
50	0xbd7a4ced	-0.06110852
51	0xbd767444	-0.060169473
52	0x3d776d77	0.06040713
53	0xbdb8ce2b	-0.090236984
54	0xb9f77aa6	-0.0004720289
55	0xbe0fa420	-0.14027452
56	0xbd485433	-0.048908424
57	0xbcdc9ef8	-0.026931271
58	0x3c2ae4d5	0.010430534
59	0xbb7e5a8e	-0.00388113
60	0xbc00af2c	-0.007854264
61	0x3dd5fb8d	0.1044837
62	0x3ba01a54	0.004885951
63	0xbc9306ee	-0.01794764
64	0x3d303a13	0.043024134
65	0xbca9d713	-0.020732438
66	0xbb6ba744	-0.0035957852
67	0xbe035abd	-0.12827583
68	0x3dd461a4	0.10370186
69	0xbd6c5db6	-0.057706557
70	0xbcc0e3ba	-0.023546088
71	0x3d805e7a	0.0626802
72	0x3d9ae3cf	0.07562982
73	0x3d4faabf	0.050699946
74	0x3d5ffe0e	0.054685645
75	0xbbba1702	-0.0056790123
76	0x3ce2e23e	0.027695771
77	0xbdafc60d	-0.08582697
78	0xbcf663f3	-0.030076956
79	0xbafa2d0c	-0.0019086911
80	0x395e0d3d	0.00021176501
81	0x3d24cf95	0.04023703
82	0xbe2cab7d	-0.16862293
83	0x3c681ff7	0.014167777
84	0xbdfb1977	-0.122607164
85	0xbc80fbe7	-0.015745116
86	0xbd6a4a6b	-0.057199877
87	0x3d79cca3	0.060986172
88	0xbc196e7e	-0.009364722
89	0xbc8ab106	-0.016930114
90	0xbd09d1e1	-0.03364742
91	0xbca52318	-0.020158336
92	0xbd7dffbe	-0.062011473
93	0xbc9f96d6	-0.019481104
94	0x3d243874	0.0400929
95	0xbd20d6d4	-0.039267376
96	0xbdcc1fe1	-0.09967018
97	0x3be83ca3	0.0070873066
98	0x3bccb9dc	0.006247742
99	0x3b5b4230	0.00334562
100	0xbd747c1d	-0.059688676
101	0xbd946b40	-0.07247019
102	0x3d884174	0.06653109
103	0x3d093bf7	0.033504453
104	0x3cd4555c	0.025919609
105	0xbeb038a0	-0.344182
106	0x3b138192	0.002250765
107	0xbd95325d	-0.07284997
108	0xbc772879	-0.015085333
109	0xbd948856	-0.072525665
110	0x3b8b665b	0.004254145
111	0xbc8874d6	-0.016657274
112	0xbd4f538b	-0.050616782
113	0xbbc2b156	-0.0059415502
114	0xbd12575d	-0.035727847
115	0xbce92029	-0.028457718
116	0xbdc5f698	-0.09666175
117	0x3d917619	0.071026035
118	0x3ded17c3	0.11576798
119	0x3d5d1175	0.053971726
120	0xbb37f043	-0.002806679
121	0xbdf80d0a	-0.12111862
122	0xbe0c3287	-0.1369115
123	0xbd35d89c	-0.044396028
124	0x3dd07c15	0.10179917
125	0x3dc17631	0.09446371
126	0x3b8dbba8	0.004325349
127	0xbd3d4eb4	-0.046217635
128	0x3dc7bcaa	0.09752782
129	0xbd0a68f0	-0.033791482
130	0xbd1e5e2a	-0.03866402
131	0xbd03d243	-0.032182943
132	0xbde4ca19	-0.111713596
133	0xbd8c8589	-0.06861407
134	0xbcd693e4	-0.026193567
135	0x3d9bd214	0.076084286
136	0x3dd2714c	0.10275516
137	0x3c21ed8e	0.009883298
138	0xbde7775d	-0.113020636
139	0x3dc4602a	0.09588654
140	0x3c735568	0.014851905
141	0xbbead080	-0.0071659684
142	0xbdacbfd7	-0.08435028
143	0x3bd0cb1c	0.006371869
144	0xbd58d52f	-0.052937683
145	0xbca2361e	-0.019801196
146	0xbe0e67ee	-0.13906834
147	0x3b07a100	0.0020695329
148	0x3dd5d172	0.10440339
149	0xbda3a70b	-0.07990845
150	0xbda8e04d	-0.08245907
151	0x3ca00ff2	0.019538853
152	0x3d9a59a5	0.075366296
153	0xbe366d80	-0.17815208
154	0x3c71e536	0.014764121
155	0xbd84ec35	-0.064903654
156	0xbcf35c48	-0.029707089
157	0xbc178463	-0.009247872
158	0xbc1f0776	-0.009706369
159	0xbd73ed73	-0.05955262
160	0x3d85abba	0.06526895
161	0xbe52e960	-0.20596838
162	0x3c24b3c3	0.010052624
163	0xbd2a24a1	-0.04153884
164	0xbd34e9f0	-0.044168413
165	0xbe36181e	-0.17782637
166	0xbd6f388d	-0.05840354
167	0xbddc9e4f	-0.107723825
168	0x3eaf0e2e	0.34190506
169	0xbd82865b	-0.063732825
170	0xbc680c24	-0.014163051
171	0x3da389b6	0.07985251
172	0xbd8d79b8	-0.06907982
173	0x3c7be939	0.015375429
174	0xbc3f2371	-0.011666165
175	0xbd9435cf	-0.07236826
176	0x3d764b5f	0.060130473
177	0x3d7fd1f4	0.062456086
178	0x3d816f3f	0.06320047
179	0xbd80c5f1	-0.06287754
180	0xbd0155aa	-0.031575836
181	0x3c1a7ce6	0.009429192
182	0xbe028f68	-0.12750018
183	0xbd7a8127	-0.061158326
184	0xbdac43e8	-0.084113896
185	0xbcc099ef	-0.023510901
186	0xbd1a4bb6	-0.03766986
187	0xbdbb8039	-0.09155316
188	0xbcf7a5b2	-0.030230377
189	0xbdb063e9	-0.08612806
190	0xbb1a226a	-0.0023519048
191	0xbdaf8824	-0.08570889
192	0x3c4ced6b	0.012507777
193	0xbdea3d82	-0.11437513
194	0xbd4bf41d	-0.04979335
195	0xbcabded2	-0.020980272
196	0xbd16a746	-0.036780618
197	0x3db4c43a	0.0882649
198	0x3d4f9953	0.05068333
199	0x3d37b72d	0.044852424
200	0xbbe8ab9f	-0.007100537
201	0x3d33a017	0.043853845
202	0x3d1d5306	0.038409255
203	0x3d86bc67	0.06578904
204	0x3d6bfdf3	0.05761523
205	0x3d8c628b	0.06854733
206	0xbd061461	-0.03273428
207	0xbd043c16	-0.032283865
208	0x3dfe024e	0.12402783
209	0x3daf130a	0.08548553
210	0x3cb8bb89	0.022550361
211	0xba618c5a	-0.0008603983
212	0x3d17b82f	0.037040886
213	0x3d2727dd	0.0408095
214	0xbcd8dca9	-0.026472406
215	0x3da1410a	0.07873733
216	0x3c8bc2e4	0.017060705
217	0xbd80cdd9	-0.06289262
218	0x3c8b036e	0.016969409
219	0x3d11cfb6	0.03559848
220	0x3ba45377	0.0050148326
221	0x3dbe7baf	0.093009345
222	0xbc207bd0	-0.009795144
223	0xbc84085e	-0.016117271
224	0x3c819069	0.01581593
225	0x3cd0534b	0.025430342
226	0xbd904cfc	-0.070459336
227	0x3a23b3e6	0.00062447635
228	0xbc5d6ded	-0.013514978
229	0xbdb9716e	-0.09054838
230	0x3ce58fa1	0.02802259
231	0xbc283bc8	-0.010268159
232	0xbbab3b9a	-0.005225611
233	0x3c8bdd65	0.017073343
234	0xbcb68f93	-0.022285258
235	0xbd14ac3e	-0.036297075
236	0x3d38453b	0.0449879
237	0x3b1bf1c8	0.0023795236
238	0x3c619875	0.013769259
239	0x3d648713	0.05579288
240	0x3dcc0771	0.09962357
241	0x3f078f10	0.5295267
242	0x3dac9682	0.084271446
243	0xbe02d781	-0.1277752
244	0x3d2ce8dc	0.04221426
245	0x3c1e9e77	0.009681336
246	0x3d4c89c0	0.049936056
247	0xbd1cec20	-0.038311124
248	0xbdf46215	-0.1193277
249	0x3b8eebd5	0.0043616095
250	0x3c48f5d3	0.01226564
251	0xbe002ad2	-0.12516335
252	0xbd5e04e5	-0.054203887
253	0x3d4bbf6c	0.0497431
254	0x3b29da47	0.0025917457
255	0xbb8ad6c6	-0.004237029
