embeddings/actor02/happy_i01_s02_r02_layer5.npy (npy, 3200 bytes, 1 tensors)

array f4 [768]
0	0x3d8f66ed	0.070020534
1	0x3c5fc31a	0.013657356
2	0x3bb87c9e	0.00563009
3	0x3d9290b5	0.07156507
4	0xbe0b1325	-0.13581522
5	0x3da2c8e8	0.07948476
6	0x3c3ecbc7	0.011645264
7	0xbdd3c8ef	-0.103410594
8	0xbad4047d	-0.0016175654
9	0x3d21ce8d	0.039503623
10	0x3cc2ba7f	0.023770569
11	0x3de5b6bf	0.11216497
12	0x3d8e775d	0.069563605
13	0xbdb599d1	-0.08867229
14	0xbe05f286	-0.13080797
15	0x3d0e5e99	0.034758184
16	0xbccb3f43	-0.024810439
17	0x3d5626d0	0.05228311
18	0xbc689fa2	-0.014198216
19	0xbcb403bb	-0.021974435
20	0x3ad2d47b	0.0016085053
21	0xbde46b97	-0.11153334
22	0x3e15bf37	0.14623724
23	0xbd66fce2	-0.05639351
24	0x3d559596	0.05214461
25	0x3cb3d265	0.02195091
26	0xbc73fa44	-0.014891211
27	0x3d0c35c7	0.034230974
28	0xbda81c21	-0.0820849
29	0xbdb64584	-0.08899978
30	0x3dc53abd	0.09630344
31	0xbd156f3a	-0.036483027
32	0xbaebedc7	-0.001799994
33	0x3cd66549	0.026171343
34	0xbc332c99	-0.010935926
35	0xbbd327de	-0.0064439615
36	0xbd214702	-0.03937436
37	0xbb1573b1	-0.0022804553
38	0x3c179c93	0.009253639
39	0x3dc6be9b	0.09704324
40	0xbcbf4816	-0.023349803
41	0x3c84c401	0.016206743
42	0x3e065baa	0.13120905
43	0xbd52478e	-0.05133777
44	0x3dc366bc	0.095410794
45	0x3d8fb148	0.070162356
46	0xbc8a1931	-0.016857715
47	0xbd90c5b6	-0.0706896
48	0x3c46b7ef	0.012128814
49	0x3d98ae28	0.07455093
50	0xbd724f44	-0.059157625
51	0xbd5708bf	-0.052498575
52	0x3cc9efae	0.024650421
53	0xbd03ca16	-0.032175146
54	0x3cdd8cb9	0.02704464
55	0xbd57e863	-0.052711856
56	0xbcf6a506	-0.030107986
57	0x3d91656c	0.07099423
58	0x3d86ca62	0.0658157
59	0x39ff6cbe	0.0004871841
60	0xbd38ba7c	-0.04509972
61	0x3d18f2ec	0.037341043
62	0x3bc752e2	0.0060828784
63	0xbd98d162	-0.074618116
64	0x3ddd354c	0.10801181
65	0x3d16db9c	0.03683053
66	0x3b8f767c	0.004378138
67	0xbd09722f	-0.03355616
68	0x3d4e473f	0.050360914
69	0xbd290fb6	-0.04127475
70	0xbd1c84af	-0.038212474
71	0x3ce28cc3	0.027655011
72	0x3d0e853c	0.03479503
73	0x3b84e394	0.0040554497
74	0x3d9bd2d7	0.07608574
75	0xbd9d5c26	-0.076835915
76	0xbc29c379	-0.010361546
77	0xbd0d6b66	-0.03452625
78	0xbc6ea436	-0.014565518
79	0x3d6a7fea	0.057250895
80	0xbcada270	-0.02119562
81	0xbd8e5a22	-0.06950785
82	0xbdec2610	-0.11530697
83	0x3cd55fc8	0.026046649
84	0xbd7dc98c	-0.06195979
85	0xbd9877f3	-0.074447535
86	0xbc4ab81e	-0.0123729985
87	0xbbe92229	-0.007114668
88	0xbaca0895	-0.0015413935
89	0x3ca7ae7b	0.020468941
90	0xbdd836e1	-0.10557342
91	0x3de3bb1d	0.111196734
92	0x3c90d14c	0.017677926
93	0x3c66ab7d	0.014078972
94	0x3c8e8322	0.017396513
95	0xbd3b48fa	-0.045723893
96	0xbe0430be	-0.12909219
97	0x3c21316c	0.009838443
98	0x3cfdc6e9	0.030978637
99	0xbcd90503	-0.026491648
100	0xbcfd08ae	-0.030887928
101	0xbd52108e	-0.05128532
102	0x3c068bc1	0.008212031
103	0x3d7b89bf	0.06141066
104	0x3b12aba9	0.002238015
105	0xbe43dd65	-0.19127424
106	0xbc53785a	-0.012907112
107	0x3b06394d	0.0020480931
108	0x3c0ce71b	0.008600022
109	0x3ceb670f	0.028735666
110	0x3c5208fc	0.012819525
111	0x3d1a4987	0.037667777
112	0x3b777831	0.0037760849
113	0x3dd87f74	0.10571185
114	0xbdb13bf4	-0.08654013
115	0xbc89f3c5	-0.016839871
116	0xbcf11a7c	-0.029431574
117	0x3de4ff97	0.111815624
118	0x3d80cd8f	0.06289207
119	0x3d493f13	0.049132418
120	0xbc21ce86	-0.009875899
121	0xbdde329c	-0.10849497
122	0xbd8877e9	-0.06663496
123	0xbd0ac65a	-0.03388057
124	0x3e1afdfd	0.15135951
125	0x3e0d3235	0.13788684
126	0xbb91b663	-0.004446791
127	0x3b85e19a	0.0040857317
128	0x3c87c324	0.016572542
129	0x3ddea9ea	0.10872252
130	0x3d149cf8	0.03628251
131	0xbced2526	-0.028948378
132	0xbdcf020c	-0.10107812
133	0xbc1783e6	-0.009247756
134	0xbd5d6ede	-0.05406081
135	0x3cf1cbce	0.029516127
136	0x3dc8f17c	0.098116845
137	0xbd60f82e	-0.054924183
138	0xbccc5b65	-0.024945924
139	0x3e1a549d	0.1507134
140	0x3a3fc23a	0.0007315014
141	0xbd3d040a	-0.04614643
142	0xbe0df574	-0.13863164
143	0x3cb45a36	0.022015672
144	0xbdf140b9	-0.11779923
145	0x3e02313c	0.12714094
146	0x3d2ae88d	0.041725684
147	0x3d75db77	0.06002375
148	0x3ca6557e	0.020304438
149	0xbc14ef4f	-0.009090259
150	0xbcf87694	-0.03032998
151	0x3d968a17	0.07350557
152	0x3d47ac6d	0.048748422
153	0x3e6455cf	0.22298358
154	0x3cc5dae4	0.024152227
155	0xbd5fe951	-0.054665867
156	0xbd317c77	-0.04333159
157	0xbd8219bd	-0.063525654
158	0xbca7becd	-0.020476723
159	0xbcd93011	-0.026512178
160	0x3dc3bfc6	0.09558062
161	0xbe18bd8d	-0.14916058
162	0x3da7e3b0	0.08197725
163	0x3b3b79a1	0.0028606432
164	0xbd86cf1e	-0.06582473
165	0xbd8ec16e	-0.069704875
166	0xbd055f0a	-0.03256134
167	0xbdd71a5e	-0.10503076
168	0x3e2b531d	0.16730924
169	0x3d66293c	0.056191668
170	0xbdc32908	-0.095293105
171	0x3d4c7444	0.049915567
172	0xbd6a2517	-0.057164278
173	0xbd375f44	-0.044768587
174	0x3cd0229d	0.02540713
175	0xbd8445fd	-0.06458662
176	0x3b2b47a0	0.002613522
177	0x3ce3549b	0.027750304
178	0x3d94d9b5	0.07268087
179	0x3d098d26	0.033581875
180	0xbd4f0244	-0.05053927
181	0x3c3b822d	0.011444611
182	0xbd99855e	-0.07496141
183	0xbdb3f865	-0.08787612
184	0xbda35fed	-0.07977281
185	0xbda1773d	-0.07884071
186	0x3c98348b	0.018579742
187	0xbe006c6e	-0.12541363
188	0x3d72a7e2	0.059242137
189	0x3b49cb6e	0.003079142
190	0xbc5949b9	-0.013262206
191	0xbdeaa28c	-0.114567846
192	0x3b75468d	0.0037426085
193	0xbe450e63	-0.1924377
194	0x3d0310a7	0.031998303
195	0xbd4bab58	-0.049723953
196	0xbc81b767	-0.015834523
197	0x3d115a27	0.035486367
198	0x3c2c3975	0.010511746
199	0x3bd6dabd	0.0065568374
200	0xbd22c0c6	-0.039734624
201	0x3cf98d95	0.03046302
202	0xbaf9c9d9	-0.0019057348
203	0xbe0d0d66	-0.13774642
204	0x3c9c0209	0.01904394
205	0x3d6b3768	0.057425886
206	0xbcbd0191	-0.023072036
207	0x3c213210	0.009838596
208	0x3df7cd55	0.12099711
209	0x3c5013ad	0.012700004
210	0x3cee744e	0.029108193
211	0x3c106ca0	0.008814961
212	0x3c40e6f5	0.011773814
213	0x3d1a67fd	0.037696827
214	0xbd0ec14a	-0.034852304
215	0x3d158640	0.036504984
216	0x3ddf63ba	0.10907693
217	0x3d01380b	0.031547587
218	0x3c40997f	0.011755346
219	0xbc5325d1	-0.012887434
220	0xbdab3ba8	-0.08360988
221	0x3d9acffc	0.07559201
222	0xbccca44a	-0.024980683
223	0xbce89f6c	-0.02839633
224	0x3d75b606	0.059988044
225	0xbcbafe57	-0.022826357
226	0xbd86f464	-0.065895826
227	0xbd824895	-0.063615
228	0x3d856821	0.06514002
229	0xbdc82ba0	-0.09773946
230	0x3dc1f7c4	0.09471086
231	0x3c25d276	0.010120979
232	0xbd71a43c	-0.058994517
233	0xbd23dbab	-0.040004414
234	0xbd33deef	-0.043913778
235	0xbd9efb4a	-0.07762773
236	0xb8094a35	-3.2732456e-05
237	0x3c90e956	0.017689388
238	0xbbedbd1b	-0.007255209
239	0x3dee54f2	0.11637296
240	0x3e922fc8	0.2855208
241	0x3c73d739	0.014882856
242	0x3c9ce24d	0.019150877
243	0xbc4b9e95	-0.012427946
244	0xbbdac252	-0.006675997
245	0xbd0f8b96	-0.03504523
246	0x3dce2491	0.10065568
247	0x3cbb32d5	0.022851387
248	0xbc8780bc	-0.016540878
249	0x3ae17516	0.0017201032
250	0x3c611f3d	0.013740358
251	0xbdac04d1	-0.08399356
252	0xbd366b24	-0.04453577
253	0xbd45dcb0	-0.048306167
254	0xbdb6aa35	-0.08919183
255	0x3c740d4a	0.0148957465
