embeddings/actor07/angry_i01_s02_r01_layer5.npy (npy, 3200 bytes, 1 tensors)

array f4 [768]
0.048534654 0.065166034 0.0339126 0.025039611 -0.029073594 0.060925208 0.114653125 -0.07888044
-0.015606262 0.0013897867 -0.01745954 0.059661344 0.040241376 -0.044534504 -0.15816136 0.03489154
-0.16118224 0.013301911 -0.021023877 -0.032173418 -0.04280491 -0.020700958 -0.2637469 -0.00661201
-0.013331483 0.06322915 -0.018328689 0.07569701 -0.039036006 -0.16345339 0.07293581 -0.06270108
0.023706628 0.004141003 -0.088915356 0.11225328 -0.010637688 0.0062955655 0.012368593 0.11089339
-0.03496938 -0.07141898 0.09605723 -0.024028962 0.04309457 0.016204378 -0.0702035 -0.0066147195
-0.0147815915 0.05682246 -0.06588238 -0.0077300966 0.027339874 -0.045199435 0.004869359 -0.111554146
0.004560253 -0.03708436 0.025764976 -0.04242088 -0.0605169 -0.07329927 -0.0058255773 -0.032120105
0.13979904 0.020278405 -0.011666366 -0.1174282 0.039565694 0.023428882 -0.05219942 0.09101909
0.035884876 -0.044413075 0.090556145 0.031266715 0.020964826 -0.05049188 -0.019002967 -0.0051729255
-0.09598145 -0.05056781 -0.12365342 0.024254326 -0.04998018 -0.026341207 0.015091988 0.03370879
0.01872384 0.04187374 -0.061780162 0.030967895 -0.0064255786 0.022601504 -0.011312184 -0.05718884
-0.0035385215 0.016325867 0.02952411 -0.037689257 -0.017482646 -0.076644704 0.047005516 0.043508433
0.05384898 -0.21895202 -0.048619583 -0.022564204 -0.02927773 -0.034178328 -0.026948716 0.014182651
0.08287162 0.08567676 -0.06325519 -0.020278256 -0.05232821 0.08617986 0.049342807 0.02290895
0.05926492 -0.052237757 -0.06345061 -0.090394124 0.09437934 0.11361619 -0.078696534 0.035097647
0.0066037644 0.059608344 0.030547632 -0.06067447 -0.07175514 -0.05029775 -0.012827547 0.06687683
0.041115355 -0.07054031 -0.0077597047 -0.014131552 0.071070306 0.043248508 -0.11290546 0.13879575
-0.089143686 0.10228545 -0.17779316 0.102836914 0.06672618 0.046132747 -0.015723234 0.04428598
0.10090079 0.62538046 0.045386333 -0.0580935 -0.050124004 -0.02872263 -0.040575206 -0.015357158
0.051709052 -0.18224524 0.15350272 -0.013296288 -0.060043607 -0.14290197 -0.053143647 0.025341356
0.19973661 -0.049052346 -0.046315107 0.0740776 -0.064587116 -0.009724488 -0.024572724 -0.21750152
0.13321388 -0.037540365 0.03695177 -0.02675641 0.0044770325 -0.0066324286 0.032229125 -0.15017556
-0.048227224 -0.07363379 0.008591755 -0.07112253 -0.01914742 -0.044382174 -0.101174176 -0.12025284
0.05144906 -0.118383534 -0.023887228 -0.12421618 0.099585794 0.0032996377 0.020876044 -0.00087980245
0.011799618 -0.040623456 0.043489315 -0.015577672 0.055864777 0.14408341 -0.021524355 -0.016284082
0.09919801 -0.034531306 0.082895204 -0.00047930196 -0.0011914456 0.051925186 -0.050603803 0.023127766
0.014523231 -0.00032116813 -0.029796269 -0.006944445 -0.1299097 0.06772541 -0.02405469 -0.013712508
0.06463992 -0.0022246893 -0.0053462507 -0.051250808 0.026384894 -0.097276755 0.08154844 0.013511028
-0.08887276 -0.021374747 0.04206572 -0.06871609 0.032493208 0.0050996486 0.008804237 0.04628321
0.32310423 -0.28408808 0.0773852 -0.013259979 0.06961018 -0.026006833 0.100413315 -0.0781841
-0.074495785 -0.11739167 -0.005453851 -0.065928705 -0.04283449 -0.017319685 -0.024029432 -0.041356094
00000000: 46cc 463d c575 853d f0e7 0a3d df1f cd3c
00000010: bf2b eebc b68c 793d 42cf ea3d 118c a1bd
00000020: 68b1 7fbc 8129 b63a 4f07 8fbc 745f 743d
00000030: 24d4 243d d069 36bd 0df5 21be 6eea 0e3d
00000040: f50c 25be 42f0 593c 443a acbc 46c8 03bd
00000050: 3454 2fbd 0e95 a9bc d509 87be 8fa9 d8bb
00000060: 4b6c 5abc 497e 813d 0c26 96bc 0907 9b3d
00000070: 38e4 1fbd 5360 27be 5f5f 953d 6d69 80bd
00000080: 6734 c23c 40b1 873b 4119 b6bd 0ce5 e53d
00000090: b349 2ebc 084b ce3b a4a5 4a3c 131c e33d
000000a0: 0d3c 0fbd 1d44 92bd a7b9 c43d 63d8 c4bc
000000b0: ef83 303d 0bbf 843c dac6 8fbd 4ac0 d8bb
000000c0: 7d2e 72bc abbe 683d 57ed 86bd c04c fdbb
000000d0: dff7 df3c 0b23 39bd 258f 9f3b 8076 e4bd
000000e0: 2d6e 953b c5e5 17bd 1211 d33c 84c1 2dbd
000000f0: 92e0 77bd ed1d 96bd 7ce4 bebb 5f90 03bd
00000100: 7b27 0f3e e61e a63c 4924 3fbc 327e f0bd
00000110: a30f 223d eded bf3c 0fcf 55bd 3768 ba3d
00000120: 05fc 123d 7cea 35bd 8075 b93d 8711 003d
00000130: 6dbe ab3c 93d0 4ebd 1cac 9bbc a581 a9bb
00000140: ec91 c4bd 3120 4fbd 013e fdbd 02b1 c63c
00000150: 04b8 4cbd 84c9 d7bc 6344 773c 3a12 0a3d
00000160: bd62 993c cc83 2b3d 320d 7dbd 62b0 fd3c
00000170: a98d d2bb ca26 b93c bd56 39bc d83e 6abd
00000180: 8ae6 67bb d3bd 853c 8cdc f13c 0d60 1abd
00000190: c437 8fbc e6f7 9cbd db88 403d e635 323d
000001a0: c090 5c3d f534 60be 5425 47bd 91d8 b8bc
000001b0: dad7 efbc 93fe 0bbd 8ec3 dcbc 5a5e 683c
000001c0: 99b8 a93d 4c77 af3d f08b 81bd 961e a6bc
000001d0: 1b56 56bd 117f b03d af1b 4a3d 8dab bb3c
000001e0: c6bf 723d 42f7 55bd 65f2 81bd 8e20 b9bd
000001f0: f549 c13d 9baf e83d a62b a1bd 8dc2 0f3d
00000200: 6464 d83b e127 743d 073f fa3c cb85 78bd
00000210: 5cf4 92bd 0305 4ebd a22a 52bc b8f6 883d
00000220: 9368 283d 7077 90bd 1f45 febb 0688 67bc
00000230: 4f8d 913d 5925 313d fa3a e7bd 7920 0e3e
00000240: f790 b6bd 097b d13d 690f 36be 299c d23d
00000250: bca7 883d b1f5 3c3d 03ce 80bc 3765 353d
00000260: 13a5 ce3d ef18 203f 05e7 393d 73f3 6dbd
00000270: d44e 4dbd b94b ebbc 3032 26bd 979c 7bbc
00000280: dfcc 533d 7f9e 3abe d12f 1d3e add8 59bc
00000290: 49f0 75bd e554 12be 27ad 59bd ad98 cf3c
000002a0: c187 4c3e 1deb 48bd e9b4 3dbd ffb5 973d
000002b0: 4046 84bd 7553 1fbc bd4c c9bc b8b8 5ebe
000002c0: 3869 083e edc3 19bd bd5a 173d 4230 dbbc
000002d0: 12b4 923b d854 d9bb b002 043d 9fc7 19be
000002e0: e989 45bd 50cd 96bd 6fc4 0c3c b0a8 91bd
000002f0: 0ddb 9cbc 15ca 35bd 6834 cfbd 1f47 f6bd
00000300: 40bc 523d 1173 f2bd 26af c3bc 0d65 febd
00000310: a3f3 cb3d bc3e 583b 3d04 ab3c 8ba2 66ba
00000320: 2f53 413c c864 26bd da21 323d 7e39 7fbc
00000330: 77d2 643d 9a8a 133e d853 b0bc 3266 85bc
00000340: 5428 cb3d b370 0dbd f6c4 a93d d24a fbb9
00000350: 482a 9cba 81af 543d ef45 4fbd 7176 bd3c
00000360: d9f2 6d3c 7562 a8b9 4e17 f4bc 3a8e e3bb
00000370: 0c07 05be 9fb3 8a3d 570e c5bc 6daa 60bc
00000380: ef61 843d 18cc 11bb 9a2f afbb 5eec 51bd
00000390: 2225 d83c 0939 c7bd de02 a73d 5c5d 5d3c
000003a0: ec02 b6bd 181a afbc 1b4d 2c3d 05bb 8cbd
000003b0: 9917 053d f41a a73b a53f 103c 7793 3d3d
000003c0: eb6d a53e fe73 91be 227c 9e3d 6240 59bc
000003d0: c88f 8e3d 480c d5bc 7fa5 cd3d fc1e a0bd
000003e0: 3f91 98bd 0b6b f0bd 38b6 b2bb a105 87bd
000003f0: 3873 2fbd 03e2 8dbc 5fd9 c4bc 0265 29bd
