embeddings/actor04/happy_i02_s01_r01_layer5.npy (npy, 3200 bytes, 1 tensors)

array f4 [768]
000000 90 0f eb 3d 40 9f 6c 3b 2e d9 ac bc a2 c6 c0 3a
       0.11477578 0.0036105663 -0.021099653 0.0014707635
000010 6a aa f3 bd 30 31 1c 3e 7c 4d 10 3b 52 fc b2 bd
       -0.11897738 0.15253139 0.002201884 -0.087395325
000020 b2 56 95 3d 5e 67 bd 3c af 8e 55 3d 1c 25 ad 3d
       0.072919264 0.023120578 0.052138027 0.08454344
000030 42 ea 43 3c 47 ac ab bc 5f 87 8e bd 8c 57 dd bb
       0.011957707 -0.020956172 -0.06959414 -0.006754821
000040 e2 0c 87 3d 0a 47 1b bd dd e2 37 bd a5 a9 00 3b
       0.06594254 -0.037909545 -0.044894088 0.0019632366
000050 d9 a5 3d bd 84 57 e6 bc f6 b0 31 3e 60 2c 97 3d
       -0.046300743 -0.028117903 0.17352661 0.07381511
000060 fd f4 95 3d 33 e1 4f 3d cd 67 29 bd 44 68 af 3d
       0.073221184 0.050751876 -0.041358758 0.08564809
000070 20 bf 3c bd 0f bc 9d 3b d1 ca b3 bd ce 14 5a bd
       -0.04608071 0.004813678 -0.087789185 -0.053242497
000080 a0 fd 3d 3d 08 65 04 3d da be 45 3d dc 5d fc 3c
       0.046384454 0.032322913 0.048277713 0.030806474
000090 95 7e bc bc de 5a ec bc b7 c2 b3 bc ee b8 b3 3d
       -0.023009578 -0.028851923 -0.021943433 0.08775507
0000a0 53 7c 17 3d 99 32 1e bd ac 14 9c 3d 60 51 a8 3a
       0.0369838 -0.038622472 0.0762113 0.0012841634
0000b0 24 60 b8 3d df f1 b8 3d e5 80 b5 3c e8 bf 7d bd
       0.09002712 0.09030508 0.022156188 -0.061950594
0000c0 d1 3b bf bb fe a0 b5 3d 13 d0 0f 3d 8b 27 98 bd
       -0.005835988 0.088685974 0.035110544 -0.07429417
0000d0 3f 52 06 bb b1 b1 3d bd 4a 52 fe 3c 2f a8 be bd
       -0.00204958 -0.046312038 0.031045098 -0.09309422
0000e0 49 ec 4a bc 03 77 15 3c ea 76 87 bd be f9 17 3b
       -0.012385436 0.009122613 -0.06614478 0.002318963
0000f0 03 1f 6e bd f8 8d 0b bc 92 4f 82 3d f5 2e 50 bd
       -0.058135044 -0.008517735 0.06362833 -0.05082603
000100 5c 5a 1a 3c d8 7c 70 bd d8 fb 3e 3c d3 84 9f bd
       0.009420957 -0.05871281 0.011656724 -0.07789006
000110 56 a6 04 3e 46 f5 1c bd 15 8b a2 bc b7 3e bd 3d
       0.12954077 -0.03831985 -0.01984171 0.092404775
000120 c4 cd 46 3d e6 ac 0f 3d 2b 54 02 3c dc 97 98 bc
       0.048536077 0.035077 0.0079546375 -0.0186271
000130 47 20 1a bd d6 b0 4c bd fb b5 8c bd 22 2c 70 bc
       -0.03762844 -0.04997333 -0.068706475 -0.01465896
000140 4f 3a 2e bc a6 f0 cc 3d a3 36 b6 bd 2d a4 e7 bc
       -0.010634019 0.100068375 -0.0889714 -0.028276527
000150 44 8d ac bd fc f8 85 3c ce 6d 8b bc 55 ce 8f 3c
       -0.08425382 0.016354077 -0.017020132 0.017554441
000160 89 0d ba 3c 39 d8 cd 3c 0d 43 77 bd f7 82 85 3c
       0.022711532 0.025127517 -0.06036668 0.0162978
000170 7c d6 a9 bd 62 ab 71 3d bc a8 0c 3e 34 7a 2a 3c
       -0.08292863 0.059001334 0.13736242 0.010405112
000180 c2 7e 8c 3c 47 51 b9 3d 13 1c a1 ba b2 2c 5a bc
       0.017150287 0.090487055 -0.0012291692 -0.01331632
000190 c8 35 e3 bd 1c d7 85 bd cd 1b 85 3d 9d c6 08 3c
       -0.11094242 -0.065351695 0.06499443 0.008348134
0001a0 d0 d6 ae 3c 64 ad 99 be 93 25 31 3d 00 b4 73 bd
       0.021342665 -0.300151 0.043248724 -0.059497833
0001b0 6a b4 27 bc 17 5a 9c bd 51 90 ef bb b3 b0 55 bc
       -0.010235885 -0.07634371 -0.007310905 -0.013042617
0001c0 b2 ab 3b 3c bf c7 87 3d 3c 4e 9e bd d3 a7 66 bc
       0.01145451 0.066298954 -0.07729766 -0.014078098
0001d0 d3 86 d9 bd 77 a2 a9 3d c1 d6 31 3d ba 4a ba bc
       -0.10621419 0.08282941 0.043417696 -0.02274071
0001e0 40 2a 42 3d 0e bd d6 bd 0f dc 6a bd 5f d6 58 bd
       0.047403574 -0.10485278 -0.05733877 -0.052938815
0001f0 39 2d cb 3d dd 84 bb 3d ae af 21 3d ff 22 57 3b
       0.09920735 0.09156201 0.03947418 0.0032827256
000200 5d ca c6 3a 8c c2 cd 3c ea 06 86 bd 5a a9 a3 3c
       0.001516651 0.025117181 -0.065442875 0.019978214
000210 fa c2 b5 ba da cf a8 bc cb f8 48 bd e5 8d b3 3d
       -0.0013867312 -0.020606924 -0.049065392 0.087672986
000220 14 e1 a8 3c c9 96 34 3d ed d7 69 bd f3 7b 28 3e
       0.020615138 0.044089112 -0.05709069 0.16453533
000230 6a 56 f8 3c cd 04 5f bd 4a 11 16 bd 2c 27 50 3d
       0.030314643 -0.054447938 -0.036637582 0.050818607
000240 5c 38 28 be 65 57 a8 3c 64 d3 00 bc 33 69 af 3d
       -0.1642775 0.020549485 -0.007862899 0.08564987
000250 d6 ba be 3d 4a 7f 86 bd 92 5d 27 be ea 98 a2 3d
       0.0931298 -0.06567247 -0.16344288 0.07939322
000260 65 eb e7 3c dc 68 20 be b4 aa 8c 3d 9a 84 c2 bc
       0.028310487 -0.15665 0.068684965 -0.02374487
000270 20 3f 64 3d bc 23 39 bc 54 26 b1 3d dc 7e 6a 3c
       0.055724263 -0.011300024 0.08649889 0.014312472
000280 b4 e6 73 3d fa 8a 9a bd bc 69 d7 3d b1 03 cc 3b
       0.059546188 -0.07546039 0.10518214 0.006226026
000290 17 af d8 bd c5 ab 80 be e6 f6 43 bc 80 fc 6a bd
       -0.10580271 -0.2513105 -0.011960721 -0.05736971
0002a0 69 5b 36 3e 4a ac f0 bc 3b 8e 9a bd 7e 30 fa 3d
       0.17808308 -0.029379029 -0.075466596 0.122162804
0002b0 c1 30 0b bd 94 13 45 3c 3c 2c d0 bb 10 8e 9f 3d
       -0.033982042 0.012028594 -0.0063529294 0.07790768
0002c0 8e 3a fe 3c 68 78 40 3d d0 fa d1 3c b5 78 94 bc
       0.03103378 0.04698983 0.025632292 -0.018123964
0002d0 f7 0b 07 3d e1 d9 64 bd 39 b2 58 be df f2 80 bd
       0.032970395 -0.055871848 -0.21161737 -0.06296324
0002e0 b6 c7 86 bd 55 31 4b bd 36 db c7 bd cc cf 47 bd
       -0.065810606 -0.049607594 -0.09758608 -0.048782155
0002f0 86 e8 af 3c 71 e4 70 bd 11 78 dc bc 6c 0f 02 bd
       0.02147318 -0.05881161 -0.02691272 -0.03175299
000300 23 7a 44 bb c0 31 86 bd 4e b3 0d be f5 b0 7d 3c
       -0.0029980026 -0.06552458 -0.1383793 0.015484084
000310 2c 16 be bd d6 4e c8 3d bf bb 83 3c 0e c7 9f 3c
       -0.09281573 0.09780662 0.016080735 0.019504096
000320 8f f2 a8 bd 7e d5 a9 3c fc a4 fd 3c 52 1c 8b 3e
       -0.082493894 0.020731684 0.03096246 0.27170044
000330 aa 92 b4 3d c5 49 35 3b af c9 34 bd 29 d5 d1 bd
       0.088170364 0.0027662378 -0.044137653 -0.10245735
000340 58 31 c5 3d 7c cf 7d 3d a8 80 fc 3d 98 a5 ab bc
       0.09628552 0.06196545 0.12329227 -0.020952985
000350 93 ee 45 3d 92 27 bf bc 20 37 29 bc a0 8a de 3d
       0.048323225 -0.023334298 -0.010328084 0.10866284
000360 d5 f8 a5 3d 48 fd da bc de f4 49 bd b4 1c 9b 3d
       0.081041016 -0.026732102 -0.04930579 0.07573834
000370 81 54 9d bd 99 53 ab 3d 61 e9 13 3c 0e f9 9d bc
       -0.076821335 0.08365554 0.00902781 -0.019283798
000380 43 ff 19 bd ed 6c 35 3d 00 81 88 bb 24 81 59 3d
       -0.037596952 0.044293333 -0.0041657686 0.053101674
000390 72 0e e2 3c 92 e3 a6 bd f6 56 a4 3d 8a 16 b4 bb
       0.027594779 -0.08148874 0.08024399 -0.005495851
0003a0 7e 78 db bc 43 e8 db 3c e9 fe 65 bd 15 7e 84 bd
       -0.026790854 0.02684415 -0.056151304 -0.06469361
0003b0 7e 2e 74 3d d8 59 01 3c 41 b3 a3 ba 32 9f 25 3d
       0.05961465 0.007894956 -0.0012489335 0.040435024
0003c0 11 77 16 3e 24 bd 64 3f 0c a9 21 3d c2 81 9f bd
       0.14693858 0.89351106 0.039467856 -0.07788421
0003d0 80 15 5b 3d 91 f5 a6 bc 0d d6 87 3d 11 12 5e bd
       0.0534873 -0.020380767 0.06632624 -0.05421645
0003e0 25 83 92 bd 66 e1 3a 3e b0 46 2b bc 2a 3b 09 bd
       -0.0715392 0.18250045 -0.010453865 -0.03350369
0003f0 0f 06 8d bc 85 ab 80 3c e7 28 51 3c 46 df c3 bd
       -0.017214803 0.015706787 0.0127661 -0.095640704
