embeddings/actor04/happy_layer5.npy (npy, 3200 bytes, 1 tensors)

array f4 [768]
0	0x3d6e5bf7	0.058193173
1	0x3ca8e6ec	0.020617925
2	0x3cd5e975	0.026112298
3	0x3c98bb96	0.018644135
4	0xbdfc5ce2	-0.123224035
5	0x3dfde1e0	0.12396598
6	0x3db46b6e	0.08809553
7	0xbd633c4b	-0.05547742
8	0x3dcf5422	0.10123469
9	0xbbdf07cb	-0.006806349
10	0xbd303c54	-0.043026283
11	0x3d94edd4	0.072719246
12	0x3d6fb69f	0.05852377
13	0xbd31c523	-0.043400895
14	0xbe0d3b3b	-0.13792126
15	0xbcb3e948	-0.021961823
16	0x3d59609f	0.05307066
17	0x3d0357a1	0.03206599
18	0xbd418596	-0.047246538
19	0xbbae2c20	-0.0053153187
20	0xbc6064c2	-0.013695898
21	0xbd457ea5	-0.04821648
22	0x3ed8b07c	0.42322147
23	0xb9e06b60	-0.0004280461
24	0x3c5b2d4c	0.013377499
25	0x3d8e6ef7	0.069547586
26	0x3c050aa0	0.008120209
27	0xbacfb6d8	-0.0015847338
28	0xbd2ac041	-0.041687254
29	0xbe2e2a78	-0.17008388
30	0x3ce02ae2	0.027364198
31	0xbd825604	-0.063640624
32	0x3d88e5f3	0.06684484
33	0x3d2b7b7c	0.04186581
34	0x3d74ce38	0.059766978
35	0xbc63562c	-0.013875525
36	0xbbd46894	-0.0064821932
37	0x3cd43a48	0.025906697
38	0xbdf6eaea	-0.12056525
39	0x3d20f049	0.039291654
40	0xbc450e9e	-0.012027411
41	0xbc463306	-0.012097126
42	0x3e022630	0.1270988
43	0xbcf0e3e2	-0.029405538
44	0x3cf6c7ed	0.030124629
45	0x3e280158	0.16406763
46	0xbd130388	-0.03589204
47	0xbd289d2a	-0.04116551
48	0xbcf0d065	-0.029396245
49	0x3d66028a	0.056154765
50	0xbd132464	-0.035923377
51	0xbdb4bc58	-0.08824986
52	0xbd274a58	-0.040842384
53	0xbd20d173	-0.039262246
54	0xbd25ed62	-0.04050959
55	0xbdde4e4a	-0.10854776
56	0x3c21b258	0.009869181
57	0xbd1532f3	-0.036425542
58	0xbca02eb0	-0.019553512
59	0x3cb2285b	0.021747759
60	0xbdae4f8e	-0.085112676
61	0xbd23387d	-0.039848793
62	0x3bee4080	0.0072708726
63	0x3cb63297	0.02224092
64	0x3de92235	0.113834776
65	0xbbff3f18	-0.007789504
66	0xbd084c96	-0.033276163
67	0xbda3d7d4	-0.0800015
68	0x3d52b2a0	0.05143988
69	0x3d761eac	0.060087845
70	0xbcbc0d5a	-0.022955585
71	0x3d4734a6	0.048634194
72	0xbc3a3897	-0.011366031
73	0x3d8e245a	0.06940527
74	0x3d4ef591	0.05052716
75	0x3b588950	0.003304083
76	0xbc58bd20	-0.013228685
77	0xbc08bc91	-0.008345739
78	0xbd044b8e	-0.032298617
79	0xbdd5c371	-0.10437668
80	0x3c2ff3f9	0.01073932
81	0x3dc4d9a6	0.09611826
82	0xbe103b20	-0.14085054
83	0x3cb301d4	0.021851458
84	0xbe03bf56	-0.12865958
85	0x3cde500b	0.027137777
86	0x3d8afc15	0.06786362
87	0x3d1c847b	0.03821228
88	0x3c7dbe91	0.015487329
89	0x3d068634	0.03284283
90	0xbe22111b	-0.15826838
91	0x3cc858ab	0.024456343
92	0xbb4acc78	-0.0030944627
93	0x3d391e62	0.04519499
94	0xbcc6bc30	-0.024259657
95	0xbc331dc9	-0.010932394
96	0xbba9dfd8	-0.005184155
97	0xbd4e2046	-0.050323747
98	0x3c24e34c	0.010063957
99	0xbcf4d6e2	-0.02988762
100	0xbd01f6dd	-0.031729568
101	0xbde47964	-0.11155966
102	0x3c4b8c98	0.012423657
103	0x3d83e6a8	0.064404786
104	0x3c3cfea8	0.011535324
105	0xbea7cdcf	-0.32774207
106	0xbe0f0bfc	-0.13969415
107	0x3cd105cf	0.025515465
108	0xbb9b9b70	-0.004748754
109	0xbdd7f4a3	-0.105447076
110	0x3cc440ac	0.02395662
111	0x3c28d20e	0.010303987
112	0xbcb1e6b9	-0.021716462
113	0x3d4dd374	0.050250486
114	0xbcccbb9a	-0.0249918
115	0x3ba852f8	0.005136844
116	0xbe03ef72	-0.1288431
117	0x3d266b6d	0.040629793
118	0x3cad6ff4	0.021171547
119	0x3cef3ee6	0.029204797
120	0x3d90243a	0.0703816
121	0xbd99b958	-0.07506055
122	0xbdc46146	-0.09588866
123	0xbd5079ec	-0.050897524
124	0x3da4a9b9	0.080401845
125	0x3e2fe069	0.1717545
126	0xbbb63e0c	-0.005561596
127	0xbd5256c2	-0.05135227
128	0x3ce31be4	0.02772326
129	0x3dc866c6	0.097852275
130	0xbd921891	-0.07133592
131	0x3bb8b0b2	0.005636298
132	0xbdcfc8de	-0.10145734
133	0xbd2fe980	-0.042947292
134	0xbc74c042	-0.014938416
135	0xba625770	-0.0008634245
136	0x3d56f2b9	0.052477572
137	0x3c8301a9	0.015992003
138	0xbc074466	-0.008256054
139	0x3d149f5e	0.036284797
140	0x3d2015d7	0.039083328
141	0xbc5e36d7	-0.0135628795
142	0xbce4de25	-0.027937958
143	0x3d0c4778	0.034247845
144	0xbdbb1ba0	-0.091361284
145	0xbba8a98f	-0.005147166
146	0x3d9385bd	0.07203243
147	0x3d94ac54	0.072594315
148	0xbceaa16b	-0.028641423
149	0xbd9c9db0	-0.07647264
150	0xbd14e88c	-0.036354586
151	0x3aed717e	0.0018115488
152	0x3dff069c	0.124524325
153	0xbd34f924	-0.04418291
154	0x3d91e73f	0.07124185
155	0xbd7451b1	-0.05964822
156	0x3d11802a	0.035522617
157	0xbd2de355	-0.04245313
158	0x3c0020b2	0.007820295
159	0x3bfcd8e8	0.007716287
160	0x3dabcd77	0.08388799
161	0xbdcdaf4e	-0.10043202
162	0x3de5e776	0.11225788
163	0xbd5fa1c4	-0.05459763
164	0xbdddf25a	-0.108372405
165	0xbdf059f6	-0.11735909
166	0xbd60ad58	-0.054852813
167	0xbda18d39	-0.07888264
168	0x3e8dbb98	0.27682185
169	0xbda1cc96	-0.0790035
170	0xbc578044	-0.0131531395
171	0x3e0854e4	0.13313633
172	0xbd3deedc	-0.046370372
173	0x3d274e97	0.040846433
174	0x3cae8052	0.021301422
175	0x3dcb4906	0.099260375
176	0x3dc67d06	0.09691815
177	0x3e0add73	0.13561039
178	0x3d891e7e	0.06695269
179	0xbd976852	-0.073929444
180	0xbd0ac2bc	-0.03387712
181	0x3d100a5d	0.035166133
182	0xbe1999c3	-0.15000062
183	0xbdedbd54	-0.11608377
184	0xbdb9f902	-0.090806976
185	0xbcfb9a73	-0.030713296
186	0xbc25e0db	-0.0101244105
187	0xbe612b4d	-0.21989174
188	0xbc4b5fd3	-0.012412983
189	0xbce5f65e	-0.028071579
190	0xbd41b270	-0.047289312
191	0xbd00f98d	-0.03148799
192	0x3bf66104	0.0075188894
193	0xbe0d1857	-0.13778816
194	0xbd9cd850	-0.07658446
195	0x3cf5620e	0.029953983
196	0xbb638c10	-0.0034720935
197	0x3d86919a	0.0657074
198	0x3db821b7	0.089908056
199	0xbd365864	-0.04451789
200	0xbd93485d	-0.071915366
201	0x3dab6091	0.08368028
202	0x3d99d9d3	0.0751225
203	0x3e434ca0	0.19072199
204	0x3da92b43	0.08260205
205	0x3d84f2aa	0.06491597
206	0xbd52d174	-0.05146928
207	0xba89d757	-0.0010516447
208	0x3dc2acf4	0.095056444
209	0x3c0812df	0.0083052805
210	0x3c975c3b	0.018476596
211	0xbd17cc82	-0.03706027
212	0x3d8ed02a	0.06973298
213	0xbba91f2c	-0.0051611867
214	0xbbf0e5d4	-0.0073516164
215	0x3c5f52b8	0.0136305615
216	0x3de660d8	0.1124894
217	0xbbcecd08	-0.0063110627
218	0x3bcdabf0	0.0062766
219	0x3d4ae8a5	0.049538273
220	0xbd8c2501	-0.068429954
221	0x3d528f44	0.05140616
222	0xbcb256c0	-0.021769881
223	0x3d6da51b	0.058018785
224	0x3c266492	0.010155814
225	0x3cafabab	0.021444162
226	0xbc61b22b	-0.013775389
227	0x3d820951	0.06349433
228	0x3e08e121	0.1336713
229	0xbd3d9889	-0.046288047
230	0x3e0138f2	0.12619379
231	0x3d7b5627	0.06136146
232	0xbdc88d9e	-0.09792636
233	0xbab97304	-0.0014148657
234	0xbd838c83	-0.06423285
235	0xbdb97d42	-0.09057094
236	0xbd33825d	-0.043825496
237	0x3c177f76	0.009246698
238	0xbc1bb173	-0.009502756
239	0x3dac0f14	0.084013134
240	0x3dec5e92	0.11541475
241	0x3edce00b	0.4313968
242	0x3d68448a	0.05670599
243	0xbdc9872c	-0.09840235
244	0xbcb345df	-0.021883903
245	0x3bd3f0cb	0.0064679137
246	0x3e15cf4f	0.14629863
247	0xbda299b6	-0.07939474
248	0xbd2ebff4	-0.04266353
249	0x3d8bf5dd	0.06834004
250	0xbd92b0ce	-0.07162629
251	0xbda48ae0	-0.08034301
252	0xbd5170fb	-0.051133137
253	0xbdbd5cf8	-0.09246248
254	0xbd06203f	-0.032745596
255	0x3d5a155c	0.053243026
