embeddings/actor03/angry_i02_s01_r02_layer5.npy (npy, 3200 bytes, 1 tensors)

array f4 [768]
0	0x3d9c8c29	0.07643921
1	0x3dc7f844	0.0976415
2	0x3da75b85	0.08171753
3	0x3da1f94d	0.079088785
4	0xbcd7fa66	-0.026364516
5	0x3dbb4857	0.09144657
6	0x3da8ab5f	0.082358114
7	0xbddcc758	-0.10780209
8	0x3d3ad885	0.045616645
9	0xbbfcd88a	-0.007716243
10	0xbd052dd5	-0.032514412
11	0x3d7e3180	0.062058926
12	0x3d0b44ed	0.03400128
13	0x3d631bb8	0.055446357
14	0xbca0f229	-0.019646721
15	0x3d2e1e34	0.042509273
16	0x3d0c004f	0.03417998
17	0xbb4092ad	-0.00293843
18	0xbdda3a0c	-0.10655603
19	0xbc6d657d	-0.014489529
20	0xbd521e0f	-0.051298197
21	0x3cb1db5f	0.02171105
22	0xbe1900fe	-0.14941785
23	0x3ce81530	0.028330415
24	0x3dc27b06	0.09496121
25	0x3cf56c5e	0.0299589
26	0xbdac4859	-0.08412237
27	0x3d8d4018	0.068969905
28	0xbd337c2d	-0.043819595
29	0xbdaba00e	-0.083801374
30	0xbc9280b8	-0.017883644
31	0xbdcac7f4	-0.09901419
32	0x3d1a0da4	0.037610665
33	0x3d541508	0.05177787
34	0xbcb7e00d	-0.022445703
35	0x3d22f6a2	0.03978599
36	0xbd1463fc	-0.036228165
37	0xbdc44d40	-0.09585047
38	0xbdbed5fe	-0.093181595
39	0x3da03c17	0.07823961
40	0x3cca06ca	0.02466144
41	0xbc5837fd	-0.013196942
42	0x3d47f214	0.048814848
43	0xbd4fefe0	-0.050765872
44	0x3d9ded45	0.07711271
45	0x3d79b98f	0.060967978
46	0xbc94567d	-0.018107647
47	0x3c96f701	0.018428328
48	0x3ba46b62	0.005017684
49	0x3e072bf3	0.13200359
50	0xbcd33286	-0.025780927
51	0x3bd04d53	0.006356874
52	0x3dca48cf	0.098771684
53	0xbd2a9dec	-0.041654512
54	0x3d7558bc	0.059899077
55	0xbdd95eb1	-0.10613764
56	0x3b01b6c5	0.0019792777
57	0xbd9cdd6c	-0.0765942
58	0xbd1c815a	-0.038209297
59	0xbb83fa1f	-0.0040276195
60	0xbcbe2e97	-0.023215575
61	0x3e1378c8	0.14401543
62	0x3d9de713	0.077100895
63	0x3cc01d87	0.02345158
64	0xbba592b6	-0.0050528897
65	0x3d64c52e	0.055852108
66	0xbc39efa0	-0.011348635
67	0xbde82b61	-0.11336399
68	0x3db25bf4	0.08708945
69	0x3cc69a55	0.024243513
70	0x3c4e965d	0.012609092
71	0x3dd65bda	0.10466738
72	0xbce0bd25	-0.027433941
73	0x3d2ee27e	0.04269647
74	0x3d72dff5	0.059295613
75	0xbbc46025	-0.0059929066
76	0xbbfed104	-0.0077763814
77	0xbd495dfa	-0.04916189
78	0xbcf115cb	-0.029429337
79	0x3b8cd7f2	0.0042982036
80	0xbd479576	-0.04872652
81	0x3d71a0db	0.058991294
82	0xbd49538e	-0.04915195
83	0x3c994bd1	0.01871291
84	0xbdf864d9	-0.1212861
85	0xbd1d9608	-0.03847316
86	0xbc235c5a	-0.009970749
87	0xbd394bf4	-0.04523845
88	0x3a431fa6	0.00074433757
89	0x3d9004b6	0.070321485
90	0xbe093cf5	-0.1340216
91	0x3d90c92b	0.0706962
92	0xbcce484d	-0.02518096
93	0xbcbfab07	-0.023396982
94	0xbd0c01ee	-0.034181528
95	0xbce9a0ab	-0.028518995
96	0xbe9e628b	-0.30934557
97	0x3ca64c31	0.020300003
98	0xbd664e4a	-0.056227006
99	0x3d946d7e	0.072474465
100	0xbc8a48bb	-0.016880384
101	0xbcb48ad4	-0.022038855
102	0x3d13a4c2	0.036045797
103	0x3b44341a	0.0029938282
104	0xbd14f2a3	-0.03636421
105	0xbe89147c	-0.2677344
106	0x3dd333a4	0.10312584
107	0x3b3d01c7	0.002884017
108	0x3c1ff212	0.009762304
109	0x3ae63eab	0.0017566284
110	0xbd306590	-0.043065608
111	0xbd28b034	-0.041183665
112	0x3d2c1a80	0.04201746
113	0xbcd649e2	-0.026158277
114	0x3b95a4ec	0.0045667794
115	0xbd134ece	-0.035963826
116	0xbde37c42	-0.11107685
117	0xbd279e0d	-0.040922213
118	0x3dc549a7	0.09633189
119	0x3b60d4b7	0.0034306475
120	0x3d5f866b	0.05457155
121	0xbd9618fa	-0.07328983
122	0xbda03dd4	-0.07824293
123	0xbb03f39e	-0.002013422
124	0x3dfe2c19	0.12410755
125	0x3db2db06	0.08733182
126	0x3da63594	0.08115688
127	0xbd367102	-0.044541366
128	0x3935b77b	0.00017329857
129	0xbaaa7f9a	-0.0013007999
130	0xbda7fde7	-0.08202725
131	0xbd0b2fed	-0.033981252
132	0xbcea0664	-0.0285675
133	0xbd6ec94c	-0.05829744
134	0xbd9e46df	-0.07728361
135	0x3d318c07	0.04334643
136	0x3d9240a3	0.07141235
137	0x3cb49d7a	0.022047747
138	0xbd76b21c	-0.060228452
139	0x3dc1764c	0.094463915
140	0x3c8bb651	0.017054709
141	0xbce5e04b	-0.028061053
142	0xbd4b8c70	-0.04969448
143	0x3c6ba914	0.014383573
144	0xbe1e5f8c	-0.15466136
145	0xbce98884	-0.028507479
146	0xbe259372	-0.16169527
147	0x3da49798	0.08036727
148	0x3d983497	0.07431906
149	0xbde7f78f	-0.11326515
150	0xbe25b2fc	-0.16181558
151	0x3dcf91cc	0.101352304
152	0x3e117fa7	0.14208852
153	0xbd2f6794	-0.04282339
154	0xbc9c5f8a	-0.019088525
155	0xbc85c735	-0.01633034
156	0x3d16625c	0.036714897
157	0xbd62ba95	-0.05535372
158	0x3afeaf71	0.0019430948
159	0xbcbe3f4e	-0.023223545
160	0x3d81022d	0.06299243
161	0xbdc391be	-0.095492825
162	0x3ddb180f	0.10697948
163	0xbd2ece04	-0.04267694
164	0xbd2d60ae	-0.04232853
165	0xbe06955b	-0.13142912
166	0xbcddd367	-0.027078344
167	0xbd9437c4	-0.07237199
168	0x3e650fdd	0.22369333
169	0xbd17f668	-0.037100226
170	0xbd174686	-0.03693249
171	0x3d17f299	0.037096594
172	0xbdaefba6	-0.08544092
173	0x3d229488	0.03969243
174	0xbdac1254	-0.08401933
175	0x3dcb21cc	0.099185556
176	0x3e21b376	0.15791115
177	0x3d9576d9	0.07298059
178	0x3d66b435	0.056324203
179	0xbd6112ed	-0.05494969
180	0xbd42811e	-0.047486417
181	0xbd2d85dd	-0.04236399
182	0xbdbdbc84	-0.09264472
183	0x3d8636eb	0.065534435
184	0xbbe3db4f	-0.006953634
185	0xbd5600e5	-0.052246947
186	0xbdfa65c8	-0.122264445
187	0xbd987b3a	-0.074453786
188	0xbd12b7b4	-0.035819724
189	0xbd15a6b3	-0.03653593
190	0x3c96f530	0.018427461
191	0xbc73c06d	-0.014877421
192	0xbc598c5b	-0.013278092
193	0xbd013c47	-0.031551626
194	0xbdc82b94	-0.09773937
195	0xbc22cf41	-0.0099371085
196	0xbc20df4a	-0.009818861
197	0x3d9d8144	0.07690671
198	0x3d249595	0.040181715
199	0x3d7c277a	0.061561085
200	0xbc0cb709	-0.008588561
201	0xbc447856	-0.011991581
202	0x3d8e5873	0.06950464
203	0x3d47e378	0.048800915
204	0x3e0cf608	0.13765728
205	0x3e33e0a4	0.17566162
206	0xbd1fb46d	-0.038990427
207	0xbdc11d72	-0.094294444
208	0x3d85696a	0.06514247
209	0x3d6da71a	0.05802069
210	0x3d64b8b2	0.0558402
211	0xbc5e767f	-0.013578056
212	0x3d21645c	0.03940235
213	0xbc4209f2	-0.011843191
214	0xbd28cac5	-0.041209
215	0x3da26e9a	0.07931252
216	0xbc20a9c2	-0.009806098
217	0xbdd5ff22	-0.10449053
218	0xbd08a9ab	-0.033364933
219	0xbc49af17	-0.012309811
220	0xbd50be97	-0.05096301
221	0x3d8d8dbb	0.069117986
222	0xbc88f818	-0.016719863
223	0x3d308c9a	0.043102838
224	0x3d4ca534	0.049962237
225	0x3cf99bb6	0.030469757
226	0x3c861ad0	0.016370207
227	0x3d1751f7	0.036943402
228	0x3c9b4283	0.018952614
229	0xbdb9a457	-0.090645485
230	0x3d2f015d	0.04272591
231	0x3d07731c	0.03306876
232	0xbd158c10	-0.036510527
233	0xbd195590	-0.037435114
234	0xbc67eb99	-0.014155292
235	0xbdac1684	-0.08402732
236	0x3d6aa046	0.057281755
237	0x3ccc781c	0.024959616
238	0x3ccf6973	0.025318837
239	0x3c057eb4	0.008147884
240	0x3e09b07b	0.13446228
241	0x3ec2ed2f	0.38071582
242	0x3d0adb9f	0.033900853
243	0xbd8bcb5b	-0.06825896
244	0x3d539a07	0.051660564
245	0xbd6a7369	-0.05723897
246	0x3da997dc	0.08280918
247	0x3d9e5de2	0.077327505
248	0xbdd57765	-0.10423163
249	0x3d349748	0.044089586
250	0x3d13c6ca	0.036078252
251	0xbda049ea	-0.07826598
252	0xbd1d940d	-0.03847127
253	0xbca40ec1	-0.020026566
254	0x3d393c91	0.045223776
255	0x3d19b752	0.037528343
