embeddings/actor03/angry_layer5.npy (npy, 3200 bytes, 1 tensors)

array f4 [768]
00000000: d942 bb3d 492f f13d eebb 923d 1b4c 5b3d
00000010: 3310 c2bd bef4 6e3d 36bc 073e 8894 b0bd
00000020: 755f 1f3d 20f3 d13c a424 60bd b809 e63d
00000030: d863 363d e2d8 a83d 7539 08bd 50f6 563c
00000040: 8c6d 173d 5e2e bb3b d4a2 d0bd 7d6c cd3c
00000050: 36bc 82bd d537 b13d f601 13be dfb1 903d
00000060: 202b 4eba 6686 df3c 3615 e4bc 7a73 ac3d
00000070: 344b 86bc d0dc a4bd dff4 f53c 9822 ffbd
00000080: 8481 0abc e9b8 c63d 43af 13bd 6bc9 1f3d
00000090: 788f 333c 2d46 85bd e4f0 02be d985 5b3d
000000a0: aff1 dcbc 3665 34bd ce57 9b3d 758f 52bd
000000b0: 46a1 983d 1160 c13d 113e 0bbd 7c47 103b
000000c0: 46a2 08bd 149a 0e3e 2a1b 5fbd f7d9 1bbc
000000d0: 6ade 2b3e 95d7 a53b 1eb0 373c 0cd7 edbd
000000e0: 1521 d1bc 0fdc e3bd c347 123b 67f3 8e3c
000000f0: f7bd 0fbd 7cbb 8d3d 0e4b a23d 9af1 8e3d
00000100: 6682 5b3d eb81 fd3c a750 3ebd dc9c 31be
00000110: bbfe 773b 2621 743d a128 da3b 6de8 bd3d
00000120: 5952 debd f1e5 ee3c fc85 a53d 6c81 9abc
00000130: dc55 bb3c 35ed b13b 0294 e1bc d767 633b
00000140: 90de e8bd 9187 803d 3afe 04bc be62 4a3d
00000150: 8edb 1ebe 8f0a 06bc 9067 ab3c 4c3f c9bd
00000160: 637f afba 10db 1a3d 94ad 9abd fedc 7b3c
00000170: 1eba babc 86f5 24bb f0c3 26bd 425c 16bd
00000180: c8e3 63bd 0aea 363c 05b1 53bd cf60 513d
00000190: 9545 1abd bcc2 9fbd bee3 743c 35a1 9a3b
000001a0: 8d82 84bd 4d5b 64be d0b5 0f3c 7855 383d
000001b0: 7387 5fbc db25 59bd 9812 eabc 09b3 05bd
000001c0: c4a0 913d b429 4a3d b88d ba3a a611 2a3c
000001d0: a80c cabd 95a2 b0bd 0877 713d 6874 ff3c
000001e0: 4079 143e 5816 9bbd f3e5 7ebd 3b9e 333c
000001f0: e94f d53d 7a2a 163e f87d ed3d 00d0 ac36
00000200: df08 81bb 4c7c c83b 1087 95bd 39f6 183d
00000210: b998 2c3d d97d b5bd 1c5a 70bd ae0c b8bc
00000220: 7a74 9a3d b1a2 65bc 52e5 7dbd fa4c 0e3e
00000230: 398d 163d 11e4 06bd bb29 8dbd ba0c 973d
00000240: f57a c3bd b2ae bebb 34fc 4fbe 1e28 c93d
00000250: 0637 983c 3425 1bbe 46d2 abbd 77aa b43d
00000260: 85ac e83d 54ea 6c3e e47f 5c3c 6738 443c
00000270: b9e4 be3d 4a2f c6bd b89e 943c b9be bbbb
00000280: f3ef ad3d 45cb cabd de5f b83d 2ca5 eebd
00000290: 7cd6 a6bd c820 08be e555 ac3c 4605 85bd
000002a0: b61d 5a3e bba1 9dbd c3b2 02bd 9780 ba3d
000002b0: 2b78 46bd e2b4 2b3d 2785 d4bd 2969 323e
000002c0: f2c9 3a3e 8ea0 a93d 6341 9c3d 16c5 1ebd
000002d0: 02ed 5cbc 17f7 b9bd 1961 31be 5ba3 dbbc
000002e0: 240e 8bbd a10d 69bd 4d6b 9ebd 64a2 bdbd
000002f0: cc7a 71bd fecb 54bd 1319 c33c 4198 1dbd
00000300: 46b4 91bc 517f 37bd 8693 8abb 46cc 2abd
00000310: df20 48bd 5ef5 8e3d e62d 8b3d f9c9 58bc
00000320: e8af 0dbd c295 4e3c 9f83 613c 52bf 793c
00000330: f2b8 0e3e 5f75 293e 32e1 88bd 70e6 82bd
00000340: a555 bf3d c629 423d c229 75bc 3374 6ebd
00000350: 5232 493d 1bf9 7abd 0ce0 fbbc 8a50 943d
00000360: 3867 e5bc 11fc a2bd acf6 fabc 2da2 8f3c
00000370: c3f1 93bd 4248 f23d 2719 adbd b5a4 463d
00000380: 9355 933d f5b4 9e3d c4f6 a43d 84c9 dd3d
00000390: cfbd 9b3d 3a36 0bbd 35ec 0a3d 699a 813d
000003a0: 25b3 22bd ab7c adbd f1c4 a53a c5e2 38bd
000003b0: edcf df3c 0bee 093d 6351 54bc abdf 283c
000003c0: a896 a93d 5bfc 8c3e 4bf3 7f3d 5932 b0bc
000003d0: dfc6 6d3d 21c0 bcbd 9e34 bc3d 952b f23d
000003e0: 35b4 71bd 3ba1 0b3c 795b c93d 7a4a 53bd
000003f0: 1a25 18bd 434e 5dbd c981 eb3c 6728 e23d
0.091436096 0.11776597 0.07164751 0.053539377 -0.09475746 0.058338873 0.1325539 -0.0862208
0.038909394 0.025628626 -0.054722443 0.112323225 0.044528812 0.08244492 -0.03325792 0.013120249
0.036969706 0.0057123145 -0.10187307 0.025076145 -0.06383555 0.08653227 -0.14356217 0.07065176
-0.00078647025 0.027285766 -0.027842145 0.08420463 -0.016393282 -0.08049929 0.03002399 -0.1245777
-0.0084537305 0.097032376 -0.036055814 0.039010447 0.010959499 -0.065075256 -0.12787205 0.053594444
-0.026970712 -0.044041835 0.07585107 -0.051406343 0.074526355 0.09442151 -0.033994738 0.0022015264
-0.03335788 0.13925964 -0.054469265 -0.009512416 0.16784063 0.0050611 0.011211423 -0.116132826
-0.02552847 -0.11125957 0.0022320605 0.017450048 -0.035093274 0.069205254 0.07924472 0.069796756
0.053591155 0.030945739 -0.046463635 -0.17344993 0.003784104 0.059601925 0.0066576754 0.09272847
-0.1085555 0.029162379 0.08082196 -0.018860541 0.02286809 0.0054298886 -0.027536396 0.0034699345
-0.113705754 0.06275857 -0.008117253 0.049410574 -0.15513441 -0.008181228 0.020923406 -0.09826526
-0.0013389405 0.03780657 -0.07552639 0.015372513 -0.022793826 -0.0025170757 -0.040714204 -0.036709078
-0.05563715 0.011164198 -0.05168249 0.051117714 -0.037664015 -0.078008145 0.014946876 0.0047189244
-0.06470213 -0.22300453 0.008771375 0.045003384 -0.013643133 -0.053014617 -0.02857332 -0.032641444
0.07110742 0.049356177 0.0014232909 0.010380184 -0.09865695 -0.0862476 0.058951408 0.031183437
0.14499378 -0.07572621 -0.062231015 0.010963018 0.10415632 0.14664641 0.11596292 5.150214e-06
-0.003937825 0.006118333 -0.07301152 0.03734419 0.042137835 -0.08861894 -0.058679685 -0.022466984
0.075417474 -0.014015839 -0.061986275 0.13896552 0.036755774 -0.032932345 -0.06892725 0.07375474
-0.095449366 -0.005819165 -0.20311052 0.09822105 0.018580925 -0.1515091 -0.08389716 0.08821576
0.113610305 0.23136264 0.013458226 0.011976338 0.09320969 -0.096769884 0.01814209 -0.005729523
0.08493032 -0.09902052 0.0900266 -0.11652598 -0.081463784 -0.13293755 0.021037051 -0.064951465
0.21300396 -0.07696863 -0.03190876 0.09106558 -0.048454445 0.04192055 -0.10376959 0.17422928
0.18241099 0.082825765 0.07629659 -0.038762175 -0.013484241 -0.09080332 -0.17322196 -0.026811292
-0.067898065 -0.056897763 -0.0773531 -0.09259489 -0.058955 -0.051952355 0.023815667 -0.03847528
-0.017786156 -0.044799153 -0.004229012 -0.041698717 -0.048859473 0.06980394 0.06795864 -0.013231748
-0.034591585 0.012608947 0.013764291 0.015243368 0.13937739 0.1654868 -0.066835776 -0.06391609
0.09342507 0.04740312 -0.014963569 -0.058216285 0.049120255 -0.06127272 -0.030746482 0.07241924
-0.02800332 -0.07958234 -0.0306352 0.017533386 -0.07223847 0.11830188 -0.08452063 0.04849692
0.07194056 0.077493586 0.08054879 0.10829452 0.076045625 -0.03398726 0.03391667 0.063282795
-0.039721627 -0.08471044 0.0012647194 -0.04513814 0.027320826 0.03367428 -0.012958857 0.010307233
0.082806885 0.27536282 0.06248788 -0.021508383 0.058050986 -0.09216333 0.091897234 0.11824719
-0.05900975 0.008522327 0.098319 -0.0515847 -0.037144758 -0.054029714 0.02874841 0.110428624
