embeddings/actor03/happy_i01_s02_r01_layer5.npy (npy, 3200 bytes, 1 tensors)

array f4 [768]
00000000: 5072 bc3d 7e07 583d 0c4e d0bb 2899 143d
00000010: 3158 07be 95a6 783d e5d0 193d c2a8 97bd
00000020: 8b46 213d 3c22 a93c 52a1 323c da9f 8f3d
00000030: 6fad dc3a 361c 0bbb fab2 f7bd 6691 233d
00000040: 66d9 10be ffba e33c c051 2abd fdc9 dc3c
00000050: eebb 79b8 272a a63c 6f9b 2cbe 6f2e d3bc
00000060: 2fc9 30bd 61c9 a73d 851e 713d 8d86 1f3d
00000070: 4415 c1bd bb45 10be 8eeb d6bc 367a afbd
00000080: 09c6 813d feaf d33c f994 23bc 0f90 ea3d
00000090: 1501 603c 2b81 7a3b 8dde b2bd 8ee4 473d
000000a0: f027 a3bd da0e b8bd d4dd 973d b045 8e3c
000000b0: e164 febc 6343 4d3c ea76 8bbc bf83 27bd
000000c0: ae74 61bd b034 bc3d 61b0 83bd d25d 76bc
000000d0: 5632 bb3c 2e20 23bd ee53 aebb a9a9 17be
000000e0: a581 c0bc eb38 983c 0ad6 a43c 5f9a 58bc
000000f0: e9e9 0b3d d682 823b 132b e63b ae44 713c
00000100: f7d1 df3d 92fd 143d dfc4 56bc 11cc 77bd
00000110: 7821 bb3c 5b81 8abd 973a 73bd 3b95 913d
00000120: f814 f5bb 6bb7 d23c 7505 1d3c 7269 31bd
00000130: 63cb d83c e533 86bd bd08 753c 5039 e33d
00000140: 7836 9abd 278a 853d e371 8ebd 90ca 713d
00000150: 688b c0bc 1445 b4bd 3bad 94bd b3bd 5d3c
00000160: 0e72 7c3c a68f c83d 2a63 a3bd 1150 733d
00000170: fb7a e13c 8e7e 673d c887 833a 72bb dcbd
00000180: ce0d fdbd 198d 803d 2886 2e3d 48e0 3ebc
00000190: 8db6 5cbc 5fa8 49bd db8f 8b3c cc1e 8d3c
000001a0: e79b 293d e4cc 0fbe 8737 8dbd 533a 273d
000001b0: 7dbd 743c 65e3 e8bc 01aa dc3c 1146 eb3c
000001c0: fb03 203c d832 0d3d 8827 ebbd 8ca4 57bd
000001d0: 3856 7bbd e326 27bd 280c d53b 4729 843d
000001e0: 0c34 5b3b 263d c4bd 8679 9e3b b25c a6bd
000001f0: c752 093e faed 6a3d b9bf 83bd 91c1 ce3c
00000200: a144 2ebd cf76 e43d 5cf8 63bd e76d 823c
00000210: 00a4 0ebe ff71 4bbb 9cee 353b cca0 c33d
00000220: 1fd2 a03d 549f 22bd f06b 89bd c51d b13d
00000230: b5d1 0c3d 0ee6 cabc 8ff6 dabd 5223 ad3d
00000240: 1534 0dbe cbf9 f53d 7494 c13c 5b3f cc3d
00000250: 2ffb 93b9 f994 e43c a106 f9bc 4075 273d
00000260: 5107 8a3d a0e1 103f 1e61 0dbb 4ba9 64bd
00000270: fbd9 83bd c97e 6fbc fe11 613d 83f2 88bc
00000280: c0a5 8a3d fb0f 22be 9943 b13b 4050 b4bc
00000290: 87c6 4bbd 0c76 e0bd 2a26 f5bc 04f8 aebb
000002a0: 1f0b 983d 8064 d43b ca84 bfbd 0d42 e03d
000002b0: 5792 a1bb ce13 a3bd 20dd 28bd d899 56bd
000002c0: e6c5 393e 35cb 1abc 89b1 fd3b 885a a23c
000002d0: 3945 dfbc d128 2cbd 42a7 7cbd a38e c5bd
000002e0: 76bc 67bd 3144 0bbc 1b6f 0b3d 0277 7ebc
000002f0: b2a3 74bc 906f e4bc 2711 71bd c4cd c4bc
00000300: 0138 633c 53ed 1abe a808 2c3b d9e5 9bbd
00000310: ca9e babc 8bf6 8a3d 96bf cf3c afc9 013e
00000320: b2ce 71bd fc62 2b3d ffaa 463c 42a7 e1bc
00000330: 714f 493d afb7 dc3d 22f2 0ebc 2514 8ebd
00000340: 96e9 a0bb 9649 7fbd a83e 093d f9b0 733b
00000350: 3803 4e3d 0c70 afbc 7981 b2bd 9ecb 4a3d
00000360: d772 f43d 6484 a93a be17 9cbd 0edf b53c
00000370: 1801 9dbb d53c 023e 1c53 c43b eba2 0fbc
00000380: afa6 bf3b 0084 663c 65c5 793c b9a5 883c
00000390: b5f8 1f3d 29c4 bdbd 61b4 833d 2c5c 0c3d
000003a0: f9fd 10bd f591 60bc b77a f7bc 6a5a 84bd
000003b0: 81d2 2d3d d685 41bb cbc2 093c 2c2c 853b
000003c0: d1f4 3a3e 2b81 f6bc 55f6 ca3b afc0 8bbd
000003d0: d1a9 ac3c 6ce1 32bd f10b 5a3d fcab 41bd
000003e0: 7ccf 44bd a96d 02be 77bb 57bc 14a6 4cbd
000003f0: 9dea 9ebd 9f52 39bd e184 a3ba b0c1 8f3c
0.09201491 0.05274152 -0.00635696 0.036278874 -0.13217236 0.06070574 0.037552733 -0.07405235
0.039373916 0.020646207 0.01090272 0.07012911 0.0016836355 -0.0021226532 -0.12094684 0.039933585
-0.14145431 0.027799128 -0.04158187 0.026951784 -5.954125e-05 0.020283772 -0.16856168 -0.025778977
-0.043160614 0.08192707 0.058866996 0.038946677 -0.09427884 -0.140891 -0.026235368 -0.08568232
0.063366 0.025840756 -0.009984248 0.11453258 0.013672133 0.0038223963 -0.087338544 0.04880195
-0.07966602 -0.08987208 0.07415357 0.017367214 -0.031053962 0.012528273 -0.017024476 -0.040897127
-0.055042915 0.09189737 -0.06430126 -0.015037017 0.02285115 -0.03982561 -0.005320064 -0.14810814
-0.02349932 0.018581828 0.020121593 -0.013220399 0.03415862 0.003982882 0.007024178 0.014725847
0.109287195 0.036374636 -0.013108461 -0.060497347 0.022843108 -0.06762954 -0.059382048 0.071085416
-0.0074793063 0.025722226 0.009583821 -0.04331345 0.02646417 -0.06552867 0.014955697 0.11094916
-0.0752992 0.06520491 -0.06955316 0.05903107 -0.023503974 -0.08802238 -0.072596036 0.013533997
0.015408052 0.09793024 -0.079778984 0.05940253 0.027524462 0.056517176 0.0010034973 -0.1077794
-0.12356149 0.06276912 0.04260841 -0.0116501525 -0.013471258 -0.049232837 0.01703637 0.0172266
0.041408446 -0.14043003 -0.068953566 0.040827107 0.014937756 -0.028428743 0.026936533 0.028719934
0.009766574 0.034472317 -0.11482149 -0.05264716 -0.06136152 -0.04080857 0.0065016933 0.064531855
0.003344777 -0.09581976 0.004836264 -0.08123149 0.13410483 0.05735586 -0.064330526 0.025238784
-0.04254592 0.111554734 -0.055656776 0.015921546 -0.13929749 -0.0031043289 0.002776063 0.09552154
0.078525774 -0.03970273 -0.067100406 0.08648256 0.03437968 -0.024767902 -0.106915586 0.084540024
-0.13789399 0.12010535 0.023630358 0.099730216 -0.0002822517 0.027903067 -0.030398669 0.040883303
0.06739677 0.56594276 -0.002157278 -0.055825513 -0.06438061 -0.01461763 0.0549488 -0.016717201
0.067698956 -0.15826409 0.0054096696 -0.022010922 -0.049749877 -0.10960016 -0.029925425 -0.0053396244
0.07423996 0.006481707 -0.093514994 0.10950098 -0.004930775 -0.07962762 -0.041226506 -0.05239281
0.18141899 -0.009447862 0.007742111 0.01981856 -0.027254688 -0.042031113 -0.061682947 -0.096463464
-0.056576215 -0.008500145 0.034041505 -0.015531303 -0.014931606 -0.027885228 -0.05885425 -0.024023898
0.013868333 -0.15129595 0.0026250277 -0.07612199 -0.022780795 0.067853056 0.02535991 0.12674592
-0.05903501 0.041842446 0.01212573 -0.027545575 0.049148027 0.10777222 -0.008724721 -0.06937436
-0.004910658 -0.062326036 0.03350702 0.0037184341 0.05029604 -0.021415733 -0.08716101 0.04951059
0.119359665 0.0012933132 -0.07621716 0.022201087 -0.00479139 0.12718518 0.0059913527 -0.00876687
0.0058487277 0.014069557 0.015244816 0.016680585 0.039055545 -0.0926593 0.06430889 0.03426759
-0.035398457 -0.013706674 -0.030209882 -0.064625576 0.04243708 -0.0029529235 0.008408259 0.0040641036
0.18257453 -0.030090889 0.006193916 -0.06823861 0.021077069 -0.04367201 0.053234044 -0.047283158
-0.048049435 -0.12737145 -0.013167254 -0.049963072 -0.07759593 -0.04524481 -0.0012475514 0.017548412
